logs/overfitting_K=0.1/version_24/model.ckpt (torch, 325445 bytes, 26 tensors)

rnns.0.weight_ih f8 [96, 2]
00000000: 8d69 494c 77e2 c63f e082 ba6c 61f9 c83f
00000010: b881 6e6f 65e4 c4bf c4ba 8159 5864 a63f
00000020: 16b0 539d 639e 80bf d8a2 39de d6e7 b33f
00000030: 9cc2 29d0 cdab c1bf 914b 1df7 951a a03f
00000040: d19d 1ecf 635f c83f 7b86 7b08 d09f c9bf
00000050: a6cf 976a f389 c53f 9480 3ef4 364c 7e3f
00000060: 6b0a 53da 6ffc c93f d582 4d3a 50ca bc3f
00000070: ed45 d04e 719e 99bf 6229 6cf7 f2ee b2bf
00000080: 6309 0680 1b2d d43f b8bb c84f 278b 60bf
00000090: e359 b43c af62 c2bf a7f0 abd0 90b2 a0bf
000000a0: b2f1 db10 6e00 be3f 781f 80da d28c 75bf
000000b0: 8547 5f4b 63ed c7bf e224 cb2a 5287 c63f
000000c0: 629f ef1d 5aab d3bf 676d f79d c385 9dbf
000000d0: 3c33 9dcd 45cb a73f ade3 2de5 dda1 93bf
000000e0: dbb4 30b5 aaa9 cc3f 918e 9091 1cc7 d8bf
000000f0: bf2d 7592 dcbf 97bf 59b7 4c4b 568b ccbf
00000100: fc6b 4bdb cc6e c23f 2be2 e08f 0841 9abf
00000110: 30fa d00b 5a26 c6bf 9e23 153a 20ef c53f
00000120: e26d 754c f96f 9d3f ef30 21b6 9780 84bf
00000130: 754f 0828 6eb1 b03f 1cb3 53b4 253a 7d3f
00000140: cedf 665c 6c48 c63f be7b e360 52b3 b73f
00000150: b587 ccde dbb3 b63f 661c 81c8 4d18 d63f
00000160: b287 cc8b 99c3 b83f 367b 3322 c490 cbbf
00000170: da2b 815b f286 c03f d086 ce54 1045 72bf
00000180: bacd 51c2 9ba2 bf3f cd25 78a3 da7f c7bf
00000190: e986 e842 7c48 dabf f897 2e39 1a12 6dbf
000001a0: 13fb 6c10 ef1e ccbf 1b2d 8a45 4116 c93f
000001b0: 6d6a 08b2 e8f3 c23f 3060 c8ec b210 bc3f
000001c0: eeb6 e5a5 012c ca3f 1667 248d adb0 b4bf
000001d0: efd3 2bbe 5ca9 d03f a690 ff10 e24b cabf
000001e0: d37f e9a3 360b 8bbf 8f0c a0df 75e3 a0bf
000001f0: c93b 3089 bd1c b63f 9e73 3047 0ee4 783f
00000200: 0de3 003b 30be ca3f 900e dda8 0823 c5bf
00000210: aaa2 16bc 3491 ca3f bf20 83e3 9599 a23f
00000220: 653f f417 2306 b2bf 5401 f4ac 0151 b4bf
00000230: be8f 798d 01f2 c33f 7502 c00f 735b 8cbf
00000240: 6eed 1f1e 89ef c93f 24b4 3cbb a1cc cebf
00000250: 7d55 890c 167a abbf 1e08 ecc0 2f38 c5bf
00000260: a1b5 f21c 80a4 c3bf 1ffe 82bf a31b a23f
00000270: d3f4 73b6 d058 c53f ee2c 058e 0a6b b63f
00000280: 2d5b 72f8 be7a cebf e61a 1aa7 5fd4 a0bf
00000290: 959c 9910 826b bd3f bd6d 2467 76cf b3bf
000002a0: 2553 b063 581e c73f 94cf 652a 9ab5 a1bf
000002b0: acd5 f582 1a23 abbf 5f98 edcd a330 d4bf
000002c0: bfb4 2d35 3b81 b8bf 14fb 9425 425b cb3f
000002d0: f525 91c6 7c8a bd3f d702 7653 9729 9c3f
000002e0: 564e a827 47c9 c23f 1e67 a307 c91c c93f
000002f0: ff2f 9a6e 7b2a b7bf 1683 88f7 813d b7bf
00000300: b56b 6de3 9eb8 d13f 32b2 e212 5eaa bebf
00000310: c3cf ce2e cc82 78bf 1b52 bdf4 43c7 c7bf
00000320: 1eff c65b 64eb c9bf aa86 a63b fcd0 b73f
00000330: b709 6a5a 0829 c0bf a372 db64 f8cc 7fbf
00000340: 25aa 2b26 494e 91bf 22a6 c32f 2589 a7bf
00000350: 4d00 bebf 4fc3 cebf 3b8d 60f7 b147 b8bf
00000360: e089 0e92 d9ad d2bf 2a4f 37f0 5b53 bbbf
00000370: 2197 e2b8 af0e c43f 79d5 2436 347f a13f
00000380: 15fc 87dc e656 ce3f 24e1 3ad8 ada3 cebf
00000390: 9cc7 41ca fd78 d0bf e20f 4f96 5162 bfbf
000003a0: c3c2 78cb 3f93 b3bf 105b 6220 253e cfbf
000003b0: 6ef5 0ab3 7216 b0bf b1e6 ef85 5197 9c3f
000003c0: e76c deb8 50dc c3bf 1930 4f77 d36b b63f
000003d0: 4498 ff8e 9a79 9dbf 808a 0d73 993e d0bf
000003e0: 5d9d 993e 0377 c4bf 195e 4d7c b136 923f
000003f0: dace f226 739f b3bf 209e 7333 2007 cabf
00000400: f9fb c8ff f1ca c83f b39f b54e dec3 bbbf
00000410: 6bfd 7b9b a2c1 b23f 8f70 7860 118c 803f
00000420: 11a3 8483 8ad6 c5bf af0d 3450 f49c 813f
00000430: af63 7208 af49 9bbf d771 5abb bd0a a13f
00000440: 0e65 4edb a68b cbbf d253 ce6b 4e27 c4bf
00000450: bc33 6e80 7977 b33f 8f3a c9f9 5d54 903f
00000460: 03d3 4053 a79f c03f 2478 7b20 e5e8 c8bf
00000470: d046 4c21 05b4 d13f c136 cbdf 88c2 c2bf
00000480: c540 9fd8 378f b4bf f81e f924 ae5e c4bf
00000490: ecab f990 5fdb bdbf 9976 ae04 9a73 ce3f
000004a0: 0c0d 9d60 99d3 c63f 112d ed8c a365 d6bf
000004b0: 0da4 844e 5417 d83f ff5a 080c 55a8 b13f
000004c0: 11ba 054b e95e 97bf 013d 1cb5 a3f3 b3bf
000004d0: 2857 c0bc 3e39 c93f 3f03 6075 b2b3 cfbf
000004e0: ce0a 5727 5009 d63f 10cc 9c6b 41ea b0bf
000004f0: 21e2 5455 92f4 813f ec12 3d03 1764 9bbf
00000500: 41af 41ec 370f ca3f 660c 227e 9dbb b93f
00000510: 1534 d749 509f 8bbf 360e 43eb 6630 c0bf
00000520: 7a8b 0b2e 2bed b4bf 1a83 fc86 b25b d3bf
00000530: b8af 22a0 a8c5 a5bf 900e 8f20 6707 b83f
00000540: bd78 a038 e553 c93f 158e 3c4c 9790 b1bf
00000550: a9c4 44fc b51b cc3f 446a 37e4 4ae7 a63f
00000560: 260f b3d3 ae50 da3f f0a8 3af5 43f9 d2bf
00000570: 1996 7a4b bae0 acbf e0c6 22a6 4a4c ae3f
00000580: 5539 54a5 9ff3 d1bf c615 b126 1538 8dbf
00000590: 0758 bf9f a7ca c53f af32 a430 89ac d0bf
000005a0: ba0a f7cb 6d04 cd3f c5b1 c15a 8a58 b73f
000005b0: 51aa 0cfe e396 acbf 1266 d67e 5e06 b3bf
000005c0: 7e0a 5bff 6288 b73f 8c87 4736 d912 8fbf
000005d0: 69b6 6825 2850 a4bf 385c 31a6 4b3b 94bf
000005e0: 4457 ff55 1d28 a1bf edb7 bc6b 549d b13f
000005f0: 4bdd 2f82 ad08 c0bf 6818 4dc1 9810 843f
0.1787861940855006 0.1951104908848924 -0.16322009984015806 0.04373432247745293 -0.008114603270279058 0.07775633740824206 -0.13805554069724202 0.031452833571754664
0.19041106808911804 -0.2001895944040831 0.16827242569672513 0.00739690271794315 0.20301626358385091 0.11246205733688026 -0.025018473086737037 -0.07395857372845208
0.31525313856413656 -0.0020194785886568888 -0.1436366125496554 -0.03261234805356255 0.1171940604362536 -0.005261253019860017 -0.18693200283319925 0.17600466813590915
-0.3073334972709657 -0.028830582157622155 0.04647272238671582 -0.019172160256377847 0.22392782065563818 -0.3871528073816331 -0.023192831458158866 -0.22300223042241887
0.14400635440583176 -0.025638707906383267 -0.17304540230721122 0.17136004291594714 0.028747458736104188 -0.010010895963340675 0.06520737149577178 0.007135531695195121
0.17408518325623706 0.09257998338169579 0.08868192853381525 0.3452333887148086 0.09673461592731661 -0.21535541219687965 0.12911824672695965 -0.0044603956165773645
0.12357495779161001 -0.18358929616833422 -0.4106741574670268 -0.003548670976175391 -0.21969402601276808 0.19599166770454066 0.14806851094256804 0.10962980538204259
0.20446796989875032 -0.08082089134077494 0.26033705302626137 -0.20544076757426416 -0.013204981686783334 -0.03298538546371176 0.08637604331327887 0.006076865934144941
0.20892908936527768 -0.1651316475418878 0.20755633529667722 0.03632801439522514 -0.07040614447418887 -0.07936106178749941 0.15582293899490013 -0.013846301000741005
0.2026225468724578 -0.24061986582219774 -0.053665818243341136 -0.16577717704791523 -0.15345765508156453 0.03536712372578798 0.16677292736850421 0.08757081954279375
-0.23812090998827654 -0.03287028231448179 0.11492169289850758 -0.07738437669870897 0.18061356418243082 -0.03458863990354569 -0.053002193914760326 -0.31546874151388765
-0.09572191284469776 0.21372248492294743 0.11539440009905617 0.027502407521299368 0.14676751552962014 0.19619095681155668 -0.09049197626353588 -0.0907822827653145
0.2768933506937928 -0.11978710137436435 -0.005984113301497676 -0.1857685990350014 -0.20249609452547984 0.09303261238394592 -0.12625221647983917 -0.00776383427520658
-0.016900198893305202 -0.045968210297200565 -0.2403354345551655 -0.09484398164254497 -0.29186095488890196 -0.10674070944452 0.1566981938132637 0.0341736141294104
0.2370270325481846 -0.23937008913140645 -0.257384727016978 -0.12259397430085486 -0.07646559445926031 -0.24408401566753257 -0.0628425299755315 0.02792098407733218
-0.15516099001693037 0.08758279478860266 -0.028784193971567854 -0.25382076488146055 -0.15988197857516698 0.017786763393216363 -0.07665176106348373 -0.2033424617031736
0.19369339932924826 -0.10845746442430375 0.07326713844303405 0.008079658276124028 -0.1706097738436019 0.008600147912608628 -0.02664826859526997 0.03328507339503844
-0.21519933422386156 -0.1574495340725251 0.07604178796300592 0.015946834917765215 0.12987224164103148 -0.19460739217805767 0.27661255122903317 -0.14656172683173987
-0.08031033552765894 -0.1591394119770866 -0.11662862100062882 0.2379028818949578 0.1783324929948339 -0.3499535442576454 0.37642390888009986 0.06897479575887287
-0.022822995380403614 -0.07793639346731497 0.1970594808232644 -0.2476714203949317 0.34431842653081624 -0.06607445599802042 0.008767264584649105 -0.02674900014177954
0.20358943019834366 0.1005190308515452 -0.013487460378110364 -0.12647711264990996 -0.08174390672824741 -0.3024717634416888 -0.042523641155042424 0.09386295838253944
0.19787278428061042 -0.06861253367656446 0.21959566896251673 0.044733372076468686 0.4111744944932404 -0.2964639563384841 -0.05640203639385905 0.059175808696989796
-0.2804946054974569 -0.014267125361707832 0.1702470331208021 -0.2605307555211693 0.22669765910366896 0.09119477000940097 -0.05583870388212076 -0.07431593510263948
0.09192484602230341 -0.015172669381118963 -0.039674048010380165 -0.019757444399456342 -0.03350917506001719 0.06880691175749094 -0.12526482445512452 0.009797280692179736

rnns.0.weight_hh f8 [96, 96]
00000000: 0f2a 9693 4ed3 9d3f 5ac0 3615 1d38 c23f
00000010: 1e52 2a99 c9a1 733f ace8 afa5 4229 96bf
00000020: 48b5 4bea 40b8 963f e20d 7791 c59a a0bf
00000030: bd0a bbea 5d5a 9b3f 7096 35fa 6750 b43f
00000040: 9549 bfb0 4a2c b7bf 6e3d 336b 4cdd 96bf
00000050: 3a49 431e e5bd c03f fa62 2d29 eef5 c33f
00000060: b558 1760 1549 a5bf e3f8 e42e 66e0 a3bf
00000070: e3e2 bbce d737 9abf 3fb0 bd05 4f11 c1bf
00000080: 3c25 024f d28f b8bf 50bd c852 469b b83f
00000090: a4b9 00e5 42e4 6cbf 8a84 324b 92d0 c13f
000000a0: 5ffa 445f b40f c6bf a613 88bb 720f b7bf
000000b0: 808d 8b49 62f9 a13f 2ed4 93cb 5481 be3f
000000c0: 9755 e5b6 1110 a13f c872 ae99 aa01 b1bf
000000d0: e2c2 3c0c 4575 7dbf fb85 a2a3 c689 bebf
000000e0: 6224 98f1 603d af3f fc73 46ce 6e75 c03f
000000f0: c437 6811 f19c a33f a4da 917f 0d98 7e3f
00000100: 67b7 d89d a153 c3bf c7f5 a4d4 82f7 c03f
00000110: 44f0 b555 35fc b63f 1845 26ea 842d 74bf
00000120: 5bf3 77f6 c780 8cbf fe71 4ebf 09e9 bdbf
00000130: 95e9 d442 7cc0 bdbf 5d27 60bd 820b be3f
00000140: 5ded de18 4ff1 b03f e751 1c35 c5e8 ba3f
00000150: 9152 a606 26f9 ac3f 4645 8a33 2430 91bf
00000160: 3941 60c4 46b0 afbf 4e9a d21d 75de b5bf
00000170: aeea ddf4 5d50 9f3f eb14 5eae c260 b4bf
00000180: b27b 36e7 f045 a13f f58d a55c e89e abbf
00000190: 13e6 5bd6 dd77 a6bf a774 0bc6 e8b1 b8bf
000001a0: 2c36 8d8c 4252 c1bf b561 85d8 b2f7 63bf
000001b0: 9704 e717 0edf b2bf d59e 965f 5441 ac3f
000001c0: df3b f3a2 8db1 a7bf c79d 4ba0 60bc b33f
000001d0: ecf1 5aa5 461a b7bf 378a 380c 8416 acbf
000001e0: b8b1 c3f1 1c74 a9bf 395b 6e2b 3af4 a9bf
000001f0: 3f8a 6bf0 6008 b1bf cf21 7b0d 2282 c0bf
00000200: 2669 9fdd 2d39 a93f 21c7 a8ab cdf1 b2bf
00000210: e071 a6c4 4322 ba3f e5c3 87ea b972 b23f
00000220: d04c 20e8 1343 a63f 5bde 9717 ffd7 c3bf
00000230: 70db 1548 554f ae3f 0f83 bec9 965b c6bf
00000240: 72cc 4cef 8cea 53bf 8201 6e7f 0abf bd3f
00000250: 1f2e 9b0c 72bd a4bf 9de7 0081 d166 7bbf
00000260: c52a c648 69e1 a6bf c925 b3f7 7847 943f
00000270: 0ad8 3754 86e4 a23f 5998 59fd 8009 c4bf
00000280: cc92 3162 66f0 aa3f e3ce 7548 b6f7 b63f
00000290: 1ff9 348f 7423 c83f aa59 9046 43d8 b1bf
000002a0: 0636 b590 abcd c7bf 0b57 bc37 c0b5 a23f
000002b0: e69a 68ba b275 b83f b28e 2c9e ad06 aebf
000002c0: f074 251d 5e47 a4bf c005 1378 e3f0 b1bf
000002d0: cd0a 234d ba31 853f 57f1 16e9 92f3 c7bf
000002e0: ea76 ed1d 40fd a3bf 8ea2 e67e 11df 95bf
000002f0: d18a 9861 00ab aebf de21 b43a 58ca bb3f
00000300: a824 30db 06ed b63f 9882 9047 9203 9d3f
00000310: d56d 9ee3 6601 a0bf bb1a 7ed0 c500 afbf
00000320: ab2c 4b94 c9e1 253f 785f 1fbc f557 c4bf
00000330: 9d26 fcb2 b330 a23f 1920 f505 a070 b5bf
00000340: ddd2 e61f b12f a13f e053 b5f2 6ccd 8bbf
00000350: 32e3 4597 0a4d af3f b8e4 8cd5 80ec d3bf
00000360: 9944 3656 b9cb b1bf a966 a74f 7178 b43f
00000370: 86a1 cf11 70ca 643f 2c1b 060a d8d6 aabf
00000380: 1e24 f21c fc74 cebf aa8d 833a e767 c03f
00000390: 1942 0052 a9db bdbf ac47 a7dc a9a1 9d3f
000003a0: 8a24 e1f6 4cb9 c0bf 0ccb 0490 8eb7 823f
000003b0: a220 d93f cd99 cf3f 20f6 5377 788d bc3f
000003c0: 7735 82e4 e1b2 a2bf 5de3 f115 aca1 a83f
000003d0: ceee 7603 495f b93f 088e 2952 8bb0 a43f
000003e0: d885 dd3f 3c84 d43f d565 8862 e7c2 b43f
000003f0: eded 77da 91ac 933f d687 ba6a b97f 80bf
00000400: 192a 6b3a e48e aebf 3953 ee54 afe3 a7bf
00000410: 6885 a643 9d1e c73f 05f4 f1a1 1c84 aebf
00000420: ac4b 9482 f7a5 913f ae7e 306f 96d2 8dbf
00000430: 66d7 de12 5db6 adbf e7a7 9767 9516 9ebf
00000440: dd9f beb2 6686 543f 364e 9ab1 7edf 783f
00000450: 7b95 2a08 83e0 b33f 4118 2ac1 fc12 aa3f
00000460: 61d9 73eb ffeb cebf 0996 fed9 df82 c1bf
00000470: 3d21 b0e6 1fbd ad3f 903e 2a23 3b38 b4bf
00000480: 6f3e c186 b197 be3f 50c7 d2e7 1793 b73f
00000490: 637a 53d5 808c 90bf 7a47 f039 b599 a1bf
000004a0: 9bd9 71df 3d02 93bf 2864 e18a e720 bdbf
000004b0: 5d76 b453 49d2 b53f 26d0 abab 6d98 bcbf
000004c0: 6b02 372f 107b 763f 3074 1f4a 5584 a4bf
000004d0: 62af cebc 3bad d03f 59f7 5548 5f39 aebf
000004e0: f7d8 252d 5749 cbbf 12b7 6b94 019b c43f
000004f0: b56f f7cb 9938 a43f 0900 8022 b2aa c23f
00000500: 74d8 ed27 ff17 c93f 35de 750c 01b2 ab3f
00000510: a11e af8d 5054 aebf 71a5 9af4 0a62 933f
00000520: 16c8 f009 85a2 c13f ff9d fd78 d0bd 93bf
00000530: a6b3 ea51 a2b2 abbf 030c b24d b6f8 b43f
00000540: 6c76 7a4f 8496 98bf 295a 6fbb 8dcc b0bf
00000550: a402 0333 cd38 a8bf 2e89 62de aae1 a63f
00000560: ad19 e8a3 f16f a83f 8c06 e623 790a a53f
00000570: 6898 3773 9441 ac3f 6516 e5e3 8eae babf
00000580: b45a d48a e590 c0bf 7e9a aef2 7101 a1bf
00000590: fc6a 4203 ea25 ca3f 530d 7b52 11b5 b33f
000005a0: cfca a988 9736 a0bf ddb8 0d2d 715a bf3f
000005b0: 95a2 0cd4 2bb3 b6bf 972f 1848 b516 b5bf
000005c0: a587 73c4 2aeb b1bf 86f2 8d8c 961b c33f
000005d0: 06e7 61ed d733 be3f fadc f7ca e0e9 c1bf
000005e0: 897b aa97 94f6 b43f bb82 e18d e43a b1bf
000005f0: fb64 b230 6bef 703f ca58 8d2b 2566 ba3f
00000600: d64c a8bd 6850 6e3f 0094 7c8e 9536 bd3f
00000610: 370b 556b 9f35 b1bf 5ffd 5b3e c088 b7bf
00000620: b783 21de 3295 a83f 0bd3 935e 37a2 8e3f
00000630: 4b95 c66b c3cd 97bf ebe6 1925 1014 b9bf
00000640: 21b3 1d4e d743 ad3f 9142 ed6a 4449 b13f
00000650: e50f 3115 6846 b73f 1c03 be8f 4072 92bf
00000660: acaa 5a4a 6a70 b0bf 6b50 01f1 cc92 adbf
00000670: 6a2f d724 c79a b43f a8f3 50cf ce24 adbf
00000680: 021f c7d4 64a3 aebf 40e8 a270 638f 603f
00000690: 9e18 46d0 429f a03f 7e3b 4d78 08bc 673f
000006a0: c875 78b9 3099 9c3f a865 8576 75a3 babf
000006b0: 9453 e2d8 6480 b9bf bb25 b7ee 8b8f b3bf
000006c0: a0d9 9dc0 32af adbf a815 e713 b8b2 9ebf
000006d0: d608 0757 b08c 75bf 4b98 74bb 6500 abbf
000006e0: a74c 6278 d041 713f fb06 caf4 91f4 a43f
000006f0: 806f 767f 4eb5 a93f 6e12 ac54 511e c4bf
00000700: d2b4 b86e 6e80 613f 4143 5742 b47e b13f
00000710: 7d11 9f33 ad4a b1bf 304e 09de a7a8 90bf
00000720: 9d98 14c6 6aa0 c1bf 49e5 31e7 d3c5 b3bf
00000730: b34d c3b5 27cb b3bf 3f28 52cc 849b a4bf
00000740: 672a 7a12 f69e b53f ed36 1f5c 8632 a0bf
00000750: 0f18 e090 0f83 afbf 0f22 4ef7 1d57 c0bf
00000760: 8113 53f8 2d15 a33f 1b6f 954b a21e b73f
00000770: e33f 7028 ae31 af3f b006 32af 4b92 2f3f
00000780: f027 458f badf a1bf c97f 3784 0642 c03f
00000790: 562b 53d5 d537 a2bf ad41 fd0c d378 a93f
000007a0: 0ddf ed97 f232 b8bf fac6 009c 3262 8d3f
000007b0: c201 7358 4646 b2bf f293 fa21 562e 943f
000007c0: 9923 df8a cc02 87bf 6be9 7ef1 59ae b43f
000007d0: b854 c59b bceb 983f 2a9c cab6 5f9e 963f
000007e0: 3fdf 29cf eeec b03f 1375 69b8 20bf adbf
000007f0: eda2 3b9e 0b2b b7bf fbe1 4ba1 5475 bb3f
0.029126384504289556 0.14233745132287617 0.004792964452140084 -0.021641770708790517 0.022187246608998096 -0.032430814749684136 0.026711909725018346 0.07935190065981046
-0.09051958861463157 -0.022328561823824193 0.13079513528516334 0.15594269762620866 -0.04157320783603905 -0.03882140467111286 -0.025603649132764594 -0.13334071903534725
-0.09594454220691245 0.09611930390450607 -0.0035268122228650656 0.13917759582276218 -0.1723542657072867 -0.09007947042853334 0.035105773427654974 0.11916093797829383
0.033325723243858345 -0.06643167736042266 -0.007191915243126986 -0.11928979392043708 0.061015157214634255 0.12858376571685415 0.03830674493302369 0.007469227531251708
-0.15098972518301965 0.13255343802477013 0.08978589384599994 -0.0049262229898812335 -0.013917505463717885 -0.11683712883536398 -0.11621834403641736 0.11736313937595129
0.06618208272168631 0.10511429354330169 0.05658835250065864 -0.01678520741058278 -0.06189175746124182 -0.08542568185894447 0.03058001334236831 -0.07960144764918524
0.03373673269674472 -0.05394674426022653 -0.043883259217136004 -0.09646468005253671 -0.135322874668803 -0.0024374478418105147 -0.07371604999117874 0.055185925167561635
-0.04627649892938001 0.07709316171132406 -0.09024468934052948 -0.05485928200893791 -0.04971399737573584 -0.05069143085636658 -0.06653409833556 -0.12897134454966738
0.04926436739306643 -0.07400212708378408 0.1020853381255118 0.0720630834182568 0.04348051270076214 -0.1550291886521674 0.05919901375721437 -0.17467007494726558
-0.0012155891719885206 0.11619630442692677 -0.040507854498710076 -0.006689852118194309 -0.04468850148540108 0.01980389606322833 0.03689975526860685 -0.15654003496746574
0.05261535595562847 0.08971728581473885 0.18858201019788454 -0.0697061583781308 -0.1859640556889845 0.03654289894454451 0.09554593134872 -0.05864470058284378
-0.0396069918231009 -0.07008191758634208 0.010348754385977621 -0.18712078458146195 -0.03904152264906975 -0.02135875069658027 -0.05989838782649815 0.10855628426737193
0.08955424166937809 0.0283339363269329 -0.03126069572973803 -0.060552770329242965 0.0001669462746093133 -0.15893432317420397 0.035527816389799606 -0.08374977250525752
0.03356698526787281 -0.013575411946172566 0.06113465401262487 -0.3113100133374007 -0.06951483111176272 0.0799628085582308 0.002537936101806251 -0.05242037889825321
-0.2379450932824349 0.1281708751404101 -0.11663301708200215 0.028937009899727847 -0.13065492682133978 0.009139169473745955 0.24688115708909658 0.11153366959839461
-0.036521014351005236 0.04810846107370168 0.09911018690666681 0.04040942552526522 0.32057100521896364 0.08109899669252425 0.019212988814599475 -0.008056114739989722
-0.05968392575376331 -0.04665897285227633 0.18062177470441587 -0.05960168339604625 0.017234675736357438 -0.01456182028601857 -0.058031948617481885 -0.02938302464273326
0.0012527468597713844 0.006072516343596448 0.07764452885984056 0.050926111774103784 -0.24157713886934132 -0.13680647033940854 0.058083531294018866 -0.07898301704903532
0.11950215854562328 0.092088216874598 -0.016160977383032803 -0.0343758233285731 -0.018563238871558956 -0.11378333225856407 0.08523996633126658 -0.11170087281408367
0.005488455982629685 -0.04007212190456533 0.260573324567977 -0.059031465129904155 -0.21317567543491808 0.16098041293246773 0.039494329593906675 0.1458342236001047
0.19604482125913913 0.05409243847946891 -0.05923701982061159 0.01892869108147494 0.137772207120691 -0.019278771767316624 -0.054097244739160374 0.08192004582274141
-0.024011676169371318 -0.06562124086426792 -0.04730836150838982 0.044690456053347524 0.04772906423390864 0.041095529205461195 0.05518783480128847 -0.10422604621734306
-0.12942189482483502 -0.033214150308869414 0.20428204688217722 0.07698162330330165 -0.03166650336506437 0.12247378683034378 -0.08867143561350084 -0.08237774858588263
-0.06999461456464802 0.14927942145358858 0.1179785685107185 -0.13994989309842493 0.08188751890928193 -0.0673048826588553 0.004134577476315511 0.10312111199650356
0.003700451442691137 0.11411413887670108 -0.06722446794905755 -0.09193040392346095 0.048013295760717715 0.014957840513014206 -0.02324586243925823 -0.09796238809385797
0.05715821102680808 0.06752421961324219 0.09091806905149687 -0.018013962529496927 -0.0642153197792747 -0.05776062433201975 0.08048672341754828 -0.05692144661632109
-0.05984034631143055 0.0020214979350301754 0.03246506493000932 0.0028972783497133716 0.02792812473318465 -0.10405668395596612 -0.0996153859617393 -0.07640909746182604
-0.05797728158261184 -0.02997863408542903 -0.005261124446805895 -0.05273740685724756 0.004213156067765989 0.040928422099581106 0.05021138482990661 -0.15717522272474888
0.0021364361653214226 0.06833960170412202 -0.06754572401320576 -0.016268370558760903 -0.13770804092309144 -0.07723736185461862 -0.07731865108080775 -0.04024901384498535
0.08445680571655033 -0.031635473962166795 -0.06154678958414205 -0.1276586015267331 0.037270962298442185 0.09031118722253632 0.06092590564378477 0.0002408711803561412
-0.03491003989127239 0.12701493698022961 -0.03558223942817189 0.04974994214592541 -0.09452739915093052 0.014347453485331386 -0.07138480815320405 0.019708009551909052
-0.011235807407403974 0.08078539033787073 0.02433676434278162 0.022088523418144636 0.06611530835823219 -0.05809881449816081 -0.09050057042226074 0.10725907266522221

rnns.0.bias_ih f8 [96]
00000000: 7ce4 815e 38f0 a8bf 9eeb ee53 b2df b33f
00000010: b3eb 3ff0 8a4c b9bf 25be 7c16 4149 b8bf
00000020: a7d0 6280 0f2a b13f d826 b371 38a0 98bf
00000030: 74c0 f50b 51bd bbbf a08e 691d 76ac 88bf
00000040: 8eb6 8764 a02b b53f fdd7 7df5 5575 7cbf
00000050: 1590 99ff 9713 b9bf bd83 0e93 733a b1bf
00000060: a006 587e 41bd 7d3f 541a ace1 f721 b2bf
00000070: 06af d550 54ee a5bf e2a4 f764 eed5 c03f
00000080: 9ded e41d 6df6 553f d121 90e3 2e5f b43f
00000090: 51ac 5ca9 13e9 9bbf 4ed3 8dcb 9da9 9abf
000000a0: 764d 7890 61f1 babf a58d 5550 63f0 b0bf
000000b0: 6077 8b70 eb07 b2bf 1e0e f20c 4e2a bcbf
000000c0: ea55 7821 e87b 683f 260f a7ae ea91 ab3f
000000d0: 0c34 e180 8a0c b83f 3f40 9695 4775 903f
000000e0: 1d01 35df 00b1 9abf 375c fc50 50ac aabf
000000f0: fee2 165d 4e1b b43f fe45 21c9 5c07 7fbf
00000100: a4ac 9081 ea1c a1bf b81a 18eb ed0b 89bf
00000110: ee6d 609f b0c3 b2bf 4f12 7fb9 6666 bbbf
00000120: 3fd5 d6b7 58e2 b4bf de6c 9f2c 0775 7dbf
00000130: 40ff a835 5cc1 b2bf 13ac 70d5 16c2 9cbf
00000140: 2429 55eb 7b47 a9bf 3e22 164b 8df2 c13f
00000150: 1951 e377 90a0 b9bf 27f5 7e86 d5e0 a53f
00000160: 03b3 14de 2fa2 afbf 608e 6392 0c60 61bf
00000170: f61d d680 4a73 bdbf 5656 92bb d63b c0bf
00000180: 87b8 59d7 005f bfbf cfbd 7f4c 4bed 983f
00000190: 5d9e 1231 dfd4 c23f bf93 8dcd 6f67 983f
000001a0: c9be f348 c2f1 b93f 1e72 268b 70df ad3f
000001b0: 2816 d6e8 da05 68bf 41ce 04a8 d974 90bf
000001c0: 1b18 f3a4 97bd a9bf 96f1 d0e0 86ed b1bf
000001d0: 453b de9a 283b b53f bc1f d18b 67a9 54bf
000001e0: 95d6 3368 c388 87bf add2 c97c a71d b43f
000001f0: d0db 3410 4467 983f 1d29 85e9 0655 b53f
00000200: 34b8 f575 2420 babf fddd 7adf cf2b be3f
00000210: ba7b 607a b489 7abf 938d c90b 73a0 783f
00000220: d82b c7d2 439e b13f d9ce a058 da1a 81bf
00000230: 67df 5708 6e13 b9bf ac82 d8d1 ad95 babf
00000240: 0c60 2fd7 27b8 be3f 6801 79ce 6377 a8bf
00000250: cae6 7047 84fc a4bf 074e a70a 3b64 b53f
00000260: 3ecd b5e8 f57f b1bf dac5 1e22 0b4b a63f
00000270: e530 a9bf 69c7 a8bf 7cec 6281 facf a43f
00000280: faaf 5066 cb2c 8cbf 6ba7 3dee bc95 b03f
00000290: 3e11 1f51 6d0f a2bf fa35 054f d844 bdbf
000002a0: a2ad 8c07 733d 803f fea1 8e8c 4bb1 b3bf
000002b0: f181 ca52 811c af3f 5c62 d140 58e8 b63f
000002c0: 0add a4ab b640 6abf 5d37 d68d 6863 a03f
000002d0: 1afc 304d 69ad 4fbf c511 1ecb a836 ae3f
000002e0: aefe d8a5 db50 acbf 8023 8ffd c215 a0bf
000002f0: 83f7 e29d bfe1 9f3f c5e2 5858 c49f b13f
-0.04870773461966224 0.07763208912994776 -0.09882419934721902 -0.09486777113919993 0.06704804310249078 -0.024048692645726927 -0.10835749189368632 -0.012047693989365726
0.08269693807934628 -0.006947837617067518 -0.09795522680502729 -0.06729814853907974 0.007260566553215192 -0.07083081492974347 -0.0428339337039159 0.13152866296812876
0.001340490874624268 0.07957737975824065 -0.02725630494311943 -0.02603766016860059 -0.10524568345163296 -0.06616802893909453 -0.07043334481883567 -0.11002052131703308
0.0029887708476603507 0.053847631282705685 0.09394136091687261 0.016072386269627478 -0.026065839408375802 -0.0520958994731519 0.07854165814104516 -0.007575380748748637
-0.033423736873680526 -0.012229784714702915 -0.07329849139244235 -0.10703126934738204 -0.08157877434026249 -0.0071916847463981675 -0.07326294241010789 -0.028084141518927973
-0.04937350509369967 0.14021459738093428 -0.10010626723243767 0.04273097292705535 -0.0617842634768291 -0.0021209950965486585 -0.11504045148296158 -0.1268261352421855
-0.12254338510112649 0.024342705291869934 0.14712133308533995 0.023832079812013292 0.10134519845064029 0.05834533403978902 -0.00293247943654042 -0.016070748214771283
-0.050274599919746 -0.07003062237430976 0.08293393879851603 -0.0012610922997442339 -0.01149132405997059 0.07857748791304671 0.023831428040661795 0.08332865906882998
-0.10205295448187784 0.11785601812413656 -0.006478981964419478 0.006012391470537354 0.06882118125865533 -0.008351999120442087 -0.09795272544567767 -0.10384642003237826
0.1199974918703221 -0.047785872415718356 -0.04098904964525969 0.08356064806076101 -0.0683587735309645 0.04354128638750483 -0.04839640106783508 0.04064925031112751
-0.013757313785468728 0.06478482071329743 -0.03527394881487787 -0.11433174065788157 0.007929705303090288 -0.07692405873843453 0.06076435218460919 0.08948279936283526
-0.0032046859534166127 0.032008426012096726 -0.0009667171638126943 0.05901076774083295 -0.055304397578308837 -0.03141602845386782 0.0311345996967627 0.0688441005412513

rnns.0.bias_hh f8 [96]
00000000: e70d bf10 edb1 b63f 22d7 dd87 39a4 a83f
00000010: 92d7 7f40 fb25 aebf 041e 3498 0ce9 713f
00000020: f3bc 742e 8c9f 98bf 3636 9303 556b ba3f
00000030: 10fd 51a0 2c0a 8e3f 1767 29ce 8726 c33f
00000040: 074b c21b d4cc 81bf 87dd 571f 7fee b1bf
00000050: 1590 99bf e7d1 b3bf 7df8 e2e1 7442 a43f
00000060: 3dc0 f29b 72ff c23f 2d96 4f79 700e 9d3f
00000070: 96d7 6af8 6fd3 b0bf dda4 f794 9f7c c03f
00000080: f476 f28e 488e 643f 68bc df58 6005 afbf
00000090: 99b1 72a5 0d9c 78bf 2d8b 1cad d970 bd3f
000000a0: bb26 3cf0 a8c4 c0bf c992 535d d9a8 843f
000000b0: 4311 e95e 089f a03f 1a1c e419 6915 aebf
000000c0: 5485 1722 86a4 aa3f 7b87 5357 6a4f b73f
000000d0: 0c34 e140 6b29 bc3f ee6f 9a40 899b b2bf
000000e0: 6804 d45c fc93 76bf b5a3 036f 3e53 a43f
000000f0: 8171 8bb6 df08 c03f 7c51 4872 f91f 92bf
00000100: a4a9 373f dbee b13f bdfc 9c82 f191 b73f
00000110: 1948 7eea 9c6c 943f 55db 01cd 7948 a53f
00000120: 2cab a4e0 d548 953f 8ded 931d a984 a0bf
00000130: 2efe 51ab db84 aabf 022b 5ce5 a60d bfbf
00000140: 8694 aa85 ec66 b3bf 2bee 4ee7 8000 94bf
00000150: 10bc 72e0 8523 913f 33ea fd0c 3ac6 963f
00000160: 04b3 144e 1b7c a3bf 1a8e b37d f33d 9a3f
00000170: cfc3 533e 7f0f aa3f b1b2 925c 7087 91bf
00000180: 87b8 5917 f7c5 b8bf 80ef 1fdb f2de bc3f
00000190: fa3c 25d2 eb5c bd3f 85d8 e444 24f4 86bf
000001a0: c7be f3f8 6709 b63f 108e d9a4 c2ff a9bf
000001b0: 664f b9b8 05ab b83f e498 fd1b a7d6 a83f
000001c0: 4830 e609 eead 9dbf d818 0f0d f061 7ebf
000001d0: 433b de3a 88f8 bb3f 0e77 a1a3 6a25 aa3f
000001e0: 8cd6 33e8 c10f 86bf b5d2 c934 d661 b93f
000001f0: efed 1d12 6171 a53f fdb6 d633 a44d 80bf
00000200: aa8f 1454 84de a23f fddd 7aff dd3a be3f
00000210: 26e1 6799 515a 9e3f 3367 437f 391c b3bf
00000220: 29d4 38dd 9a30 b4bf c333 2866 3f8d acbf
00000230: 4b41 500f 0094 a63f 69fa 4e5c 022a ae3f
00000240: 2440 a111 f4a1 a5bf 287f c3b8 97b3 ba3f
00000250: e44c c623 01c1 4e3f 176f 3a75 4d48 853f
00000260: 7335 d722 ebf2 95bf 764e 7867 53ab c2bf
00000270: 344c eadd 2fab c2bf 6976 b1a0 c171 b53f
00000280: 0b2c 9419 a2cd a7bf c04e 7b58 8824 a93f
00000290: 4fc4 474c aab9 c3bf d76b 0aae 3dcd a6bf
000002a0: a1d4 1c6e 0a9f abbf ed87 3a42 7010 96bf
000002b0: 915f 4d6b 630e c1bf d812 8b86 5278 8e3f
000002c0: 994d ba2a fd5d abbf 5de4 1459 15e8 b8bf
000002d0: 4cf0 2c8b c126 8d3f 0c72 0fe7 2969 77bf
000002e0: aefe d8a5 7839 acbf 5a6e 3821 0e71 b63f
000002f0: cc21 7408 e3a8 72bf 7bc5 b1f0 7134 a43f
0.08865243586392745 0.04812793525245086 -0.058883525489292 0.004372643659059875 -0.024046125731897083 0.10320025765687366 0.014667843477808279 0.1496133572243756
-0.008691460702072286 -0.07004541888442449 -0.07742165019732312 0.03956952340512119 0.1484206448999447 0.028375394252995335 -0.06572627844692955 0.1288032033328709
0.0025092522769928297 -0.060587893341897125 -0.006008199029718852 0.11500320888857792 -0.13100158434126805 0.010087679062459458 0.0324633231980749 -0.05875709954312232
0.05203646818314192 0.09105553276051907 0.11000700315453588 -0.07268579318264276 -0.005512223998494915 0.039697600413837554 0.12527080930057014 -0.017700097656488264
0.07005090993303625 0.09207066954421612 0.019945575535139513 0.041568571353244245 0.020785657726416648 -0.03226212011392269 -0.05179487673103399 -0.12130206203088892
-0.07578924430215936 -0.019533170812549166 0.016737071823339333 0.022240550082168475 -0.03805623367438751 0.025626949832156944 0.0508994830687538 -0.017118220949373156
-0.09677070922927743 0.11277692651486682 0.11469911461357532 -0.011207850792384963 0.08608102634365898 -0.05077942144705727 0.09635959396228841 0.0485126706760626
-0.028983802179525037 -0.007417619418396103 0.10926104962548515 0.05106671569295261 -0.010772242449529366 0.09914912022379492 0.04188063951638898 -0.007960589248650058
0.036853919280729855 0.11808574187568151 0.029641413677354532 -0.07464942318929672 -0.0788666524975531 -0.05576513406786134 0.0440979021733506 0.058914254921081995
-0.04225123133858258 0.10430286656219023 0.000938535267368226 0.010391812458059797 -0.021434473039155088 -0.14585344841235653 -0.14584921203331336 0.08376703427480837
-0.046490731832896946 0.04910684661959186 -0.15410355305314957 -0.04453461408157693 -0.05394775957248866 -0.02154708294131773 -0.1332515977799145 0.014877934199270568
-0.0534514536531347 -0.09729131150096877 0.014234077510643449 -0.005715526277495286 -0.055125971074173705 0.08766258536382435 -0.004555594299070664 0.039462624198573125

lins.0.weight f8 [2, 96]
00000000: 98b1 513f 94ba ad3f 8e14 a997 f146 bd3f
00000010: 59fb 3949 0a9d bdbf dd44 bd6d 0432 b6bf
00000020: 797c 4491 fb02 a73f dc36 9d89 88bf b63f
00000030: 34dd 6414 eac4 76bf a402 6b1d b085 c13f
00000040: dedf 05bc 404a a6bf 98cf c1ff 154c b1bf
00000050: 8da4 3f78 5762 b1bf 1d45 5499 946f afbf
00000060: 76dd 2f90 90a5 b43f b9b2 fab6 01e2 c3bf
00000070: 8871 146f 2347 ba3f da8e b1da a2cc c53f
00000080: 81c1 3354 630a a0bf 7aab 90a7 9fab c53f
00000090: 4392 25f5 976c c3bf 7839 9055 0cac a53f
000000a0: 38cb a0a7 a4c6 b4bf 5ab6 c25b bba1 a63f
000000b0: 2786 42e1 4ee5 b2bf e6aa 4c2c af0e 82bf
000000c0: f863 f24e 44a0 983f 1542 36ab 4d64 a23f
000000d0: 3757 0f95 0f49 b2bf 9924 3e0b 4609 ab3f
000000e0: bdd9 1cd8 3c5e d13f 86e3 44e0 e6f8 93bf
000000f0: d7ce 19f7 d0f9 b7bf cc1e 4dfc 7ca9 97bf
00000100: ff9f 308a f5cf ac3f eff2 d02e 9518 b13f
00000110: 7505 32fc 939d c73f 6808 617a 159f 81bf
00000120: 4366 89df 3cd1 c9bf 96d5 098a 32e2 bfbf
00000130: fbfa ab3a 357b c4bf 29da 5c98 b92c b0bf
00000140: bf93 75a7 4f1b a23f 8932 19e7 d757 bf3f
00000150: 73bb 8b7c 0467 c43f d3fd f5e6 4bfd d03f
00000160: b0fa 5d44 7ccc b03f 7851 df9f 1134 c33f
00000170: aa51 bc39 ac0f c03f 5bec 1f95 0f30 c0bf
00000180: 7ce4 80f5 58aa b1bf fc65 3932 5909 c3bf
00000190: 120d 1e23 8f9d be3f 07d0 0f48 1108 72bf
000001a0: 8351 9122 aeac c23f eb93 a211 43b7 a3bf
000001b0: 9f3f fe9b 68d8 9d3f 95a8 f9fe 11c6 b13f
000001c0: 43b1 7f92 117c 54bf 94b2 889a ed1d a1bf
000001d0: 3a4b 324c 4ff5 bd3f 8f3a 8b65 42d1 b03f
000001e0: 7218 27f8 7548 933f a75d 2b81 c511 aabf
000001f0: fdad cc21 7a94 afbf 76ba 5978 e2f3 c0bf
00000200: dddd 7c66 f77c b4bf 4b76 aca2 a175 b93f
00000210: 422c 1a32 6edc ae3f 52d8 6225 a333 a13f
00000220: 2879 fd38 e980 c6bf febc 2c75 0a73 bc3f
00000230: f867 d7b7 95a6 bdbf 4e14 8b74 d779 c4bf
00000240: f121 66cd 2005 a53f 014a 8df0 1481 9dbf
00000250: b7db 1e19 b168 be3f e33a 4428 d8dd 7c3f
00000260: 5a15 5b2f 25c4 bcbf 6096 f930 e14c 943f
00000270: da80 8309 0bb9 97bf 8207 a5b8 a3bc b93f
00000280: accc fad8 7ea8 b63f 802a 1500 6722 c63f
00000290: fff2 e396 4cd7 bbbf d88e 25fc d099 b5bf
000002a0: 0afc 1e2f a575 86bf 2f5e 5ffd 5050 b8bf
000002b0: 0462 3622 0c83 c2bf 9b67 a307 5844 b1bf
000002c0: 0131 3b0e e5cd b03f c6df 0bf7 4f58 7dbf
000002d0: 0130 f293 8218 bcbf cab7 d61b 80d7 b93f
000002e0: 85e5 4df2 f1ae 96bf 2f7c 2546 4a58 a63f
000002f0: b6a7 7601 e429 abbf 2f33 2419 e16c c73f
00000300: 7fb0 c3bd c88f ab3f 6b98 f3e6 ad9a 6cbf
00000310: 8a9d d63d 884d a23f d229 a35b 109a aabf
00000320: 558a 2ec0 8b96 b8bf fac3 076a 8bc2 b83f
00000330: fbec 13b0 7cd2 b33f e002 0cc4 2c4c b8bf
00000340: 6f4b 6e0c 9f3a ae3f a14a 198c 8c60 9dbf
00000350: 0eb6 acf2 0f5d 93bf 039c 8c9d d17a 953f
00000360: 6364 830f 3c33 6e3f f5d4 d283 a586 a93f
00000370: 1cc7 e41f 7ad3 d3bf c3d8 b5ba 721f b2bf
00000380: a4e1 c9a4 7552 903f 564d 50bc 2bc6 a03f
00000390: 2664 7760 224d 8fbf f0c1 cb4d c806 c43f
000003a0: 05f5 7a62 5c50 aa3f c7fd a368 97f7 c93f
000003b0: 7107 0587 62ce b8bf b28e 46ca ab63 82bf
000003c0: 26f7 1dff 1a70 bcbf 50c6 42ed 2d14 abbf
000003d0: 015b 95f4 4adb bf3f b354 ba78 d4c1 b93f
000003e0: f1a8 c617 8e68 633f e8b9 6d2b b946 b9bf
000003f0: 27fa 61fd 33ce b63f 468e 70d4 2155 b13f
00000400: c55d 1d37 3a75 b7bf a09e 51b2 b0c9 8f3f
00000410: eb45 06fa 03f6 91bf feea ce0c bb94 a2bf
00000420: 3f3d 393d 83f4 903f 2370 ebea ed18 a3bf
00000430: edfc eb6f e0ac bfbf f439 8528 31a5 adbf
00000440: c7e4 de8f c75b 563f ed22 9370 22e3 a7bf
00000450: 6698 b718 d8ff 8d3f 8d55 3a89 3697 b5bf
00000460: 036b 4eeb 9994 a7bf 386b 7aa8 fb03 bc3f
00000470: 0e96 b882 2ec2 c13f 09d1 73a8 b028 c0bf
00000480: 4e03 8958 6202 afbf b97a 12f5 eff7 8c3f
00000490: 618d b403 345a b43f 1a65 a3ea 4659 a5bf
000004a0: 7ab6 2f0f 10c2 a73f 175a c7e1 128a abbf
000004b0: a1de c781 5bf9 b4bf bc47 17ee c875 be3f
000004c0: 07c3 93cf 1bb8 b33f fa17 8c6d 583d babf
000004d0: c21a 87d5 08a2 acbf a016 06f4 f1bb 773f
000004e0: 2fe8 0926 f1f4 5b3f 9b05 f227 53b0 8b3f
000004f0: a9eb f521 9ebd b73f fcf2 d67e 36e2 97bf
00000500: 8a09 01a2 074b b5bf dece 918f fd17 a23f
00000510: 13f6 fbc6 a04b b6bf a04f 2e57 9f58 a03f
00000520: 342e e45f 7e0f c1bf c4c6 2c6d 4c3a b33f
00000530: 19e8 11a9 d9a8 c3bf a8d6 9cf7 971a ad3f
00000540: d6b1 12e9 e6c1 97bf db80 384b a82a b43f
00000550: 3ff4 aedd 9f6b ccbf 8c26 5778 aab9 97bf
00000560: 81b4 9cfa fbc5 703f 5a77 616b 7029 b2bf
00000570: a098 89db 7ff1 b3bf a3b3 3f07 469d a53f
00000580: 677e da13 4588 b03f fae9 de91 3afd 50bf
00000590: e1d5 32fb 1fbb 5e3f 4132 eef5 8206 a1bf
000005a0: 01fd f7d7 6231 99bf ae2d 8419 8704 a1bf
000005b0: eb33 ac70 f0c2 753f 7073 4577 e243 b33f
000005c0: e6cb e962 1aa5 b6bf 57a0 b72c 65b1 b9bf
000005d0: 327c 8858 b353 923f f989 70e8 2bdc 9abf
000005e0: fa59 28a1 9f36 c3bf d0c3 67c2 52f0 b93f
000005f0: 5287 a2cd 5c1a ae3f b027 6de6 de48 67bf
0.05806411049784116 0.11436376526497069 -0.1156774929786314 -0.08670070342238341 0.044944631083347404 0.0888600669834107 -0.0055588859307172285 0.1368923324244139
-0.04353525443269722 -0.06756722921437441 -0.06790682492978047 -0.061398166386547916 0.08065131683530588 -0.1553346770719111 0.10264798604879932 0.170307499679544
-0.03132925417765176 0.16930003816500144 -0.15175151319557942 0.04232824844813171 -0.08115605442507678 0.04420266623615694 -0.07381146430500306 -0.00881707052174847
0.024048869436771952 0.03592150416364263 -0.0714273203769523 0.052805127022176275 0.27137681107287986 -0.01950417274312912 -0.09365564377531697 -0.02310748376774434
0.05627410232438023 0.06678135292981911 0.1844964009688216 -0.008604209706508395 -0.20169793047789328 -0.12454524869993686 -0.16001000752290637 -0.06318244905273986
0.03536461753063901 0.1224341334538598 0.15939384538020426 0.26545999102378665 0.06562019986265955 0.15002651506678055 0.12547829455492138 -0.12646670133094315
-0.06900554651009999 -0.14872279121736642 0.11959166152341918 -0.004402225023103063 0.14589478195069824 -0.03850755300781102 0.029145845910136022 0.06942856287938277
-0.0012502833942518866 -0.03343145858193455 0.11702437982812067 0.06569304446314049 0.018831103583373872 -0.05091683580183864 -0.061679665208739444 -0.1324427688263829
-0.08003183605330073 0.09945116254353896 0.06027550088500579 0.033597086251959354 -0.1758090523025626 0.11113038407050976 -0.11582313288036505 -0.15996831122007155
0.04105474955855815 -0.028812720472453538 0.11878496993345676 0.007047504772585286 -0.11236793905398682 0.019824522604173445 -0.0231668209606831 0.10053466089178012
0.08850853726726154 0.1729248762515745 -0.10875395473335557 -0.08437830120015677 -0.01096657800724012 -0.09497553048947148 -0.14462424917725525 -0.06744909464342046
0.06564170453492936 -0.007164299357775355 -0.10974899398769368 0.10094452552468094 -0.022151737608032036 0.043642350256725464 -0.05305397527565907 0.1830102322350284
0.05383136097393137 -0.0034917255903677467 0.03574777369368139 -0.051956664262963095 -0.09604714815081057 0.09671851481085972 0.07743052767539275 -0.09491233621885042
0.05904099489921221 -0.028688617754890292 -0.018909691988644943 0.02097632907966941 0.0036865399416510665 0.04985539659666386 -0.3097825347386889 -0.07079236086233025
0.015939558203599838 0.03276192353964784 -0.01528384072200779 0.15645698355321214 0.051394354840775626 0.20286839112666952 -0.09689918323877379 -0.008979169950925712
-0.11108559349483169 -0.05288833161592932 0.12443989249491595 0.10061386058289905 0.0023691916705575957 -0.09873540220517152 0.0890839093790211 0.0677052634860554
-0.09163249822210336 0.01552141231714127 -0.0175400372841689 -0.036290974915990745 0.016557741748610907 -0.037299570967406014 -0.12373163921801096 -0.05790094012865046
0.0013646553847890695 -0.04665477394298088 0.014648140196140424 -0.08433857775010818 -0.04605561253921133 0.10943577635991353 0.13873845465529694 -0.12624176240172627
-0.06056506472351107 0.014144777933606677 0.07950139131985658 -0.04169675459133711 0.0464024561441478 -0.053787794171217644 -0.08192989271617047 0.118984754684134
0.07702802484324077 -0.10249855684750733 -0.055923725190543574 0.005794472818143298 0.0017063479391752447 0.013519906670128637 0.09273708657376169 -0.023323871127774773
-0.08317611413170858 0.035339282775479694 -0.08709149225247641 0.03192613543720246 -0.13328532869523857 0.07510831513789201 -0.15359040027016205 0.056843518234399426
-0.02320061490597588 0.07877590023463503 -0.2220344383657977 -0.023169196696278635 0.0040950625350834055 -0.07094481107330122 -0.07790373906900294 0.042215526947848823
0.06457931265549065 -0.001036936947896748 0.0018756687466469012 -0.033252804299170886 -0.02460245555084573 -0.03323766886213818 0.005312861651657545 0.07525458728691858
-0.0884567729461164 -0.10036308614474031 0.01789741733420786 -0.026230512678134563 -0.15010447854065473 0.10132329221939007 0.05879488001052259 -0.002842364646686378

lins.0.bias f8 [2]
00000000: 82c1 379a cfea b23f b02d 91fc 60cb aabf
0.07389543070872232 -0.05233290751547359

best_score f8 []
00000000: c0c4 4948 617c 313f
0.00026681304033277994

best_model_score f8 []
00000000: 68ee 9e72 8670 353f
0.0003271415940806267

exp_avg f8 [96, 2]
00000000: 6ae1 a6ed 0855 ebbe 5156 3a54 6096 eebe
00000010: 1a4b 2ec1 6eb5 f6be 5d83 7f82 57f6 f1be
00000020: 261d 956c df2a f23e 7c86 97aa ad9c e03e
00000030: ec6e 4f91 69b9 f03e 84b8 0d4c aabb ce3e
00000040: 52e6 ac94 de33 ef3e 9daf 2517 b8d6 f23e
00000050: ab00 712a a9d8 f4be cb98 5885 69b5 ee3e
00000060: e251 f16e cc89 a43e a4e6 592f 1620 f33e
00000070: 081e 4d7b adee e93e 507d b606 d864 ecbe
00000080: db4a 5c62 7a4c c13e b116 aeff cde0 e2be
00000090: 54b3 7daa 3f80 dabe fb36 70a7 7a25 f4be
000000a0: 0983 eba9 aa67 f9be 6fb3 8d03 ad3b c93e
000000b0: 5e40 6f29 5cf2 d93e bcf0 b0d7 58e2 fc3e
000000c0: ba39 79a0 da13 e7be 0bfa 071b c8cd c73e
000000d0: 1be9 a7fc 80a9 953e 0718 bce0 b333 e33e
000000e0: 42fe 553d b629 05bf 7be2 8119 7d28 e53e
000000f0: f90f d956 9cba 02bf dc0f 053a 2d3e 00bf
00000100: 548f 439b 407a 093f f53d 0168 93c7 013f
00000110: 2ad4 6437 394f fcbe fcf1 35a7 1762 b3be
00000120: 225c 2f84 6ad5 ec3e 00a4 b2e3 c458 d73e
00000130: 0399 f46e a28a e9be d001 18cf df27 e43e
00000140: e9aa 425e 450c 1a3f 646a 19ea 2fa0 1a3f
00000150: c417 1ffd e823 fa3e 42f8 28b9 1211 d53e
00000160: 7007 2055 fb6d d0be d26c 8dd0 d93b c5be
00000170: 3148 b4ff c70d 023f 226e 03ba 982b 0e3f
00000180: 1f5c 1323 2037 00bf 7f7a b5ad 79e9 04bf
00000190: ee5a 9702 a415 073f e238 9eca 7ffc e33e
000001a0: 1aae bd8f 212d 03bf 01b1 5a9e 82a0 0abf
000001b0: 4601 cd38 ec3b e33e 7056 0ce9 76d7 7fbe
000001c0: 43f7 aec3 4487 d7be 3180 21c3 305b eabe
000001d0: 4254 f175 41ac 06bf 08fa 8a2a 4995 f0be
000001e0: f87f b77a f95e ea3e e319 a007 a9dd f2be
000001f0: 0b9a 3ea9 4450 083f cec6 3c9c 0edb 073f
00000200: 5b91 84a7 6ac6 0d3f d53e 3c1d 444a d03e
00000210: 70d7 1d5f 606a 0e3f d359 4778 29ad ea3e
00000220: f520 a29d de85 03bf 9204 907e 09cb 02bf
00000230: 1a79 ec84 6c67 b83e 9c7e ebb3 ea91 d23e
00000240: fb02 9343 4b54 dabe 5b0d 0d64 b909 edbe
00000250: 06b9 ea93 c195 f03e ca5c d8d0 94f9 c2be
00000260: 75e0 b027 19f1 003f 0fc5 b2d1 9f8a dabe
00000270: 2cb5 681b 3eb4 fb3e a347 ac2c 9699 d3be
00000280: 725b 7403 b408 04bf e2ca 3213 4d1b e3be
00000290: 31ef 6fa4 9f82 f4be fec0 ccfe 01c2 f2be
000002a0: 17da 1880 eaaa ed3e aae3 bbef 22b5 043f
000002b0: 5140 f9f3 50d9 e63e 150c 9d9b 23ec e5be
000002c0: f764 5774 6d47 e33e 66ee 2012 7777 003f
000002d0: 2a8b 46bb f7d4 c63e 130f 41ed cf43 e13e
000002e0: 0a1f 6712 55e5 023f bd5a 1a75 48b5 063f
000002f0: 62cf e966 6baa ec3e d4ec 24c6 905f f03e
00000300: 116a 83fb 471f c83e f793 f279 521b d1be
00000310: 8535 60f2 aa17 fabe 2b62 1e4e 998a 0abf
00000320: 0eb2 0842 7ccf f9be 4e4b 7db4 fba9 02bf
00000330: f3d3 bb45 5860 f13e e42a ad51 0edb 033f
00000340: d2bb fe7e 9dc5 fd3e 24ef 040e 8fe8 d23e
00000350: ad21 1240 637a c63e 360f 6d92 2f6c d6be
00000360: 8155 7136 f5e1 08bf c563 7f3c f32b 12bf
00000370: 6497 23a6 b600 f4be 6e7b 1553 e33c e3be
00000380: 2846 074d 8f22 eebe dba1 d7ab 8964 e33e
00000390: d220 601b a917 e4be 8de2 8967 1aba edbe
000003a0: e616 3068 0d50 ffbe a499 5ef6 0602 13bf
000003b0: 61bc d439 ee3e debe 20a6 2df1 c2a9 e83e
000003c0: 11cc 043a 8fe6 08bf 13cb 9fb3 5c6b fabe
000003d0: f706 26b6 04ad 1cbf b97b 0b66 2c55 18bf
000003e0: 9883 4830 1486 eabe f476 2078 399b f0be
000003f0: 850e b0b1 e5a3 f43e 227e 8cda 46df fdbe
00000400: cfcc 7730 6a0c e43e 944c 26f2 20e8 013f
00000410: de70 3673 a38f 00bf bf2c 19f7 da8c 07bf
00000420: 1325 c481 4e88 d73e d7d7 f1d4 d3f6 e8be
00000430: f453 bf90 50e0 ebbe 77c7 f20c 064e e0be
00000440: f237 16a3 8800 fa3e bf4c 8636 2114 ea3e
00000450: 583b bd77 a96b fe3e 3dbe caff 7283 d53e
00000460: 97df 5009 6a90 e73e a242 671a 136c f33e
00000470: 8cda 27c5 182e dabe d351 dfe2 f29e bb3e
00000480: 1180 d9ae a497 11bf 3d54 3d3d 84b2 05bf
00000490: 47af 02c3 b628 00bf b4b0 bea7 f836 f9be
000004a0: 0f47 5eb5 eee5 fcbe 7b40 f6ad 4933 d93e
000004b0: b9d8 6c52 2f9b f6be 6bbf 7286 0c37 e1be
000004c0: 78ff 8866 abdb 013f 8b5a 80ad 8d02 f83e
000004d0: d708 2d0e a028 e13e 8c1d 44d0 ec0a ea3e
000004e0: df95 2936 19f9 d83e 27fb f580 795b fabe
000004f0: a609 d599 1681 e4be f1d8 b4c9 7d44 d2be
00000500: b5b9 b7ea 05c3 003f c64b 9fb4 51a3 043f
00000510: 61af 61c7 118c e6be 041f 2b68 4af4 f8be
00000520: f69c aff2 8778 eabe 30f5 d50b de99 f03e
00000530: 3da6 91d1 e700 a73e 28f1 83bd c8f5 af3e
00000540: 8c57 402c 6c46 e43e 25ac 8f9e 3498 b1be
00000550: 110a b7d0 d4b2 dfbe f925 0812 d2b2 dfbe
00000560: 5eb9 0e0d 1e17 e43e 0ed8 71b8 e217 093f
00000570: c5cf db24 5b61 ef3e 71c1 2d48 6414 e63e
00000580: fc63 7b9e 913a e13e 6018 b9e8 e7f2 e43e
00000590: 71da 66df 903c b33e f054 473b d779 ec3e
000005a0: 61f0 3e24 c1ff 003f 2ade c64b fdb6 f03e
000005b0: 0eda 209d 1931 c2be b6c2 d6b2 f443 ea3e
000005c0: 8a9f 00a8 b375 bfbe 2f32 bdb5 a961 edbe
000005d0: aeb7 0c60 1b36 f3be b8a2 1a5a 9946 e6be
000005e0: f110 dc85 bf5e ef3e 267f 2ec2 6cd0 e83e
000005f0: 3aaf aab1 6566 0cbf bdf8 68dd 1a72 0bbf
-1.3032993071302515e-05 -1.4585212404309675e-05 -2.165672419669326e-05 -1.7130158226910805e-05 1.732585113714299e-05 7.921230763710577e-06 1.59495039787479e-05 3.6636671158418944e-06
1.487856629510672e-05 1.7966028687351974e-05 -1.988061071878158e-05 1.4643021283577623e-05 6.120883123775224e-07 1.823934413500726e-05 1.2365500745694348e-05 -1.353927674224592e-05
2.062170795799412e-06 -9.001800199258518e-06 -6.318323961679334e-06 -1.9213106920593585e-05 -2.4228046295318574e-05 3.0080209651367738e-06 6.186179823466999e-06 2.7546089295991198e-05
-1.1004235616199398e-05 2.837638213514702e-06 3.227908079991521e-07 9.156209692228618e-06 -4.036509896376525e-05 1.008899634789947e-05 -3.572263345266719e-05 -3.0980830390464376e-05
4.8594566949748897e-05 3.391188238366017e-05 -2.699801140089803e-05 -1.155327166240467e-06 1.3748958854904447e-05 5.566299985528857e-06 -1.2179155844349332e-05 9.611014749389644e-06
9.936498060151743e-05 0.00010156910368534219 2.4929307819630616e-05 5.022690759802204e-06 -3.9171257686392876e-06 -2.531265299072357e-06 3.443495367085081e-05 5.754527887954728e-05
-3.0928295368042246e-05 -3.9886499247234086e-05 4.403025407000669e-05 9.530222388834075e-06 -3.657587691815682e-05 -5.078695884938763e-05 9.171520810036801e-06 -1.1861942029693793e-07
-5.6096060302971355e-06 -1.2567621613779417e-05 -4.324507494205726e-05 -1.581492202506511e-05 1.2574669958576021e-05 -1.79918865583997e-05 4.637441193660129e-05 4.550112092117712e-05
5.679142936035566e-05 3.883862934164508e-06 5.801302530887467e-05 1.2720305456887057e-05 -3.723703021402291e-05 -3.5845019574772975e-05 1.4545917285734435e-06 4.4274300410037974e-06
-6.2773879616069085e-06 -1.3846390290012353e-05 1.5816674244711392e-05 -2.2619875668195693e-06 3.2313900156955804e-05 -6.327986990560239e-06 2.6420662573458143e-05 -4.672991688507979e-06
-3.8211816383241097e-05 -9.110758219276484e-06 -1.956009716862147e-05 -1.7888873048822224e-05 1.414663347807953e-05 3.9496544529122574e-05 1.089520048860884e-05 -1.045342365880133e-05
9.19295019745574e-06 3.1407662632845776e-05 2.7217751840819984e-06 8.232541780845857e-06 3.604093426506749e-05 4.3312333798774836e-05 1.3668871557493977e-05 1.5614798379842723e-05
2.8755893844826886e-06 -4.078561601482566e-06 -2.4883701506486014e-05 -5.062370634262668e-05 -2.4614801193022623e-05 -3.559874909222234e-05 1.657137578000077e-05 3.7871717913325905e-05
2.8392729234102115e-05 4.508121691334196e-06 2.679595582370285e-06 -5.345964644135582e-06 -4.7459884449689404e-05 -6.931945892975275e-05 -1.9076144220606965e-05 -9.173318718578532e-06
-1.4369487332385638e-05 9.247172211027915e-06 -9.580814417390138e-06 -1.417492170328993e-05 -2.9862122129762236e-05 -7.250945563317415e-05 -7.2111660334570535e-06 1.1760297217572205e-05
-4.749416916851474e-05 -2.519548727515214e-05 -0.00010938969857046317 -9.282191741587135e-05 -1.264750745472321e-05 -1.583704534634848e-05 1.968405113573917e-05 -2.84883259694652e-05
9.559867534902903e-06 3.4154420308096404e-05 -3.1587768172887504e-05 -4.4918472565125173e-05 5.610572795919079e-06 -1.1903843782894788e-05 -1.329242197548907e-05 -7.774724876650114e-06
2.479752055744434e-05 1.2435260672549718e-05 2.9011301634181266e-05 5.129211783013905e-06 1.1236247056442372e-05 1.8522421351199255e-05 -6.241814008315011e-06 1.6463335543631611e-06
-6.710951466848437e-05 -4.13843733030679e-05 -3.082092041614567e-05 -2.404664199644252e-05 -2.755944600313977e-05 6.0082299734449605e-06 -2.155894358254397e-05 -8.208768305400818e-06
3.406159232044367e-05 2.289769585680583e-05 8.181902051544402e-06 1.2418115610048399e-05 5.954036938681541e-06 -2.513630175604155e-05 -9.777188831554283e-06 -4.355321972673711e-06
3.197061354486293e-05 3.9363795238188e-05 -1.0751317159405924e-05 -2.3798237189591987e-05 -1.2622272683017536e-05 1.5831989676131145e-05 6.855588338242719e-07 9.524850339833053e-07
9.667915385629609e-06 -1.0487170760641379e-06 -7.5575255879556e-06 -7.55751560222719e-06 9.579802652340163e-06 4.7861677608659986e-05 1.4963291643500698e-05 1.0528400030657762e-05
8.215324626291772e-06 9.989190650771553e-06 1.1465898502712358e-06 1.3578386508431771e-05 3.2423097337170406e-05 1.5940477838786788e-05 -2.1686312061911455e-06 1.2524343754845079e-05
-1.8751485697607761e-06 -1.401018896953721e-05 -1.8321376049338922e-05 -1.0621918423340884e-05 1.4958434060748502e-05 1.1832313310311168e-05 -5.416868062488177e-05 -5.23485611449866e-05
