logs/overfitting_K=0.1/version_25/model.ckpt (torch, 481511 bytes, 34 tensors)

rnns.0.weight_ih f8 [90, 2]
0	0x3faeb18006d069d0	0.059947968322564216
1	0x3fbd1c01cbc237ac	0.1137086031396552
2	0xbf7863b4d15215a3	-0.005954462355594189
3	0x3fbfb74ca6776084	0.12389067710990004
4	0xbfa3d9028edd1f74	-0.03876502984945676
5	0x3fb0e2439a8961fb	0.06595251582019294
6	0xbfa5a48336bd45ca	-0.042270756179856386
7	0x3fb63c1cd61f291e	0.08685474612790187
8	0x3fbe28196b1fa89c	0.11779936662029161
9	0xbfb83c06c7da3ebc	-0.09466593150340946
10	0x3fb168d71cac091b	0.06800598573685017
11	0x3fb054b2ab4767c4	0.06379238778700286
12	0x3fb80f0551cfa6ee	0.09397919890730197
13	0x3fa149336bd5a607	0.03376160327281857
14	0x3f96d313f15451cb	0.022289573292327874
15	0xbf98c09d452e2efe	-0.024172265384136964
16	0x3fc0970b9ebbc79e	0.12960953951511284
17	0x3f4efd60489d9c1b	0.0009457321295770511
18	0xbfb4b6c9e55200ec	-0.08091413353577409
19	0x3fb1c44e6bdd1aa3	0.06940164693251431
20	0xbfb1e898a8b0d048	-0.06995538824486502
21	0xbfa754e430c58f35	-0.04556954474790446
22	0xbfb0b5a60bdf0673	-0.06527173795532253
23	0x3fc137aef65e6909	0.13451182393766484
24	0xbfb4d047c1bd6914	-0.08130310516336109
25	0xbfb3d00501ea5a57	-0.07739287659419723
26	0xbfa514f5f053f4e8	-0.041175542437466295
27	0xbfbd633e7d1a8d07	-0.11479559473314192
28	0xbf8f6c21093cb6ef	-0.015342958540340372
29	0xbfb67657a583e4e6	-0.08774326125048368
30	0x3fc4e0d6f826cc5b	0.16311156384253675
31	0xbfcc2414171c404f	-0.21985102775988927
32	0x3fac769f20ada3f9	0.05559251092820001
33	0x3f4e43359b196871	0.0009235393283220217
34	0xbfb010f9a7ba6676	-0.06275902123379659
35	0x3fb5bc4090187d36	0.08490375059090102
36	0x3f96dddc44860e13	0.022330705339767287
37	0x3fa1d06d2589d848	0.034793291885691746
38	0x3f9956fe4975ea8a	0.024745915635757267
39	0xbfb07e5224d747a4	-0.06442750358044563
40	0x3faa2157c6b0331a	0.05103563595193901
41	0xbfb6bc3f506e9195	-0.08880992616338397
42	0x3fb44c8372f2dd6a	0.07929250294079329
43	0x3fc0419fe50cc004	0.1270027035147906
44	0x3fba0185a8225c3b	0.10158572535361625
45	0xbfb0963f8a6c442a	-0.06479260568109227
46	0x3fb86b02f3a6407b	0.09538286636802866
47	0xbfa50c4b8e2ffacb	-0.0411094294613484
48	0x3fab9994175c7d9e	0.05390608582660693
49	0xbfbb5e920923916c	-0.10691178057783696
50	0xbfbe55ce6e732f60	-0.11849680134326723
51	0xbf636cad083be082	-0.0023711566481062216
52	0xbfb70975441dd13b	-0.08998806870460367
53	0x3fc60de910769478	0.1722995119463666
54	0x3f999810c3300653	0.024994146264367533
55	0x3fb53dee51dca3fa	0.08297624109822258
56	0x3fa0b518ea0a9735	0.03263166291189493
57	0xbf9b65c502d328ed	-0.02675540761701083
58	0x3fb200d429d1b3d1	0.070325145921472
59	0xbfb5ab2929b3e14e	-0.08464295642977968
60	0x3f6378ded57134fe	0.0023769714567040126
61	0xbf923c0ec23f49a2	-0.01780722675887037
62	0x3f9e3f068ea31839	0.02953729863727281
63	0xbf9cd798c12cb25b	-0.02816618613285225
64	0x3fac531b74be97c9	0.05532155799964717
65	0x3f8cee2bea0acc9b	0.014126151161099101
66	0x3fb6cb777af0704a	0.08904215575643196
67	0xbf9b09935d2031cd	-0.026403715666718775
68	0xbfabd518249a0e65	-0.0543601555519018
69	0xbfbbab7e011d1962	-0.10808551337422537
70	0x3fb6bcdce50dcf1a	0.08881931869637719
71	0x3faa4c0afa6edd19	0.05136141116184429
72	0x3fbcac131496efee	0.11200064900089021
73	0xbfc2b33aae0f98e4	-0.14609464167660413
74	0xbfb4bf3067d1f53d	-0.08104231390639867
75	0xbfb7b15c7e8b2874	-0.09255006875460642
76	0xbfb9599136ef94da	-0.09902293769080775
77	0x3fbe9d19a1c2404a	0.11958465766133589
78	0x3fac051cacc3d4cc	0.054726501550172196
79	0x3fb4710727f4baf7	0.07984966969955197
80	0xbfa4dfb84cccdec6	-0.04076934754851673
81	0xbfbfc05a1ca8bc03	-0.12402880859075087
82	0x3fb2836789e25bb4	0.07231757274926914
83	0xbfb774cb52daeb41	-0.09162588856535782
84	0x3fa7d27b2ea3435c	0.04652771896656446
85	0xbf797d356d75dccc	-0.006222923947795066
86	0x3fb48dd8a5a75981	0.08028940243034378
87	0xbfc0eb6035f625a7	-0.13218310007895903
88	0xbfada163954e35b3	-0.057871925330896266
89	0x3fbc49834e1c4237	0.11049671799651938
90	0x3fa85c1cc4c67564	0.04757776166955344
91	0xbfb0d6a4be7b1267	-0.06577520037087368
92	0x3fb6404d0e3309d0	0.08691865536369581
93	0x3fb1592b222b2a86	0.06776685318178907
94	0xbfb47ab8c155fc58	-0.07999758453478145
95	0xbfb7937676e5db20	-0.09209385302333972
96	0x3fb517b073c55b4d	0.08239271952093681
97	0xbfb1587e94102a40	-0.06775656809637898
98	0xbf91e5f35b5e8eb7	-0.017478754474395255
99	0xbfbbec322f19a6fa	-0.10907281541735961
100	0xbfb32fd6adc2fdce	-0.07494870893696445
101	0x3f73fb414274a8da	0.004878287239345103
102	0xbf86e7c92e69895a	-0.011184283951653985
103	0xbfbabffc5c977dc3	-0.10449197063962061
104	0xbf49e0e7616a5014	-0.0007897500789391131
105	0xbf96e5c6b04f08c2	-0.022360901366263126
106	0xbfc020861f0b3feb	-0.12599255100076276
107	0xbfa9f34fac19c9bc	-0.05068444228972477
108	0xbfb530fd7e7aa83d	-0.08277878129834533
109	0xbfb86100e138da02	-0.09523015497766354
110	0x3fba5dd6142c3cfe	0.10299432747364176
111	0x3f894258f6f78f5f	0.012333579098544765
112	0x3f8892d2b86d1ea6	0.011998792889826259
113	0xbfbaab9ba2b26f47	-0.10418102953047735
114	0xbfaf037223786bd6	-0.06057316477764345
115	0xbfb5608c5d843101	-0.08350446017374581
116	0x3f9ac62b9dcb4e5a	0.026146584993354295
117	0xbfc248ccb8ccc2a8	-0.14284667037420218
118	0xbfa827faa0c093cf	-0.04718001568134122
119	0xbfbbd53440ca6c66	-0.10872198659710505
120	0x3f8a3229d4935263	0.012790991592205708
121	0xbfaa70ce889bf060	-0.051641897369308465
122	0xbfa01041050e4b0d	-0.03137400805203159
123	0xbfa969b5d11bb275	-0.049634629989530867
124	0xbfb7c78047ff5bf9	-0.09288789518119235
125	0xbfbab631309000bd	-0.10434253154380975
126	0xbfa63450030ab744	-0.043367863055535
127	0xbfc25c759a37a73b	-0.14344663648744835
128	0x3fb2bb11d485ddf1	0.07316695631549643
129	0x3f7b66c7504051f7	0.006689814155852228
130	0x3fa18329dd3fa554	0.034203823335540534
131	0x3fb3ef643c2ca070	0.07787157506084141
132	0xbfb9a904eae37cc0	-0.10023527845941071
133	0x3fa790c223bb49a7	0.046026293622748064
134	0xbf8b66c9351d836d	-0.013379642423105154
135	0xbfb47600e112414d	-0.07992558951287272
136	0xbfb65ed3087e2b16	-0.08738440472931716
137	0xbfc2f2e8f43780f0	-0.14803802418374046
138	0x3f621d6e5797ac48	0.0022112994308734236
139	0xbf8cd7154897542b	-0.014082113530927106
140	0x3f85892935bed980	0.01051552005069989
141	0xbfb2100804a766f8	-0.07055711854573221
142	0x3fbc4d74cc9081d2	0.1105568885254862
143	0xbfbf8ac7ec8c1341	-0.12321137929036487
144	0xbf7ac366d52c2c15	-0.006534005823378504
145	0xbf9c637f7f06da1e	-0.0277233048706994
146	0x3f7c7c2a9e47d825	0.006954351880713393
147	0x3fb90691c85cfd26	0.09775649205856904
148	0x3f9a046af593e7fb	0.025407477606655942
149	0xbfb99b782821d67f	-0.10002852420606166
150	0x3fa79a3ad0d0f9cc	0.046098554601929104
151	0xbfc19d1d1a03ad95	-0.13760722894890579
152	0xbf7cc0946bd048e6	-0.00701959588060872
153	0xbfb32dcb5ad3e8a1	-0.07491751639818968
154	0x3fb9a7000018fb16	0.10020446779615741
155	0xbfb16f920946d602	-0.06810868002397544
156	0x3fbc1370e11072df	0.10967164511425719
157	0x3f7122fd273846fe	0.004183758620927012
158	0x3fad39d4aba44dfb	0.05708183856236456
159	0xbfba3c5626db9bef	-0.10248316239049847
160	0x3fbb588b26229fb7	0.10681981736217848
161	0x3f93e9d7b074f3d0	0.01944672598368752
162	0x3f965732376350f4	0.021817001944172312
163	0xbfc26627762b1956	-0.14374249715747095
164	0x3faec8d7e2251ab2	0.06012606273229916
165	0xbfb29f629e0f3619	-0.0727445255172018
166	0xbf86919044b6a5b3	-0.01101982793518883
167	0x3fb128200c935ccf	0.06701851183912598
168	0x3f87a56b3f49eb64	0.011545980328482926
169	0xbf9b1c8899742539	-0.02647603451354039
170	0xbfac155474e9a048	-0.054850234290655
171	0xbfaa930ca7b191a0	-0.05190314814607011
172	0x3fb294360c50367b	0.07257402229898872
173	0xbf86e4d264d61bec	-0.011178630544931033
174	0xbf9ff45ce5e57d98	-0.031205607921376805
175	0xbfab039cf6499f91	-0.0527619410175354
176	0xbfb3cd983a936c88	-0.07735587530207699
177	0xbf81d8846cb0b96f	-0.008713755194631216
178	0x3fb88b5bf49060a5	0.0958764526443497
179	0xbfc3c74fbac2c963	-0.15452000254806383

rnns.0.weight_hh f8 [90, 90]
0	0x3f863ea5685a371c	0.010861675498087524
1	0x3fbc149ff33993bd	0.10968970954998176
2	0x3f835b4ac4cab5bc	0.009451469545946327
3	0xbfa244b03cf42f1d	-0.03568030113282659
4	0x3fad544e7bd8e11a	0.05728383313948111
5	0x3fa0e93b5c30ac41	0.03302941799514559
6	0x3fa42ac181797101	0.039388701491335006
7	0xbfa2bbb04d378d56	-0.03658820097532593
8	0xbf94d2849f321c4b	-0.020334312645470736
9	0xbf7d511bd9020bd0	-0.007157429485348879
10	0x3f52dfb6b6b42e39	0.001151970321020891
11	0xbf9c6f0498110b4f	-0.027767249852569006
12	0x3fb5bcb9ef6c209c	0.08491098494789856
13	0x3fb8ded5b5ea013c	0.0971501893163848
14	0xbfa1463712780eeb	-0.0337388238949908
15	0xbf987e600c72c5c9	-0.023919583091531558
16	0x3f5d77156302436d	0.0017984112601292194
17	0xbf8e9f63d70ee677	-0.014952449799113794
18	0x3fa32f5ff26dc80c	0.03747081598602628
19	0x3fa4067b531a94ea	0.039111951727400854
20	0xbfaf74883d522cc2	-0.06143594502017315
21	0xbfa0523de56513cc	-0.0318774549983015
22	0x3fb26234f72ec415	0.07181101832135568
23	0x3fac73b8dccee07a	0.05557038970386059
24	0x3f7f86655480a5f3	0.007696529217392267
25	0xbfb2ebc4cf0e8cfa	-0.07391004614924049
26	0xbfaaca58c9fc9136	-0.05232503381401658
27	0xbfbce7324d7cb764	-0.11290277854706471
28	0xbfa1f9d4cdfe7677	-0.03510918631148468
29	0x3f90cdb3341562df	0.016409683278967854
30	0x3fa893d9f095b17d	0.048003016107801756
31	0x3f9e6f78316a61e1	0.029722097412191565
32	0xbfb5d7869ca18643	-0.08531991313932345
33	0xbfb5bf6a21560194	-0.08495200456491708
34	0xbf6f183fe60b9e5b	-0.0037957427997417476
35	0x3fbabf9dc59faac6	0.1044863326530204
36	0x3f98cd8b3180f72d	0.02422158708235782
37	0xbfa0bf7511268a52	-0.03271070322377469
38	0x3fabbf6909639d80	0.05419471969235712
39	0xbf7d18971e86b53e	-0.007103529271643537
40	0xbfb531a046c1b790	-0.08278848388155624
41	0x3fb786cd6e41f1bb	0.09190067235790071
42	0xbfb1eea495f8bfae	-0.07004765187661974
43	0xbf9721a52f70f3f9	-0.022589283962805216
44	0xbfbdae0d1ec4ed5b	-0.11593706132128061
45	0x3fb5d94ff1ceebf5	0.08534717229387907
46	0x3fb8ace925814794	0.0963884083332956
47	0x3f9a3875d842d081	0.02560600407078129
48	0xbfbb18385cadb9af	-0.1058383203760289
49	0xbfb59a9489c0f82a	-0.08438995707635458
50	0xbfb4820c726b1e62	-0.08010938447397956
51	0x3fb2f78a02690e3c	0.0740896469006253
52	0x3fa479fe9dbeacd6	0.039993244892082266
53	0x3fb5211c73dbdcc9	0.08253648594460396
54	0x3fb242c541356ca3	0.07133133737572676
55	0x3fafe3ba5bc0d934	0.06228430147204947
56	0xbf9a47e6063748da	-0.025664896134750183
57	0xbfb081c17e19905b	-0.06447991684541547
58	0xbfb73366ff824977	-0.09062808740626403
59	0xbfb6fca2387448b1	-0.0897923839404793
60	0x3fb8c067b2bcf642	0.09668586839412632
61	0xbfb30ccbfe9a5f4a	-0.07441401449102361
62	0xbfa335182687778a	-0.03751445265127902
63	0xbfac1e513778904b	-0.0549188022817196
64	0xbfa8c0e739426c56	-0.04834673475235067
65	0xbfb639d02e1250d4	-0.08681965946954345
66	0xbfa92d2f46246f40	-0.049172856628699524
67	0x3faf39a647181d05	0.06098670595025094
68	0xbf8b6f48a4670976	-0.013395850674787307
69	0x3fa3ff1e6f904c9a	0.039055777662860794
70	0xbfacd7ae068a4566	-0.05633300618968455
71	0xbfae71908dc8bb37	-0.059460179622297486
72	0x3f1c07eb2e001176	0.00010692952082542125
73	0xbfb1b7896f3a8986	-0.06920680013221245
74	0xbfb10f9c0f3fe8c3	-0.06664443371110722
75	0xbfb692f5e2d6f5a4	-0.088179939156325
76	0x3fb32cdeac3b3410	0.074903409050606
77	0xbfb5fa4aa5358365	-0.08585039647506461
78	0x3fae98dfbd7ea4ee	0.05976008594672942
79	0x3fa5d06188e45fa9	0.0426054458241077
80	0x3faed79ac0d89963	0.06023868183210614
81	0xbfb5244739d27d4d	-0.08258481179881479
82	0x3fb860c63a5d159d	0.09522665905850265
83	0xbf9b097d6d70b0cd	-0.026403388790797778
84	0x3fa0ef79c5bb8aa1	0.03307705439308007
85	0x3fb724655d4a6efe	0.0903991081963191
86	0xbf845085ce8ab036	-0.009919209829000502
87	0x3f8417aa3d845676	0.009810762407634881
88	0xbf622e50cca62e45	-0.0022193506349077762
89	0xbfb5898180e3dc73	-0.0841294231102994
90	0x3fb12dea29f686ed	0.06710685276496138
91	0xbfbe749b9c2d7d73	-0.11896679461414354
92	0x3fb203aff8b39f65	0.07036876508538865
93	0x3fb070ba0ed98df7	0.06422007429642194
94	0x3fb66f6116580fad	0.0876370124388461
95	0xbf85b7ded589ade4	-0.010604611293465412
96	0xbfb4a636061ca1c1	-0.08066117905821725
97	0x3f8681d252cb681a	0.010989802505196922
98	0x3fad459293237434	0.05717142149089974
99	0xbfbd97fb047fdbae	-0.11560028896188498
100	0xbfa77fdd58138c8d	-0.04589740467215462
101	0xbfb73f6226b1ae4d	-0.09081090397528975
102	0xbf9248e5f5d973c4	-0.017856209879358223
103	0xbfb0085f0819b658	-0.062627734639784
104	0xbf976fcf434c5986	-0.022887457354124695
105	0xbfa4647b05137192	-0.03982910572969724
106	0xbfbabafe899dbf55	-0.10441580638666655
107	0x3fb7e2bd8856ddd6	0.09330353334995975
108	0x3fb71ee435dfd673	0.0903151160744871
109	0xbf8756d905689db5	-0.011396117665824027
110	0x3f3bc62fa7fbd092	0.0004238001201735199
111	0xbfb49fc679c92935	-0.08056297753606574
112	0xbfb1c32b3f769c94	-0.06938429164312004
113	0xbfbd15ac7a2009d0	-0.11361196500369108
114	0x3f9ae0905db693e8	0.026247268409537755
115	0xbfb14c9ef50be9a4	-0.0675753925569667
116	0xbfb83da8c11ba89a	-0.09469084467460434
117	0xbf6f538e5050e907	-0.0038240222516182673
118	0xbf99fd6222f0b7dc	-0.025380643255793575
119	0xbf9cf6af03795628	-0.028284773432764393
120	0x3f81cbd6179adacd	0.00868956813370172
121	0xbf96aaa41f71827d	-0.02213531915583865
122	0xbf9387f2b1e992e2	-0.019073288067732792
123	0xbfa4f87366d936ed	-0.040958029083965154
124	0xbfbb5c03031213c4	-0.10687273812261738
125	0x3fbc5dc721a094d0	0.11080593653658188
126	0xbfa5370e328c25c3	-0.041435664816229976
127	0x3f902a968495e075	0.015787460176824603
128	0xbfa27f609b470976	-0.03612806220509672
129	0x3f86dd7d5f7cd051	0.01116464564947975
130	0x3fb7f328a6857335	0.09355405869923746
131	0x3fac742b27b211ec	0.055573795886662086
132	0xbfb6a9cedc273ab2	-0.08852856516680666
133	0x3fa42689dd297c7e	0.03935652565700652
134	0x3fbaa980ca6135e2	0.10414891186629618
135	0x3f8ce56616444fb0	0.014109418444185312
136	0x3fac6039a30682be	0.055421639586034285
137	0x3fb6d71c885b00e6	0.08921984032622596
138	0x3f94b888f318ca44	0.02023519500489558
139	0x3f94623171ffb3ad	0.019905827124535303
140	0xbfb6dbe063ca04a8	-0.08929254947908538
141	0xbf9f211346c3f94a	-0.030399609750923852
142	0x3fb676a5a6c0c34f	0.08774791070096664
143	0x3fae6815e01f131b	0.05938785897118334
144	0xbfb42244487e1758	-0.07864786882245534
145	0xbfb4f20df1a82b43	-0.08181845807864101
146	0xbfb00027f02448bf	-0.06250238049350097
147	0xbfbb72893e5a6ce6	-0.10721643230720054
148	0xbfb6c3b948f6742b	-0.0889240077144257
149	0xbfa2334d88785649	-0.035547659787124326
150	0x3fb284f17d9f0d0d	0.07234105412412735
151	0x3f96c8caef4f59bf	0.022250338417359346
152	0xbfbb3e487b19df5e	-0.10641911511799892
153	0xbfb160e53470232d	-0.06788475542283541
154	0x3fb244fa6fb6e504	0.07136502482798696
155	0xbfa86e2350c4056c	-0.04771528588208693
156	0xbfa329948e6ff0f0	-0.037426607501375275
157	0x3fa60b60367d56b0	0.043055540706217754
158	0xbfae0623a21564f1	-0.05864058831748221
159	0x3f8c0ef8f7835dcf	0.01370043282842817
160	0xbf6fafd54250fb75	-0.0038680234161171897
161	0xbf928f2527066ef4	-0.01812418032351011
162	0xbfacfec0eb7fb216	-0.056631115672505825
163	0xbfb2d469e6ed8d5f	-0.07355367553605195
164	0xbfb1b78bc6d6e294	-0.06920693973996556
165	0xbfb0942d887a1c33	-0.06476101476629097
166	0x3fbf38669989099e	0.12195435760899051
167	0xbfa44683bc1560b2	-0.03960048361722225
168	0xbfb64972824968b9	-0.08705821686581573
169	0x3f9557c6a8d0fcba	0.02084265141843098
170	0x3fa10d740a20b163	0.03330576537732346
171	0x3fb5380d13de1eef	0.08288652167368203
172	0x3fb72a9e49d1f867	0.0904940538621034
173	0x3fa7a57f3290a979	0.04618451587915024
174	0xbfb9908de1b5de56	-0.09986197243221659
175	0x3f990e39526fae52	0.0244683224263283
176	0x3fb1fed4fb948096	0.07029467718212098
177	0xbf86ce6d71395e15	-0.011135916726899212
178	0xbfb09115ee143c0f	-0.06471383154369924
179	0x3fb6b95946dc09fc	0.08876569728821687
180	0xbfaa0fb05652249c	-0.050900946175780976
181	0xbfae424d7e7dc080	-0.05909959954340227
182	0xbfbacf74c353cf17	-0.10472802895293075
183	0x3f865e1656248bd1	0.010921644691341744
184	0x3faae1ee94c7e8d3	0.052504974042635454
185	0x3f9171b75ad9e4fb	0.017035355491747044
186	0x3f86233451a3f225	0.010809334508388233
187	0xbfafc43b224a4e5c	-0.062043998657057314
188	0xbfbad18d04251782	-0.10475999213403323
189	0x3f94c41ea49aa822	0.020279387280119583
190	0x3fba258e97e8a4cf	0.10213557442388609
191	0x3fac876dfc10d8fd	0.055720746059181515
192	0xbfaed8127144b14b	-0.0602422488467221
193	0xbf896a70de614e14	-0.012410051142217639
194	0xbfb5daec80a05a52	-0.08537176265995441
195	0xbfaa4bfcfc5c98a9	-0.051360994153854485
196	0x3fa4d8165482fda7	0.040711114708297295
197	0x3faae2f1653556a5	0.05251268730596096
198	0x3fb965e0a0bc28c2	0.09921077655977498
199	0xbfb8c108a89664e6	-0.0966954623785515
200	0x3fb0cfe6bdcfc763	0.06567232259820126
201	0xbfb24ebc9ce19cc9	-0.0715139277468665
202	0x3f9a1f504077ee47	0.02551007646068928
203	0x3fb91b8cd865d2c7	0.09807663233898288
204	0x3f71034209cb79a6	0.00415349765964238
205	0x3fb44f315977458b	0.07933338579393572
206	0xbfb2f43c7b1720b4	-0.07403924946914026
207	0xbfa619cf6f98d502	-0.0431656669356162
208	0x3facc7ace82f4fe2	0.05621090254103912
209	0xbfae4f53f90f6adb	-0.05919897475515309
210	0xbf94d0b21c8d322e	-0.020327361099861267
211	0xbfa6c9a6a38300b5	-0.044507224521568224
212	0x3fa9539c2d775f4f	0.04946601920135995
213	0x3fa4a3d6d32aaaff	0.04031249358862076
214	0x3fa5823050af2b62	0.042008886193420705
215	0xbfb5b1a7357d09e1	-0.08474202209348604
216	0xbfb623059205615b	-0.0864718896385787
217	0x3fa3076c5572673e	0.03716600935986357
218	0x3f9121dd28cac1a5	0.016730743040797375
219	0xbfaadf2ffcc49b18	-0.052484035115688055
220	0xbf999c174e219e02	-0.02500950254798618
221	0x3fa80de76ca7fb11	0.046981079114621356
222	0x3f870b7f1d06cda1	0.011252396653481269
223	0x3f89af1b2be36c65	0.012541019703738063
224	0xbfa2f0488b11b8e6	-0.0369894666445008
225	0xbfb8932f210b286c	-0.09599585110405123
226	0xbfb87c76a0678f82	-0.09564916053892428
227	0xbfa2d886577b5be2	-0.03680820291418009
228	0xbfadfe3100813861	-0.058579951583497054
229	0x3f9e7262fd54d268	0.029733225547902725
230	0xbf8b8b546b38ec33	-0.013449344179312294
231	0xbfac26164cf18fe9	-0.054978081600694235
232	0x3fb76506e8cf826c	0.09138529952861923
233	0x3f9cd069d8793103	0.028138784253585857
234	0x3fb3a0bdab2d9b25	0.07667146138338106
235	0xbfb04cfdd04f5664	-0.06367479644480906
236	0xbfa84387aed634a9	-0.04739021310079156
237	0x3fa9adc4a1fc71df	0.05015387036675966
238	0xbfb0fbcf4f147f41	-0.06634231262841885
239	0xbfadd8b1c7ab5b42	-0.05829387247438557
240	0xbf9f23d62fb3e497	-0.030410143529455338
241	0xbfa2e649fec2884a	-0.03691321596967663
242	0xbfb6c7d94ef6e7f0	-0.08898695161670367
243	0x3fa817ade17fa0ca	0.047055658127477765
244	0x3fb653794e63aae5	0.08721120990564264
245	0x3f87bbdbdae8af85	0.011588780992574996
246	0xbf8b161c7b2ee9a0	-0.01322576762128308
247	0xbfb9e1701bcd6e53	-0.10109615973254309
248	0xbfa592deb8c0242a	-0.042136154224927516
249	0x3f918fdf94b4b7aa	0.017150395823754806
250	0x3fa9785453a87afb	0.04974616547791829
251	0xbf843046971b99f2	-0.009857703672833094
252	0xbfa170094434221e	-0.03405789334835084
253	0x3fac9dc39fca5c92	0.055891144996331424
254	0xbfb69019abb3d790	-0.08813629571872483
255	0x3fb3505502011dfe	0.07544451998648324

rnns.0.bias_ih f8 [90]
0	0x3f9cf660153152f4	0.028283597272394226
1	0xbfa0330fa5e9ef50	-0.031639565470838904
2	0xbf86e10d7016e7f3	-0.0111714410621637
3	0xbfa6d9ce7d36a19a	-0.04463048246845176
4	0xbfa92798e8194dd5	-0.049130228359583285
5	0x3fa026af39582ccc	0.03154513907437603
6	0x3fb380b97b3d291a	0.07618293055307782
7	0x3fb62ef90276188c	0.08665424642649294
8	0xbfb6208e646a2465	-0.08643426848915821
9	0x3facf6b5281756fe	0.056569729942266264
10	0xbfa2f01d6f632445	-0.03698818192203438
11	0xbf822230b1d00e13	-0.00885427515641538
12	0xbf77511bb0b4e66c	-0.005692585148887024
13	0x3fb6f8eec621a031	0.08973591172400643
14	0x3fb8cde69b6afb63	0.09689179701216015
15	0xbfb448c130f83f3f	-0.07923514791059193
16	0x3f71e109aa778d01	0.004365003354425357
17	0x3fadab2cbfeaaac8	0.057946585109069526
18	0x3f91371e1544a0b7	0.016811819122410223
19	0xbf735f7f17adc8e9	-0.004729744391499071
20	0xbfa59dac37ef2069	-0.04221857245244182
21	0xbfb36a9d80cfeaaf	-0.07584556956127629
22	0xbfbb4829da98555b	-0.10656987749856255
23	0x3f89fe7fd3265d22	0.01269245017173987
24	0xbfa87c134edebd12	-0.04782162034768524
25	0x3fa4114a55687ceb	0.03919441502170592
26	0xbf9e7d3823b070c6	-0.029774548700616042
27	0x3fb78ce5668ec5c3	0.09199365381098006
28	0xbfb25f830a24bb56	-0.07176989553111687
29	0x3fb41789a01b331d	0.07848415526241266
30	0xbfa1416eeb112e6c	-0.03370234126540769
31	0x3f8d16e8234a8621	0.014203847481726819
32	0xbfa20d014ce4498c	-0.03525547088260614
33	0x3f9f5d7f04057a07	0.030630097027250638
34	0x3fb2190c140fd80d	0.07069468965332266
35	0x3fb5dbbe717e4843	0.08538427611191061
36	0xbfb2abbf2aa8eef9	-0.07293314734937074
37	0x3fb6a9d9d371680f	0.08852921878988716
38	0x3fb0492efba0731f	0.06361669200164187
39	0xbfb6d56e0c34be5f	-0.08919418142317558
40	0x3faae84f20b3826b	0.05255362772164037
41	0x3f9f968ff7c34156	0.030847787377582613
42	0x3fb046b687fa8062	0.0635789949396908
43	0x3fb4bd5f177cb88f	0.08101457904260399
44	0x3f6bdb31c01d7eda	0.0034004184425809715
45	0xbfa92b3ecd3ecaac	-0.049158060602527115
46	0xbfae02944ecac515	-0.058613428705380034
47	0x3f94e00f5e6e975b	0.02038597120158357
48	0xbf9c0c69b75c5380	-0.027391101662107342
49	0xbfab53f49888a469	-0.053374904270022956
50	0x3f913176d06818b2	0.016790253133898765
51	0x3fb0a08e5622da64	0.06494989016469216
52	0x3f548bd3e9286c5f	0.001254040664781873
53	0x3fb379d8d9f1e563	0.07607798882408683
54	0xbf9c7dc3eb7194bf	-0.02782350658926158
55	0x3fb3ef82f9c4cbb9	0.0778734073435733
56	0x3f99a13190e61e67	0.025028967350890243
57	0xbf90da0629df1c3d	-0.01645669584811692
58	0x3fad66b7548af9c5	0.057424286909270296
59	0x3fac3cad6894fb65	0.055150431648590716
60	0xbfa15703a727a7e3	-0.03386699119057803
61	0xbf6df882e92573bd	-0.003658538517966352
62	0x3faf47c4d36eb12b	0.061094427880876566
63	0xbfb6ebf00f47bbd6	-0.0895376241021347
64	0x3f947db258328137	0.02001074469865324
65	0x3f9607db56b6fa41	0.021514346282623945
66	0xbfb2ab3fd85672ab	-0.0729255583923513
67	0xbf9639d45b44070b	-0.02170497710267853
68	0x3f949d59e1013788	0.02013149677104978
69	0x3fb30d815d43b542	0.07442482497181849
70	0x3fb66059472aaee3	0.08740766513318081
71	0xbfb14479bc7f1262	-0.06745110370599997
72	0xbfb3659e2877b0bd	-0.07576931465127053
73	0x3fa2cf519904e9ee	0.036737966469860925
74	0x3fb3dccbec460ee9	0.07758783834838891
75	0x3fb564c0e5849db2	0.08356862643687782
76	0x3fab089937d8a940	0.052799976412944094
77	0x3fb99bb450b35e12	0.10003210993033232
78	0xbfa403154b7b16ad	-0.03908602281948723
79	0xbf881da21ce40a65	-0.011775270945240732
80	0xbfbb6ec21b782363	-0.10715878649365389
81	0xbfaabfbb267dab4c	-0.05224404187068518
82	0xbfab527f68b1a715	-0.053363782434486286
83	0xbfb51a6cd37d6218	-0.08243446505856189
84	0x3fa5903e7b4e7c72	0.042116119911263974
85	0x3fa4cf36886de73b	0.04064340987583966
86	0x3f9c8776656ddc7d	0.027860498371833565
87	0x3fb5506e5765da33	0.08325852998482546
88	0xbfb815a7e38de2ee	-0.09408044152759107
89	0xbfa1b5d63605eb0b	-0.03459042939626585

rnns.0.bias_hh f8 [90]
0	0x3faf23832a98a96a	0.06081781287169259
1	0xbfb68ef712f4f7a0	-0.08811897480788256
2	0x3fb2b8e5a1fd2308	0.07313380436711381
3	0x3fa5ea9682c95e68	0.04280538889423441
4	0xbfb0bdc3940ca6eb	-0.06539556850898591
5	0x3fa004e479582ccc	0.03128732663398068
6	0x3f5e2f36cf4a4572	0.001842311406253874
7	0x3f906f6369d86220	0.016049912772446828
8	0xbfa19e30f8d448eb	-0.03441002881494789
9	0x3fabdae8081756fe	0.05440449808854274
10	0x3fb3d7cbc84e6de4	0.07751153602878663
11	0x3fb1e2ccb3c5fe31	0.06986693753241792
12	0xbf875e3dd85a732c	-0.011410220303611128
13	0xbfb9289959de5fcf	-0.09827574199732612
14	0x3fbc9c693b6afb63	0.11176164341575894
15	0x3fa22694ee0f818c	0.035450605449798805
16	0x3fb3376ebaa778d5	0.07506458336817741
17	0x3fa18c497feaaaba	0.034273430695369325
18	0xbf83f0845976bea2	-0.00973609350225441
19	0x3fabdec0e10a46e9	0.054433848829956784
20	0x3fb1085b34086fcb	0.06653375645004116
21	0xbf80fc74167f54ff	-0.008294016777578237
22	0x3f8b47412b3d5593	0.013319501049106097
23	0x3f8569f403265d25	0.010455995889783918
24	0x3fb0a8aee890a17f	0.06507390191894123
25	0x3fafe687b5687cf4	0.062305680174398775
26	0xbf66d7051d838614	-0.0027880763919803184
27	0x3fba4883468ec5c3	0.10266895744896147
28	0x3fba862ef5db44aa	0.10360997679096565
29	0x3fb2118e401b331d	0.07058037819951975
30	0x3f9ba056c9dda31c	0.026978832312496967
31	0x3f71da33c6950c61	0.004358484505533417
32	0xbfaa7140ace44994	-0.051645299057912514
33	0x3fb023b841015e93	0.0630450400070635
34	0xbfb6962b0bf027f3	-0.08822888413865808
35	0xbfbaa1d58e81b7bd	-0.10403189400832864
36	0x3fa0525caaae21e8	0.03187837203501315
37	0xbfb51a9eec8e97f1	-0.08243745112721947
38	0x3f9c29f8ae81cc40	0.027503858233512313
39	0xbfab5f5858697cd6	-0.05346180037735741
40	0x3f81a89512ce099b	0.008622326504114144
41	0xbf9edd83083cbed1	-0.030141875627292706
42	0x3fb7492d97fa8063	0.09096035919583438
43	0xbfb6f5dc08834771	-0.08968901832420585
44	0x3f94d776ac03afcf	0.020353178261686197
45	0xbf81b45168fb2abf	-0.008644710556287348
46	0xbfbc8508b7656271	-0.11140493848268719
47	0x3fb6998ac79ba5dc	0.08828036664240052
48	0x3f8246dd914758f8	0.008924227710775487
49	0xbfaffacc9888a479	-0.06246032106384631
50	0xbfb73c86c6e5f9d7	-0.09076731067577924
51	0x3faa37642c45b500	0.05120385208543077
52	0x3fb593fad6a4a1a2	0.08428924312887046
53	0xbf8d1a5df070d4ef	-0.014210447216195436
54	0xbf9399d8eb7194cb	-0.01914156853708419
55	0xbfb83cf5c63b3447	-0.09468017663603333
56	0x3fb2336cec39879c	0.07109719054417812
57	0xbf953dcba9df1c3c	-0.020743543856749577
58	0xbfa56d504b75063b	-0.04184962197406291
59	0x3fa63b4cc894fb65	0.043421172604658755
60	0x3fba7ffc3c6c2c10	0.10351540064964149
61	0x3fb0761178b6d46a	0.0643015784942961
62	0x3fa2fe06836eb12e	0.03709431032561593
63	0x3fb8be4630b8442a	0.09665335359046937
64	0xbf900ba047cd7ed7	-0.015669350035181075
65	0x3f8e2123ad6df48e	0.014711645822666843
66	0xbf81f89f02b394f3	-0.008774988431876162
67	0xbfb3236bd2d101ca	-0.07475923439870438
68	0x3f81b3bfc2026f1a	0.008643625362587271
69	0xbfab769de578959b	-0.0536393492332465
70	0x3fb2425d372aaee3	0.07132513615459461
71	0xbfb2793f7c7f1262	-0.0721625975557543
72	0xbfb7e8972877b0bd	-0.0933927987859446
73	0xbfa123b636fb160e	-0.03347558423187645
74	0x3faa9230588c1de0	0.05189658242130313
75	0xbfb6275a5a7b624e	-0.08653797825844231
76	0xbf96d6fe104ead81	-0.02230450605899881
77	0xbf805d5eda650f8b	-0.007990590133551986
78	0xbfa2d654ab7b16ad	-0.0367914637877623
79	0x3fa4feaf76c6fd72	0.04100559544485351
80	0x3fb2267fa487dc9d	0.0708999420820526
81	0x3fb1ca8b9cc12a5b	0.06949684693351214
82	0xbf71a4bfc58d3909	-0.004307507618092518
83	0xbfb1cfa2d37d6218	-0.06957452452969226
84	0xbfb31ca37258c1cb	-0.07465573827426579
85	0xbf8837cede48633d	-0.011825195463687538
86	0xbfa87702cd4911c7	-0.047782981452232635
87	0xbfb108ca689a25cd	-0.06654038480532805
88	0x3f9054a2d1c8742b	0.015947860769404947
89	0xbfa6957ed605eb0b	-0.04410930979334723

lins.0.weight f8 [66, 90]
0	0x3f803db1639f6d7f	0.007930169918771266
1	0xbfb5c6e624384b26	-0.0850662077357752
2	0xbf9f67db1e55dcfc	-0.03066961643841369
3	0xbfa2fcec7b730154	-0.037085905141341385
4	0x3fb8685a5022c5ed	0.09534229713860727
5	0xbfbc8b9393f5f1fc	-0.11150476801226
6	0xbfa912a13c37dc17	-0.04897025928578829
7	0x3f94cafa0400fd4e	0.020305544371010335
8	0xbf93ad5da32761f7	-0.019216025431747465
9	0xbf9ccb4205c9181e	-0.028119117358322503
10	0x3fb3fe3044d56acf	0.07809735947140982
11	0xbf9b94670891f1eb	-0.026933298013760803
12	0x3fa1a37017922c6d	0.0344500569127256
13	0x3fb536f70ca3a8a8	0.08286994989944907
14	0xbfac34e088e4ff8b	-0.055090920172459944
15	0x3f630210487cd5fb	0.0023203199415557907
16	0x3fa53f5c13ed65d9	0.04149902098897557
17	0xbf8175ffc6caccce	-0.008525846723705401
18	0x3fb16316c90c2f39	0.06791822822941364
19	0xbf612cea57b74fcf	-0.0020966126446442033
20	0x3fbd1a860481ea4d	0.1136859665875047
21	0x3fa2926bc6134f64	0.03627335350907293
22	0xbf7b42ac1f6f4b0a	-0.0066553805872498015
23	0xbfa3a16ab610fb59	-0.03834088776101536
24	0x3f9a4b90c3c8beb2	0.025678884458271774
25	0xbfb67292bbc4ded5	-0.08768574794964519
26	0xbfb25d480a137813	-0.07173586126324975
27	0x3f86ff8d6a6167e3	0.01122961502931114
28	0x3f9133ae1e504087	0.016798706627071638
29	0x3facaab344c44e06	0.05598983969153086
30	0xbfa82a52628965f2	-0.04719788983193131
31	0x3fb57582fb7dc933	0.0838243354790265
32	0xbfadb4da8e6e0ba0	-0.058020429502924076
33	0xbfaf0c129d830ae2	-0.06063898251297474
34	0x3fb7fa78467aa11c	0.09366561623267383
35	0xbfa54baa4b307a97	-0.04159290473784443
36	0x3facd8e8dee2daf1	0.05634238930490721
37	0x3f76c0d6b5afcefb	0.005554999074764084
38	0xbfb694b5bc3b4f38	-0.08820663304805698
39	0xbf4094ab2f335382	-0.0005060039387908418
40	0x3fb5e748b803111e	0.08556036465148906
41	0x3fb86a1f66ca372c	0.09536930331725263
42	0x3fb234271610609b	0.07110828674956553
43	0x3f9bf9f117833d0c	0.027320639667604715
44	0x3fa9bd8902eb871f	0.05027416382450966
45	0x3faa9132acf3bcfd	0.051889022457425306
46	0xbf5b05340aa36492	-0.001649189779121128
47	0x3f9460c0b3ba9cc4	0.019900332422051262
48	0xbf7b12c1013c1013	-0.006609682011689005
49	0x3faae3f9b4fc22c1	0.05252056440628428
50	0x3f8c0b91449d4a5b	0.013693938166089816
51	0x3fb93ef6e2827395	0.09861701040286015
52	0xbf963c8f0ffcd393	-0.021715388632589216
53	0xbfab92f8169a74a7	-0.05385566020889004
54	0x3fabcb32508c6497	0.054284641583032194
55	0xbfb2f6a21a0cccdc	-0.07407582412706709
56	0x3fb57e1eaf31b273	0.08395568635178012
57	0x3fbcdde41d315253	0.11276078903876767
58	0x3fabacac7e25a38b	0.054051771544272396
59	0x3f5ed3d3f2318736	0.0018815583978483825
60	0x3f89f9c2077e2453	0.012683406690273602
61	0x3fa68bf3ac101dff	0.044036497834948556
62	0xbfafec130c241e51	-0.062347979766908986
63	0x3f874edbf0659714	0.011380880616978874
64	0xbfb3db39d846f988	-0.07756387262540987
65	0xbfbd1a3a7a0d3a2b	-0.11368146400239058
66	0xbfb1ee7a2921e8c4	-0.07004512314043426
67	0xbfa881f6b228ea46	-0.047866544006371955
68	0x3fb9d4f0f1c2c1ec	0.10090547468531214
69	0x3faf5fb64f0c92fe	0.061277100705671814
70	0xbfb378a0abb35d8b	-0.07605938140783601
71	0xbfabe6194f1f83ee	-0.05448989001138914
72	0x3fbca135c6126585	0.11183487020243461
73	0x3f74710b433f506f	0.004990619654524505
74	0x3fa5f359bda51466	0.04287224235535163
75	0x3fa5213ff23e2131	0.04126930076660285
76	0xbf996dd8f93bb7bb	-0.024833097660056796
77	0xbfaf1e9fb3f613bb	-0.06078051635544265
78	0x3fb21be5a5a95e06	0.07073817533943591
79	0xbfb7b985e71d322d	-0.09267460720474992
80	0xbfb87357bcdb9872	-0.0955099903181649
81	0x3fb2ea3e48aab855	0.0738867690476764
82	0x3f6704cd319fea3b	0.0028099067394553845
83	0x3f9a3769157bdac2	0.025601999222056866
84	0x3fb22214d02d5fc2	0.07083253939106185
85	0xbfa53b40a3067e6e	-0.04146768560462709
86	0xbfaabe66d0dc55c4	-0.05223389911240475
87	0xbfa997cb773a3b08	-0.049986227325566956
88	0xbfb3acd17801c207	-0.07685574703078411
89	0x3f993b6309aa093e	0.024640605416160748
90	0x3fb28cb4d2fe16b5	0.07245950843033706
91	0xbf8b9e0d578c19a3	-0.013485054239492927
92	0x3fa5df3a7a92b21f	0.04271872278454602
93	0xbfa915c221130ddc	-0.0489941277860699
94	0x3fa1a791fce39e58	0.03448158466363499
95	0xbfb7daaf3bf8c0cf	-0.09318061079170835
96	0xbf7de9a4c3f15ca7	-0.0073028980396749104
97	0x3f902eb883be6a32	0.015803225556377316
98	0xbf9f142a01f8c27b	-0.030350357408851707
99	0x3fb26e8414d065d6	0.07199883945613492
100	0x3f9d292ddec8260a	0.02847739860775359
101	0x3f936cf7dd97d795	0.018970368289920343
102	0x3fbf91af19c774f4	0.12331671122906923
103	0x3faf743d4821bc1e	0.06143371110453465
104	0xbf97ea9a4ca10b7a	-0.023355875899379687
105	0x3fb59b6b123968ef	0.08440274424484405
106	0x3fb9199f8fdb2fc3	0.09804723035921285
107	0xbfbde0f7bb2f52ad	-0.11671398467962986
108	0xbf906d95694b5baa	-0.016043028403909844
109	0x3fac2cb0885b4359	0.055028454442100645
110	0xbf981b039efdfc1c	-0.02354055078421534
111	0xbfb6c74ce3a03feb	-0.08897858197474277
112	0xbfa419a8272cfd57	-0.03925824621409884
113	0xbfa4b68310218834	-0.040454955786814045
114	0x3fa2852ea942f8e1	0.036172350084130896
115	0x3fb02b423d01b5f5	0.06316007604046787
116	0xbf93919dc15bf538	-0.019110169340810418
117	0xbfbb237458372b52	-0.1060097422952542
118	0x3f91b4a267ff5d13	0.01729062804937793
119	0x3f9c9797c3769811	0.02792203073990868
120	0xbfa987241ebd3b95	-0.04985916972383745
121	0x3f9fac3fbf9e9d93	0.03093051535657094
122	0xbf9e9ab00ed17a31	-0.029886961845813246
123	0x3f9c692813e494ca	0.027744890417257285
124	0x3fb65c1ac3279383	0.08734290375248403
125	0x3fa2a29a7617ad58	0.03639681521948529
126	0x3f8d37ab4a08c4f5	0.014266336628767176
127	0x3fbde5fab6523bfc	0.11679045630647517
128	0xbf9131e14d43c1ed	-0.016791839924680408
129	0xbfb3d29fcbfd3b88	-0.0774326203365786
130	0x3fb8be146405e21b	0.09665038530318563
131	0x3fbc6a67235b4bd0	0.11099857915114275
132	0x3fa398d8443919a0	0.038275488212593745
133	0x3fbcbf774a441c26	0.11229653895507904
134	0x3fa3e7be92efc865	0.03887744468364999
135	0x3fb06bc4188c499e	0.06414437865558972
136	0x3fb3d647b12b2ce0	0.07748840403944568
137	0xbfb61fc5839949ca	-0.08642229521618741
138	0x3f6a68489cc44fbd	0.0032235544405327652
139	0xbf99d2f0b872f3db	-0.025218735940814568
140	0x3fa857f8c1805778	0.04754617082669105
141	0xbfb329c2c38538aa	-0.07485596917578854
142	0xbf52886086bf84ec	-0.0011311476364357876
143	0x3f9e8682bd431e05	0.029809992601057562
144	0xbf9320a4452e6a04	-0.018679205629817744
145	0xbfaccfc73a5bbb91	-0.05627272212392776
146	0xbfae49adfa76930a	-0.05915588076030616
147	0x3fa98b1fe3064065	0.049889561140958695
148	0xbfb072a29fbca309	-0.06424919509721518
149	0xbf905eb8f2464a4c	-0.015986337458864505
150	0x3f93d762ba0670ce	0.019376318553995735
151	0x3f925f25958a9717	0.017941081287651785
152	0xbfbc605d6483399c	-0.11084541038437695
153	0x3fa3be5761ab31ff	0.038561564133122055
154	0xbfab8246f8a18d2f	-0.05372831139609457
155	0xbf991462d3833b2d	-0.02449182907076446
156	0xbfb1cbd2cc28bca2	-0.06951634868959158
157	0xbfb0f752b2933585	-0.06627385005704951
158	0x3f9d5436483eec7f	0.028641555938275772
159	0x3f79feac09a67293	0.006346389791727208
160	0x3fb4bbd70c1218c2	0.0809912113637408
161	0x3fc01a16fb7eec0c	0.1257961967474731
162	0x3fb8c60743f24030	0.09677167328686731
163	0x3fa10e4f100bdd74	0.03331229277494688
164	0x3fada2b42e61aebd	0.05788195673161798
165	0x3faf0f50b89fc7b2	0.06066372159683854
166	0xbfb7c87cc6b7d9c4	-0.09290294505613078
167	0x3fb17dd2451de501	0.06832613170071868
168	0x3f9b588967b0b465	0.02670492835402562
169	0xbf98a26261573abc	-0.024056946936805032
170	0xbfa254431dd9fef7	-0.03579911937140239
171	0x3fbad7d12bec9cdc	0.10485560724611126
172	0x3fb9b0f8c21518d5	0.10035662401523678
173	0x3f67ee29f087ae46	0.0029211825496895686
174	0xbf9ee6ce08ef94c6	-0.030177325530435416
175	0xbfa35e3465fc6122	-0.03782809967941804
176	0x3fb4878e69bf3f69	0.08019342500415196
177	0xbfab22282ab4815c	-0.052994971478485836
178	0xbfab6370100787dd	-0.053493024784770894
179	0xbfa28b8780d94680	-0.03622077415333269
180	0x3faa8a8e538bc655	0.051838348101125455
181	0x3fbb1192f5a7eb0b	0.10573690888842806
182	0x3fa5adb7b5d0d05e	0.04234098524503403
183	0x3fa66445fe1dc15a	0.04373377539639263
184	0xbfbd19d1f78beb58	-0.11367523473374541
185	0xbfaf8043de0a78b7	-0.06152546010456333
186	0xbfac527430fd46e9	-0.05531657312407196
187	0xbfb03cb1efb97741	-0.06342613318107927
188	0xbfacf4014e9195db	-0.05654911121454705
189	0xbfa4a0dc90bdb9d2	-0.04028977648600897
190	0xbfa4d8ecc4e93e79	-0.04071750549030368
191	0xbf9c9ba7364a1b2e	-0.02793751973015473
192	0x3f8645c0496a3cde	0.01087522720379613
193	0xbfa98e5d1b4e7c54	-0.04991427381832439
194	0x3f2c3ef380b56602	0.00021549913831613038
195	0x3f66392d05be493f	0.0027128104538373383
196	0xbfb50dcbb732da72	-0.0822417566549605
197	0xbf92392ad2ef2fbc	-0.017796200870904264
198	0xbf4bc1760d86739a	-0.0008470369748924012
199	0xbfbc86f56765018e	-0.11143430494576576
200	0x3fa38289ec161e3f	0.038105306691303735
201	0xbfab34306a289f49	-0.053132546385596564
202	0x3fa9338f8ecab59a	0.049221502476352444
203	0x3fb6f375e2330e1a	0.08965241215178602
204	0x3f91f55d0e76d83c	0.017537549979998554
205	0xbfabe11fde1895db	-0.05445193849690685
206	0x3fb81a7e71d454a4	0.09415426520384301
207	0xbfa98f7b19fd127b	-0.04992279712908939
208	0xbf6bb9b72cc2cad4	-0.0033844545015083525
209	0x3fae57b36caf9284	0.059262854592621955
210	0x3fb9af88bcfab041	0.10033468831778782
211	0x3f8b17cb964a41eb	0.013228979610432531
212	0xbf7ee5de20fb4ae6	-0.007543437662848906
213	0xbf68f784a989d49f	-0.003047713380790087
214	0xbfc02b6ec54ef98a	-0.12632546076015344
215	0x3fa3e402f1471d57	0.038848964646201516
216	0xbfbbabb4eb99116a	-0.10808878662016289
217	0xbf8c6fa13ea30ba1	-0.0138847920646919
218	0xbf89dff11c22cdd1	-0.012634166403905052
219	0x3fb0cf0f2ddeec58	0.06565947408573558
220	0xbfb3f686dc4c0899	-0.07798045042366865
221	0x3fa9afdc7ce1c05f	0.05016984009205382
222	0xbf8f68bda518311c	-0.015336495972427637
223	0xbfaa44f35937b2f0	-0.051307301178757814
224	0xbfb221172d36470e	-0.07081742147263645
225	0x3fb233e0f451892e	0.07110410656745067
226	0x3f92bdd0cb185263	0.018302214046416753
227	0xbfbdfa26debf3810	-0.11709826410444202
228	0x3f792512143f6731	0.006138868924574757
229	0x3f96f0a98deab33b	0.022402428900636578
230	0xbfa3dee7f7fdeddd	-0.03881001379246716
231	0x3fac91308b2c49c9	0.055795208920375546
232	0x3fac51fd4f5f5900	0.055313030184764855
233	0xbf96607f28c92a70	-0.021852480759017856
234	0x3fb55f7f90bbe83c	0.08348843844933723
235	0x3fb6c029fa06baa6	0.08886968950421678
236	0xbf9f18dc4a667c04	-0.030368272820506817
237	0xbfa143261ec69fdc	-0.03371543050462808
238	0xbf6586136ab005f6	-0.002627408908211444
239	0xbfaf41fce267c312	-0.061050322186821174
240	0x3fa8370fb83ea67d	0.04729508518296386
241	0xbfb8f5e0bccd3809	-0.09750179871954869
242	0xbfb5123c8c8756fe	-0.08230951720119248
243	0x3f807844555d2946	0.008041890959834885
244	0xbfb6af01c88e7f9f	-0.08860789438631266
245	0xbf91080f2985d646	-0.016632306012488017
246	0xbfaf83e2ed9d6230	-0.06155308867045439
247	0x3fa3600645c60801	0.037841983811645725
248	0xbf90028679080819	-0.015634633195084378
249	0xbfb2aa7f17893ec2	-0.07291406941044001
250	0x3fb6c981d9b3ecf0	0.08901225628862952
251	0xbfb2f7da69d133e2	-0.07409443934848484
252	0xbf9ba4c56b7a813f	-0.026995739636391788
253	0x3fad22de457824cc	0.05690664861692482
254	0xbfb0a7d892021e5d	-0.06506112637190982
255	0xbfa19b8bd6765d8b	-0.034389848641860864

lins.0.bias f8 [66]
0	0xbf9d03529057063c	-0.02833298688870499
1	0x3fa46d2a6fffb2c1	0.03989536873982536
2	0x3fae6f2ecc53835c	0.05944200748650161
3	0x3fb50fb64d6a8ad7	0.08227099790614588
4	0x3f97176243b8ba6b	0.022550139792821982
5	0xbfb573f987acf611	-0.08380088388818076
6	0x3fb79dbfc69ae2e6	0.09225081061130033
7	0xbfb2d66a26033a3e	-0.07358420780222105
8	0xbfba9e2ac534c222	-0.10397593798257579
9	0xbfbbccbb3d52de4c	-0.10859270331536058
10	0x3fbecfd4fe9bbeb1	0.12035876480126252
11	0x3fa9345c40b94a72	0.049227602864125766
12	0x3f95acf118318f1b	0.021167533017787492
13	0xbf9815a5c5688d8d	-0.023520078824856894
14	0xbfb06936637eb0fd	-0.06410541466783921
15	0x3fa79d88ae5b7402	0.046123763355105055
16	0xbfb5e474a20ecc41	-0.0855172057770668
17	0x3fa71e36e9c35ed1	0.04515239337496058
18	0xbf99e5b4f93120d5	-0.025290324887721056
19	0x3f9ec0ba3aa353db	0.030032071904162776
20	0x3fa6d1c4feaf62ec	0.04456916436146749
21	0xbfbeae9dcb026f85	-0.11985193449294058
22	0x3fae457831138568	0.05912376021457072
23	0xbfb15005127dd594	-0.06762725545362108
24	0xbfa5d4e93d6bc544	-0.042640007732084345
25	0xbfb33d52598460f0	-0.07515444455600906
26	0xbfadc3c1bae270ec	-0.058134130538037926
27	0x3fb043fd41f9e545	0.06353743420358622
28	0x3faacd426c9ca748	0.05234725547627633
29	0xbfb85c9f73d826a4	-0.09516331270438144
30	0x3fa45271f94a77fc	0.039691507035271884
31	0x3f6d0ce1351fd1cc	0.003546180590087133
32	0x3fb7bfa7c1698e22	0.09276817771893112
33	0x3f8e5c1396cc4a16	0.014824059524049676
34	0x3fb4bb4df3854dd7	0.08098303981142095
35	0x3fb3d8fe1af9492f	0.07752979429759387
36	0xbfbe24d9a58cc0b5	-0.11774978915923635
37	0x3fb076abcd95157c	0.06431077736950458
38	0x3f841678e62d7222	0.009808487438641104
39	0x3f87b4d088b1b811	0.011575345202995664
40	0xbfb6131400f1c1fa	-0.08622860930496037
41	0xbfa58be64914f87e	-0.04208297388184777
42	0x3f7f2d52059d7638	0.007611580274752998
43	0xbfb07e1602de411f	-0.06442391939186053
44	0x3fa82af144bbe10b	0.04720262493168733
45	0xbfa2f047ae3b2ec3	-0.03698944093556868
46	0xbf4f545bd7bee4a6	-0.0009561012698135099
47	0x3fa92ca88f469b69	0.04916884182903553
48	0xbfb1f97443f3df80	-0.07021261843681081
49	0xbfa4533c6c22d408	-0.03969754047412982
50	0x3fb673483bca469f	0.08769656619758813
51	0x3faceef73f3f4f9a	0.05651066443502302
52	0x3fbaf75b4f54ebb7	0.10533686339196789
53	0x3facd46029ae084d	0.0563077975157432
54	0xbfb5587731b4f4ab	-0.08338112796350809
55	0x3fa59647998258b0	0.04216216801539596
56	0x3f731cf278232503	0.004666278024339168
57	0x3faa62e46c9b0053	0.05153573823690807
58	0xbfa7075ec33873f0	-0.04497810490668275
59	0x3faf69bca88c4f9d	0.061353583883970254
60	0xbfa9529f858e4582	-0.04945848946875754
61	0x3fa5b5c59f9eb6c7	0.042402435049877556
62	0xbfa765fbb51042b6	-0.04569994530914327
63	0x3fb293c2aa8da6b9	0.07256714500331442
64	0x3fa5d89f2d787ba1	0.04266831808148842
65	0x3fb01fefdeeb589e	0.0629873198734878

lins.1.weight f8 [2, 66]
0	0xbfb41c864a88128f	-0.07856025046937475
1	0xbfa6b3f4a19bb7d0	-0.04434170220143552
2	0x3fa0fac3bb77fe0d	0.0331631819099095
3	0xbfa30fdffefd33d6	-0.03723049152049611
4	0xbfb2cc4457a0e19e	-0.07342936648718143
5	0xbf8be0b181a92d35	-0.013612162370142936
6	0x3fc0062b1a3a1f3d	0.1251882436811175
7	0xbfba851a444dfe90	-0.10359348456949591
8	0xbfa4fda09d2022c9	-0.040997523479807514
9	0xbfbac445e9349656	-0.1045573896741073
10	0x3f83f98cbf540490	0.00975332220923722
11	0x3fb990157d4c6580	0.09985479649585294
12	0xbfb6ee09978f6df6	-0.08956966352655357
13	0x3fa8ee3c91f4393e	0.04869260102906246
14	0x3fa8c88f4e7d8480	0.04840514977582533
15	0x3f9579984f37d78f	0.02097166045674431
16	0x3fa92d805407df35	0.049175272233638635
17	0x3fb043d03eb43c1c	0.06353475123272329
18	0x3f9868b107123cc6	0.02383686643275664
19	0x3fa154a00052a3eb	0.03384876254978749
20	0xbfb4e91739c590d4	-0.08168168220942401
21	0xbfc0da5e7e4d063e	-0.1316640965178965
22	0x3fb3d1d6a0aa36cf	0.07742062971575624
23	0xbfa35b3722396185	-0.037805293014289844
24	0xbfbccccffce0bbdf	-0.11250019000793497
25	0xbfad06831e6b1132	-0.056690309012568454
26	0xbfb91f50a6271299	-0.09813407951794274
27	0x3fbad38de021122b	0.10479056093124288
28	0x3fb7c62540f73a3d	0.09286721073224498
29	0xbfb9d6f249d239b5	-0.10093607237124654
30	0x3fae768085ca1a93	0.0594978488270971
31	0xbf98d6e920b22f83	-0.02425731908856178
32	0x3fc09936c8e6a326	0.129675720306545
33	0x3f89d3468753fd30	0.01261000729073078
34	0xbf6c90d96097a8b5	-0.0034870381975809724
35	0x3fa626dd49b4a4eb	0.04326526188590115
36	0xbfbf46509c2a4edf	-0.12216666996601643
37	0xbfa4c432489efb4e	-0.040559359898444045
38	0x3fb0d0286022abee	0.06567623469406644
39	0x3faf2fd7539a2bf8	0.06091187377486301
40	0xbfa16965af768579	-0.03400724188692101
41	0x3fb597b7c7788a9c	0.08434628124136129
42	0xbfb76191740c4520	-0.09133252223206911
43	0xbfbb71732ab9d596	-0.10719985764611403
44	0xbf8a0903bb81b119	-0.012712506446597648
45	0xbfc0af7f84b0a5a7	-0.13035577754025704
46	0x3fbbf151203804a3	0.10915095364181808
47	0xbf614265e6452276	-0.0021068563675366537
48	0xbfb0c01d83fee8a9	-0.06543144676735103
49	0x3f907cb2e23e2130	0.016100688036688016
50	0x3f51d335235c494d	0.0010879534651776102
51	0x3fab9dabe10e48e3	0.05393731233847789
52	0x3fb3b0bb0f719551	0.07691544653933603
53	0xbfb47dffbc9f0cbc	-0.08004759173404613
54	0x3f699ef3c831a06d	0.0031275521628693543
55	0x3f65e0ef94574a0d	0.002670734337450803
56	0x3fa4228610a58147	0.039325894863170556
57	0xbfb083814630fcf5	-0.06450660670906301
58	0xbf906212b49af97c	-0.015999119065548836
59	0x3f9a14db276e7695	0.025470184594829155
60	0xbfbd873243ca76e2	-0.11534418253946968
61	0x3f92b5c8f2b7ee81	0.018271579565392052
62	0xbf764a34d84a571c	-0.005441862511949027
63	0x3faac616066d7416	0.05229252651654563
64	0xbf9795dd0819438e	-0.023032621020607595
65	0xbf8bc37f664f565a	-0.013556475934744561
66	0xbfc4110a780b375e	-0.15677004682077728
67	0xbf94e5f6c1e77545	-0.020408492646187843
68	0x3fbd8c679923bbf5	0.11542365540275042
69	0x3fac4b29beb89523	0.055260948687911225
70	0xbfc009ba991f5a0b	-0.12529690243418687
71	0xbfc1ffcd7a36c45d	-0.14061897723653063
72	0x3fba6af915942b24	0.10319477822137607
73	0xbfadc808bc6d57fb	-0.05816676426063335
74	0xbfbe381e395c25df	-0.11804379368199801
75	0xbfb241dd3c31af7a	-0.07131750793058514
76	0x3fb66e4e58645526	0.0876206365395161
77	0x3fb5480d1311a8ea	0.08313066211272582
78	0xbfb35829284e6319	-0.07556397661245419
79	0x3fa8b48c0bfca52f	0.048252464736217575
80	0x3fbf4835a6afb997	0.12219558066838086
81	0x3f94e016376da57d	0.02038607323939833
82	0xbfc050f359e7022d	-0.12747041597141742
83	0xbf792a07d81236c5	-0.006143599167570184
84	0xbfc1dcf0862b6fec	-0.13955503989461648
85	0x3fc2fc4c473b30bc	0.1483245227631239
86	0xbfb6128adde95ef7	-0.0862204353119259
87	0xbf934ba70e299f2c	-0.018843279113212194
88	0xbfb566e718e324a7	-0.08360142095183908
89	0xbf7490440696022a	-0.00502039501714128
90	0xbfb770690d2130bc	-0.09155899591968625
91	0xbfbc1714bce85bdf	-0.10972718822482318
92	0xbfc0caf094e73653	-0.13119323034918526
93	0x3fb1ff044c2af5df	0.0702974973637178
94	0xbfc12940bb536a5f	-0.1340714373280489
95	0x3fc0f3e895b156eb	0.1324434977456613
96	0x3fb411f4a8717623	0.07839898216612844
97	0x3fb9db94d5d05a55	0.10100679607453718
98	0x3fc0355877ff9a79	0.12662797793673855
99	0x3f734f28a47ca7d4	0.004714163551207979
100	0xbfb28dcabe963f97	-0.07247607377052954
101	0xbfc01590f229ea67	-0.12565814804459594
102	0xbfb727a68657db18	-0.09044876842368088
103	0xbfb991c2c19ca566	-0.09988038279393194
104	0xbfc16210dfd49faa	-0.13580523423411012
105	0xbfb8223b048fd21c	-0.09427231656429352
106	0xbf96a50f489863cb	-0.02211402779184705
107	0xbf7e92dcd6d9ca7b	-0.007464277890550815
108	0x3f911b9725553bf8	0.016706811574575625
109	0xbfbeca9d3a4b262e	-0.12027914689237981
110	0x3fbab5499a8a78e7	0.10432872794124003
111	0xbfc17f90ec99061b	-0.13670550873398288
112	0x3fab64d4b310856b	0.053503653391326754
113	0xbfa2ded2804e5295	-0.0368562490104171
114	0x3fc3c0350dbe51c5	0.15430319949213192
115	0xbfb588ebe47d0c7b	-0.08412050560314015
116	0x3fc261ca75996f1a	0.14360934011607968
117	0xbfbb4c4073d999d4	-0.1066322596394465
118	0xbfb772d90665a8a8	-0.09159618765048327
119	0xbf8068b38043ba56	-0.008012201644729416
120	0xbfbc29f4fcd501e9	-0.11001521275193905
121	0x3f9c6eadf3709769	0.02776595877016722
122	0xbfb9a15b9f9a8f11	-0.10011837622237986
123	0xbf95a514b080301f	-0.021137545845746893
124	0xbfb26a68231208ab	-0.07193613868915587
125	0xbfa562daaf470dda	-0.041769822975336005
126	0xbf45ece5a04ed9e8	-0.0006691094609923539
127	0xbfb93a7aef5c982e	-0.0985485872630256
128	0x3fb715ad18694e12	0.0901745018575684
129	0xbf97eb96e9ba2646	-0.023359640136311442
130	0xbfb6048bc50c2d2e	-0.08600686608058503
131	0xbfa1e95851934d24	-0.034983406026777325

lins.1.bias f8 [2]
0	0x3fb220e8e54c31b7	0.07081466291510351
1	0xbfab22a2a52c644c	-0.052998621619004455

best_score f8 []
0	0x3fa0a32fe464f1ff	0.032495018606343955

best_model_score f8 []
0	0x3fa2319869809b1e	0.035534632567126176
