logs/overfitting_K=0.1/version_75/model.ckpt (torch, 435943 bytes, 34 tensors)

rnns.0.weight_ih f8 [69, 2]
000000 28 59 ed ff 8e 6e c1 3f 65 92 91 9d c6 1a c4 3f
       0.13618648048822846 0.15706713384419682
000010 be 59 ec ba 80 b5 b5 bf 80 86 5c 81 d8 f1 c2 3f
       -0.08480076373630305 0.14800554577327674
000020 b4 c0 6f 0c 6f 1f 61 bf fa 1b 71 65 71 d3 9f 3f
       -0.002090184108503557 0.031080028358953606
000030 57 b6 f9 d3 a8 48 b3 bf af 1f c5 05 33 78 c1 3f
       -0.07532744574720006 0.13648069173563956
000040 16 13 0d 05 35 f7 cd 3f 28 aa 68 f5 ec 15 9d bf
       0.2341066622413101 -0.028403952101294788
000050 df 08 f8 f7 01 eb cb 3f f5 6f 6d eb f2 6b b3 bf
       0.21810936553817492 -0.07586591956845708
000060 e3 64 8e 46 39 df bd 3f d0 01 4c 11 0d ab 91 bf
       0.11668737385334142 -0.01725407045432964
000070 98 4e f2 09 4c 15 cd 3f d1 f1 da de 2e e2 a9 bf
       0.22721243367833632 -0.050553765014658254
000080 3b 12 22 e7 9e 91 b3 3f b6 b6 fd c2 84 96 b0 3f
       0.07644074576280328 0.0647967315723815
000090 dd 02 f8 86 20 34 aa bf 9f 49 cb 15 1e 53 bf 3f
       -0.05117894790237696 0.12236202270586326
0000a0 65 c2 86 0f c3 0d a0 bf d7 bd 9e 19 f3 2d b2 bf
       -0.03135499538928314 -0.07101363540163362
0000b0 1d e8 ab 89 dc 5f c1 bf c7 74 0c ae da d8 b9 3f
       -0.13573796007386899 0.10096518277392184
0000c0 b4 f9 2a 7a c1 cb c1 bf 4d 93 61 53 98 a3 b7 bf
       -0.13903063264110715 -0.09234001193688109
0000d0 13 c5 42 5d 29 be 44 3f bd 58 99 0c 70 c4 b8 bf
       0.0006330205892678707 -0.09674740130990052
0000e0 44 dc 4a 36 5e 38 89 3f 7d 73 8a f9 97 19 c9 bf
       0.012314544708131099 -0.19609355625734884
0000f0 82 f2 a3 b5 8d 0b c0 3f ab eb 42 c9 10 bb bd bf
       0.12535258645211306 -0.11613564408882719
000100 e7 62 d1 13 44 55 bb 3f 65 f1 4f 82 1f 0a 91 bf
       0.10676980480037522 -0.0166401789938261
000110 aa e1 9d 13 d6 3f b5 bf 86 2d ad 19 88 85 c5 3f
       -0.08300531367229405 0.16813756231054472
000120 a5 6f 85 64 77 6c a0 3f 0f 56 c0 97 6a bd ba 3f
       0.03207753278795104 0.10445276455751461
000130 df 3d d4 46 b6 c9 98 3f 04 60 f6 e6 75 58 a0 bf
       0.02420697028452234 -0.03192490047803179
000140 04 45 1f 6d be c3 b4 3f 09 46 98 05 b3 a4 7f bf
       0.08111181415667451 -0.007725428871269376
000150 11 f3 19 b1 f6 54 c1 3f be 4a e8 6d db d6 c6 3f
       0.13540538451697917 0.17843191973277855
000160 98 5b 6c e2 39 64 ba 3f 16 da 2d d4 a9 c4 ba bf
       0.1030918290892785 -0.10456334524301555
000170 2e c9 68 ec 1e 63 c1 3f e0 66 a2 7f 59 be 7d 3f
       0.1358374265997297 0.007261609653278461
000180 55 f1 31 72 38 5e bf 3f d0 d2 ae 33 7f d6 a9 bf
       0.12253144062009842 -0.05046460634131267
000190 c1 25 cb c6 3b 41 c6 bf 29 3e b7 3c dd 30 a5 bf
       -0.1738657684966665 -0.041388429318996174
0001a0 f0 76 45 61 ea c8 c1 bf 8f 41 aa c4 69 95 c2 3f
       -0.13894395589425512 0.14518472769533416
0001b0 4e 94 df e5 b2 35 b5 3f 63 9f 4b 40 40 0d 93 3f
       0.08285062896864412 0.01860523598125442
0001c0 c8 9e 7b 15 96 52 77 3f 5b d8 17 9f 14 74 81 bf
       0.005693994775107299 -0.00852218733323811
0001d0 6b ff c9 86 77 b6 bc 3f 37 72 d0 cb b5 98 b5 bf
       0.11215922394512538 -0.08436142183240568
0001e0 38 d3 5f a0 74 36 8d bf 42 1e fb c5 e0 20 ba bf
       -0.01426402201102804 -0.10206417878645715
0001f0 30 ca 4d 8b b0 c2 a7 3f c0 98 0a 55 30 6d ad bf
       0.04640723896490717 -0.05747366941550203
000200 12 1e ac a3 9f 33 be 3f 24 99 bb 5a d5 ba a3 3f
       0.11797521348864162 0.03853480084016983
000210 2b 60 61 f7 83 3c d0 3f 82 54 7c 4e f8 07 c1 bf
       0.2536935725997888 -0.13305572349841915
000220 9b 76 dc 98 e8 fb cb bf 70 f0 3d 4e de 69 c4 bf
       -0.21862513984608686 -0.15948084659965245
000230 6b 02 6e 58 c5 83 c3 3f 91 b2 7c 70 22 b5 b2 3f
       0.1524588281427158 0.07307639356867869
000240 72 10 8e be 05 52 c6 3f 34 6e 6e cf 47 f3 c5 bf
       0.1743781261867557 -0.17148683193669145
000250 2c 42 8f b2 26 1f b0 bf f5 b0 01 94 cd 60 bb bf
       -0.06297532901158637 -0.10694584716265239
000260 2d 32 e8 0d 81 2f c3 bf 1f f1 76 af eb 6b b6 3f
       -0.14988721064618585 0.08758423837474937
000270 81 57 1a fd 19 9e b4 3f a5 d0 9d 82 f5 6a c7 3f
       0.08053743771810497 0.18295163038022114
000280 2f 20 92 06 05 f8 a2 bf 46 ca b1 39 0d 3e b2 bf
       -0.03704848962030415 -0.07125933321530295
000290 c9 9a d9 39 e7 ac bc 3f dd 27 5a 84 02 4e b8 bf
       0.11201329386095006 -0.09494033557180566
0002a0 c8 79 52 a6 f2 3a b7 3f f6 8c ea 42 6e 69 96 bf
       0.09074322281455871 -0.021886561235658207
0002b0 dc 01 ff ea 7b 20 c0 3f 0d dd 2e 73 62 90 c4 bf
       0.12599133467121149 -0.1606562673966682
0002c0 d4 a0 03 e9 20 68 c3 bf 15 4b 8e d1 f3 6c 99 3f
       -0.1516152513279453 0.024829682984612484
0002d0 92 38 de 73 2e 1a 8d 3f bd 24 82 9d 76 50 85 3f
       0.014210093413364686 0.010407377893232423
0002e0 9b 15 76 b2 91 16 ba 3f 4c 44 cd 1f 9d a4 b9 3f
       0.10190687758411913 0.10016805673991874
0002f0 bb 33 ed a3 a4 ed c1 bf 81 12 b7 27 9c 81 c2 bf
       -0.14006479267336922 -0.14458038272109167
000300 b4 d7 03 99 a8 c1 cc 3f 70 66 d3 43 f2 81 8d bf
       0.22465999099193612 -0.014408009238127323
000310 ad e6 4b cf ce 33 84 bf 27 4d 2f 2a 45 35 c7 bf
       -0.009864440632998262 -0.18131317672541877
000320 75 b6 c4 ae 7c 0e b1 bf 90 06 03 24 34 46 a2 bf
       -0.06662730471426832 -0.035691861530279145
000330 ef ff f3 ef 0b 7d ad 3f 98 75 ee 19 08 52 bb bf
       0.05759465507617267 -0.10672045357792681
000340 f5 55 f0 fc ef 98 aa 3f 72 ff 01 43 07 02 b4 bf
       0.051948070169753814 -0.07815595041210857
000350 4e 4c 6c 8e da 20 b7 bf 7b 3d 95 33 16 54 b2 bf
       -0.09034505822300895 -0.07159556159353102
000360 72 5b e5 47 f8 87 d1 bf 8f fe f5 bb 32 1f b4 bf
       -0.27392394085966665 -0.07860104645623721
000370 10 f3 a5 77 8c 3c cc 3f 74 33 8c d8 dd 6f b2 3f
       0.2205977997035906 0.07201944863136395
000380 79 d5 c4 8d c4 ff a3 3f d2 c2 72 62 a4 e0 d0 bf
       0.0390607283647268 -0.2637110673340831
000390 0a 8e 14 48 ad 37 c3 bf 2f cf 07 78 9a 60 b2 bf
       -0.150136623568969 -0.07178655081207518
0003a0 6d f5 9c 84 0e 60 a1 3f 59 41 eb 5a dd 64 bc bf
       0.03393597954571246 -0.1109140727014667
0003b0 b3 1d 37 b6 a6 b9 b0 bf 52 8a 16 f9 55 d5 b4 bf
       -0.06533281277290008 -0.08138024646044897
0003c0 f8 84 ce a6 28 f3 84 3f ba 60 63 4d 4a 20 a8 bf
       0.010229413595711709 -0.04712135500602828
0003d0 48 d4 8f b5 bd 6c 99 3f 43 18 1e 10 20 1d c2 bf
       0.024828876692442742 -0.1415138319682133
0003e0 00 22 e4 08 57 c6 b9 bf d1 2d ba 9b 26 5f c0 bf
       -0.10068267790860119 -0.12790377239103504
0003f0 a6 48 5a cb 11 11 d0 bf c4 7c 65 64 b1 bb c6 bf
       -0.25104184015902786 -0.17760293390435866
000400 7e d8 9f dd ef 88 c2 3f 69 dd 0a dd c6 c2 b0 bf
       0.14480398484710472 -0.06547205826324433
000410 bb 5c 1b f7 75 64 c8 3f 94 e8 a6 13 a8 12 a8 3f
       0.190565820367487 0.04701733817951595
000420 e2 1a 76 27 21 6d c2 bf 59 e1 b4 d1 7d db b2 3f
       -0.14395536829780214 0.07366167421139859
000430 78 17 3b 00 44 21 a2 bf 74 8e ec c0 89 d3 98 bf
       -0.035410046604325396 -0.02424445381178804
000440 79 6a 64 9f 3e ec cb bf 8f e6 48 96 7e d8 c9 bf
       -0.2181471136362523 -0.20191938722728195

rnns.0.weight_hh f8 [69, 69]
000000 85 09 e5 f6 03 c6 b6 3f 54 6b 07 00 4c 39 9c bf
       0.08895897653295577 -0.0275623202340783
000010 2f df 95 c6 49 8d a6 3f 32 5a ad 0d 70 b1 bb bf
       0.04404669331682808 -0.10817623456873873
000020 b5 f5 4c 42 83 84 c2 3f f2 4a 50 35 5f 1f b7 bf
       0.14466896760306516 -0.09032244731524111
000030 18 ef 6b 81 13 5a 8f bf 6f 0a e8 af fe f9 94 3f
       -0.015308525454649266 0.020484904753184482
000040 57 17 bf d4 a1 2c b9 3f d5 2b a1 1a 22 9d c9 3f
       0.0983372826004517 0.20010782528183194
000050 3f a4 69 5b 3e 20 be 3f 80 8c 3f 91 39 db c2 bf
       0.11767949802164511 -0.1473152121753607
000060 ba f7 c0 92 d3 e2 84 3f 88 67 ac 9c 6f 68 b7 bf
       0.010198262134618708 -0.09143731665645138
000070 4d d9 bf 6b d3 85 82 bf 78 45 f2 47 4b 90 b9 bf
       -0.00904431507659056 -0.09985800272467837
000080 4f 4f a3 0f 16 b2 bc 3f 6c 9b 63 82 6e 59 83 bf
       0.11209237939629911 -0.009447921137007952
000090 4b 84 62 4b ea d4 b0 3f 7a 24 7b 82 6f 33 a4 3f
       0.0657488283200262 0.03945492236886934
0000a0 44 12 5d 01 a7 a9 a8 3f e3 d6 be 3f 5e b1 b0 bf
       0.04816934482235927 -0.06520642334256936
0000b0 86 63 80 02 fc fc bd 3f f7 7b 1c d0 34 31 a9 3f
       0.11714148579666359 0.04920353928013548
0000c0 3f 66 dd bd f0 04 95 3f 23 d8 44 41 a1 df ba bf
       0.02052665861933733 -0.10497482150535169
0000d0 89 98 cd fa d3 9f 80 3f 58 0d 0b f6 df dd 9c bf
       0.008117347804454294 -0.0281901353762469
0000e0 27 c5 04 ee 91 a1 b0 bf e4 96 40 80 23 8d c2 3f
       -0.06496536313058653 0.14493221056289152
0000f0 cb a2 35 c7 c1 36 9a 3f f5 31 6b cd 2c 9d b4 bf
       0.02559950617197408 -0.08052330031495798
000100 58 98 0f 28 dd 1e 98 bf 52 f5 09 dc 57 a8 a7 bf
       -0.02355523640644494 -0.046206231699197034
000110 fe 82 da 89 c1 b5 ae 3f ac d8 9c 3e c6 c5 84 bf
       0.05998043830664378 -0.01014284971789111
000120 b7 f6 fd ab 95 49 c3 bf 75 3d cc ee 51 15 89 bf
       -0.15068312547730553 -0.01224769601824847
000130 28 1a 51 5d 94 66 b8 bf f3 fb 45 7a 86 52 7d bf
       -0.09531523969881361 -0.007158780387157104
000140 79 02 d9 ab b7 c7 bf 3f e0 36 1f 43 b7 57 c0 bf
       0.1241411966848406 -0.12767687585294762
000150 fa 43 f3 8d 4c 0b a2 3f 3a 27 36 cc cf 80 b6 3f
       0.03524245484152995 0.08790301070817189
000160 7d e7 40 40 e5 64 a1 3f cf 57 83 2f 3b 18 a5 bf
       0.033972896665047415 -0.04120049433701888
000170 d9 37 04 f7 fd 02 b2 3f 91 74 56 7e 48 ac 99 3f
       0.07035815506625855 0.0250712706671164
000180 b7 49 0e c9 ea cd ab 3f cc 71 7e 1e 40 a4 a1 bf
       0.054305398028322065 -0.03445625660171778
000190 83 3c e4 65 f9 ba 60 bf 98 b3 67 8e 12 4d b3 bf
       -0.0020422812514265267 -0.07539478279768586
0001a0 4c 98 16 a6 c8 da 92 bf 26 4d 84 a2 8a f9 af bf
       -0.01841271890375422 -0.06245072587821658
0001b0 f4 d9 42 5e 91 a2 b0 3f af 68 e0 a8 06 58 bf 3f
       0.06498058844849891 0.12243692038501551
0001c0 e6 c6 37 1b 48 0d a9 bf bd 47 13 d1 68 20 a0 bf
       -0.04892945606469627 -0.031497264406098215
0001d0 6e 74 47 4b f1 a7 8a 3f 12 e6 e6 18 9e 2d 61 3f
       0.013015637502514301 0.002096947463738238
0001e0 ca d0 1b 53 c4 6f b4 3f 71 42 b8 3b fb 30 b4 3f
       0.07983042744655502 0.07887239654542967
0001f0 d9 6a 58 ba 9a 8a bb bf 99 4d 03 fa d0 fb ae bf
       -0.10758368539283526 -0.06051495601573293
000200 25 ba 70 4a 27 fc b3 3f b4 89 d9 3e fc 65 93 3f
       0.0780663067568886 0.018943730674786344
000210 a9 e0 47 5e 92 33 25 bf 4e 0a cb 31 83 b3 af bf
       -0.0001617542431089404 -0.061916446522009325
000220 4a ea 75 32 6f 3b b9 bf 54 17 de 34 3a c3 bc bf
       -0.098563146419033 -0.11235393324576864
000230 c7 dc 95 04 f3 54 9d bf aa 9d 64 83 63 42 a0 3f
       -0.028644368319388016 0.031756505765140844
000240 df 3f 13 73 8e 49 c0 3f 42 9a 23 92 e9 65 ac 3f
       0.12724476450830388 0.055465029801599744
000250 f1 03 d2 ea b7 18 c1 bf 44 c3 7c 3f 94 59 b9 bf
       -0.1335668465217448 -0.09902311849579087
000260 02 2c 60 13 5b 64 9a bf 1a 83 e5 ed 33 4b c0 3f
       -0.025773451860043657 0.1272950088123473
000270 64 44 e8 9d ec 7c b0 bf a8 06 b1 35 c3 24 ab bf
       -0.06440619330557379 -0.05301485090650476
000280 a6 a9 c8 db 89 0c b6 3f 83 7a c8 7d 98 ff a7 bf
       0.08612882247749684 -0.046871915201554
000290 c8 58 d4 99 dd 9c b2 bf d3 1b ae 75 34 4a b3 3f
       -0.07270607953646213 0.07535102723168956
0002a0 4a 04 cf 1d fd 66 af bf 17 60 9d b6 0d 4f a2 bf
       -0.06133261669993624 -0.035759380857314386
0002b0 90 1b 6a bc 01 d9 b1 bf 2f fb a3 8d aa b2 b1 3f
       -0.06971751069987264 0.06913248022099759
0002c0 df a3 97 81 2b 52 b7 3f 42 57 dc d8 7d e8 af 3f
       0.09109756387591926 0.062320645067457395
0002d0 b3 dd b5 ba 27 1c b4 bf 1e ea f9 de 7c 47 c1 bf
       -0.07855461414680213 -0.13499413383017694
0002e0 7c d4 93 04 31 84 c4 bf d0 65 09 d0 b6 e1 b8 3f
       -0.16028416369923437 0.09719412402173266
0002f0 f5 a4 9f 33 42 57 74 3f d8 06 3e e9 82 c4 c1 3f
       0.00496602878590945 0.13880955113204752
000300 66 09 62 25 a4 76 b7 3f c8 98 ad 8d 42 f1 a1 3f
       0.09165407097501585 0.0350437925288119
000310 d2 ca fe 78 a7 5f 95 bf 90 43 4e 98 54 e0 be bf
       -0.02087270427700611 -0.12061051100159959
000320 09 88 16 4c fa 0b c2 bf b0 ff 98 54 4f 7f c3 bf
       -0.14099053111300489 -0.1523226893496008
000330 bc d1 84 fb 81 2c a8 3f db 1f f1 27 5c 8d ae bf
       0.047214567139608005 -0.05967224109241417
000340 0a ba b2 8b 78 c4 93 bf 25 d4 db 37 b5 24 b1 bf
       -0.01930416443490838 -0.06696636785257278
000350 50 5b 24 be fc 2d a2 bf ae 03 14 70 3b 88 b0 bf
       -0.035507105074592205 -0.0645787380817768
000360 c7 c2 ed 2b 58 e3 aa bf 0e cf 60 85 89 2b a1 3f
       -0.05251575027694382 0.033535287410272216
000370 f4 a7 eb 6a 03 f2 a5 bf 66 0c 9d 5a 12 9a b2 3f
       -0.04286204033071775 0.0726634474968236
000380 e3 bd ba 6a 21 c7 a4 bf 63 da 51 2c 19 93 b2 bf
       -0.04058174541330197 -0.07255704242730014
000390 c7 c2 9c e8 ba dc 95 bf 0d 95 0b 00 2a 44 af bf
       -0.021349831054240178 -0.06106692553093227
0003a0 e1 d0 29 70 1e 7a 91 bf f4 81 b3 45 09 82 be bf
       -0.01706740913000793 -0.11917169524850363
0003b0 cc 1b fa 79 d3 ad a8 3f 54 56 b5 80 45 77 c3 bf
       0.04820118774392021 -0.15207737717234926
0003c0 f2 52 77 81 2b 24 4b bf 78 a9 3e 53 2d 66 b0 3f
       -0.0008282864027316635 0.06405909807532406
0003d0 1a bb c3 24 a6 d0 bb 3f d3 58 2e aa 01 4c b6 bf
       0.10865248105595207 -0.08709726719675652
0003e0 3e fa c1 e1 6d 7a b8 3f 90 c2 20 5c 72 ee b4 bf
       0.09561812173522186 -0.08176340817659367
0003f0 bd cf 8f 0b e3 a6 b1 3f 58 2f be a0 55 b0 bd 3f
       0.06895274193067187 0.11597190069568108
000400 32 1b 81 89 e7 50 8e bf 7b 3d 9d 11 85 8b 99 bf
       -0.014802750476645341 -0.024946288299643165
000410 d2 bd 5c d7 53 45 b5 bf 78 d6 01 9c 5a 55 be bf
       -0.08308910377376513 -0.11848989781159414
000420 2e e9 c6 86 94 bd ab 3f a1 c7 a3 20 56 7d c0 bf
       0.05418075700022694 -0.12882496446360128
000430 c9 57 af eb b6 fd b5 3f 32 cb 29 ea e2 8d b5 3f
       0.08590262655283633 0.08419626442791353
000440 5e 1e b4 89 aa e8 c2 3f 68 9c 59 de cf 2a 97 bf
       0.14772540782745386 -0.022624252267999273
000450 d9 44 19 27 58 62 bb bf 70 00 f8 53 72 a3 9a 3f
       -0.1069693656402423 0.02601412427429789
000460 33 b5 12 72 bd dc b4 3f 82 f0 3e 08 2e d4 c2 bf
       0.08149322543132058 -0.1471002140295959
000470 6f fe e7 59 b8 05 bd bf 2c f4 c8 17 06 74 bf bf
       -0.11336853213287566 -0.12286413269698987
000480 58 e6 7c 7d cb dd 84 3f f7 f5 2a 95 48 d5 b9 bf
       0.010188665167891006 -0.10091069833557485
000490 c6 bc 8f b0 d4 3c b5 bf dd b6 80 5f 2f a3 b1 bf
       -0.08295945463736407 -0.06889625627146807
0004a0 ac fd b3 8a 1f cf bd bf 1a f1 43 ed 31 1c c1 3f
       -0.11644169937425514 0.1336729439279985
0004b0 94 e7 ad 07 eb 68 c0 3f 63 44 05 06 13 57 ac bf
       0.12820184588400407 -0.05535182426923126
0004c0 ce 55 41 3e 29 36 2b bf 46 36 01 5d 8c 5e 8e bf
       -0.0002076077790912748 -0.014828774059561966
0004d0 b3 69 f7 5d 30 97 bd bf 81 81 da 25 10 d5 c1 bf
       -0.11558821004965729 -0.1393146691161853
0004e0 3a f7 36 e7 2b bb b4 3f e0 a5 cd 4b 83 e9 b0 bf
       0.08098101038828256 -0.06606312370936207
0004f0 40 7a 31 0b 81 92 b8 bf 6f 91 5a 83 16 b6 b6 3f
       -0.09598547480843767 0.08871594149474558
000500 05 66 de 46 dd 8e 9d bf 0e d4 92 74 2a 76 b7 bf
       -0.028865296793446422 -0.09164681764634983
000510 dc 57 79 61 c5 36 83 bf 55 7a 86 bd 6c b5 26 bf
       -0.009381811177416148 -0.00017325355908056014
000520 21 cd 13 4b 70 dc b0 bf b9 f5 28 c5 9f a8 b7 bf
       -0.06586362679427228 -0.09241674960590886
000530 3b 1c 7d ca cb 44 bb bf 57 3a de d8 fc b7 c6 3f
       -0.10651849454471655 0.17748985852491003
000540 ff b6 4b 25 b5 a9 9a bf 71 c9 a6 0a 03 50 67 bf
       -0.026038008118965724 -0.002845769825591642
000550 f5 2d 63 9c a1 a2 91 bf b8 c4 86 cc aa a3 88 3f
       -0.017221951646929374 0.012030920378352725
000560 73 3d bc 50 47 a3 b5 3f 36 58 b0 71 08 75 a2 3f
       0.08452268334462136 0.036049140813858946
000570 84 dc 13 62 c7 4e be bf 0a f1 ac ee 01 66 a3 3f
       -0.11838956970665221 0.0378876308300012
000580 e3 7f 7a 80 96 80 bb 3f 50 47 19 3b e8 6f 89 3f
       0.1074308456104514 0.01242047720294051
000590 9b c0 38 06 e6 e9 be 3f df 2c b0 c3 39 df ba 3f
       0.12075650836846068 0.10496865298789569
0005a0 f6 e5 a1 c5 11 a2 95 bf b9 b6 3b 32 66 cf 89 3f
       -0.021126058280492153 0.012602613838193265
0005b0 d4 39 7b 8d af d8 bc bf 62 ba 88 71 43 1f 9b bf
       -0.11268136219152974 -0.026486448101588407
0005c0 37 52 9c 21 8e 88 b7 3f b8 34 0e 81 6f 7c ae 3f
       0.0919274169976426 0.05954311800369666
0005d0 0a 1a 49 0a 86 1a b9 bf e3 28 8e b7 dc b2 b6 bf
       -0.09806096793281696 -0.08866672021227688
0005e0 ff 00 cb 12 54 3d c4 bf 28 2c 44 8e a7 47 c0 bf
       -0.15812159459711236 -0.1271867222461378
0005f0 de 00 c1 62 1f c7 bb bf 4d 09 da 4d 17 0a b0 bf
       -0.10850711976036417 -0.06265397692371728
000600 16 21 64 80 4c 91 b4 3f f8 7a e1 fa 8c 90 8f 3f
       0.08034208426045483 0.015412427336000331
000610 8e a9 db 0d 10 27 b9 bf 9d fb 7a 07 a9 96 c3 bf
       -0.09825229967433399 -0.15303528657201762
000620 69 22 66 15 a5 a5 b3 3f 5c 88 90 4d d0 11 c0 bf
       0.07674628994403467 -0.12554363047917405
000630 78 b2 2c 1e ce 0e 79 3f 6d 92 58 c8 bb 43 a4 3f
       0.006117634914329366 0.039579265791222486
000640 e0 f2 c5 83 55 76 97 bf e6 45 cc 65 70 2e 6c bf
       -0.022912346046257137 -0.0034401126162115657
000650 1e c5 b7 4a 3e 4c 94 bf cb 2e cd 43 83 43 a3 bf
       -0.019822095213332884 -0.03762445643095943
000660 15 51 d3 01 cb e5 ad bf 41 e6 75 ec aa 57 c4 bf
       -0.058393806431611996 -0.15892540498662025
000670 8e 49 f9 7d 9e 09 ba bf e1 65 6a 4a 25 00 b5 bf
       -0.10170927596599297 -0.0820334726980927
000680 58 77 ea 32 b4 41 c2 3f dc 81 dd 18 d5 f0 b1 bf
       0.14263012395980001 -0.07008106095373229
000690 0d 5a ba cf 0b 73 a4 bf 23 71 42 3b 1e d5 ae 3f
       -0.0399402323793546 0.060219712003546165
0006a0 57 65 83 f0 21 1f be 3f 5e 82 b3 0b 90 8a ab 3f
       0.1176625454130734 0.05379152434193622
0006b0 5d 57 de 21 68 fe b1 3f 26 77 b8 c5 68 93 ba 3f
       0.07028818919056108 0.10381178691065127
0006c0 26 af 8d 17 a3 f7 c9 bf 93 25 ca d1 0c fe 97 bf
       -0.2028697838790034 -0.023430061630767062
0006d0 8c 75 e2 0c 85 46 bf 3f 1e 0f e6 bb 93 72 ab bf
       0.12216979565206126 -0.05360852879223742
0006e0 60 dc c0 fd b1 c2 b8 bf 7f 04 01 d6 1a 05 b7 3f
       -0.096720814181809 0.08992164349275987
0006f0 91 39 da 92 66 c0 9f bf 19 9f a9 94 74 cc b3 bf
       -0.031007387841378856 -0.07733849172074904
000700 2f 46 95 68 de ba a4 bf 69 bb 47 48 7c 7c 91 3f
       -0.040488195673458065 0.017076436912187107
000710 1c ac 1b aa 38 3e aa 3f f2 fb 72 03 94 86 b1 3f
       0.05125596119417983 0.06845975002487117
000720 33 5c af 69 28 6a b9 3f e1 76 75 e4 16 69 c5 bf
       0.09927609043312273 -0.16726957469193507
000730 6a 95 12 28 31 54 c9 bf 25 ea 77 77 fd 9d 80 3f
       -0.19788183647794294 0.008113842209231123
000740 96 48 f8 02 35 be a0 3f c1 b7 6a 5f 95 7f be 3f
       0.03270116482976097 0.11913426951897944
000750 a4 81 5d 8b 76 86 a7 bf 9a d9 21 c8 dd 45 8f bf
       -0.045947746765480774 -0.015269978208590374
000760 91 92 ff 3f e2 c8 bc bf a4 f7 5a 5b 53 46 bc bf
       -0.11244024336299165 -0.11044808369021425
000770 2c 89 57 72 d2 31 57 3f 1b 8c 5b c3 7f 33 b1 3f
       0.0014156870978401888 0.06719206351731126
000780 78 6d 6c ce 21 76 bc 3f 04 ca 02 a6 0e 2f c7 bf
       0.11117755212437952 -0.1811235724067758
000790 1d da 94 85 21 e5 b8 3f 61 e9 79 8a cf dc ab bf
       0.0972462607504458 -0.05441902699836266
0007a0 a5 21 b4 37 b2 a7 8c 3f 13 27 33 a6 55 79 c0 3f
       0.013991730046215187 0.1287028371355566
0007b0 06 42 0a 2b f3 7f b1 3f 9e e1 a4 a0 97 f3 b7 3f
       0.0683586101606651 0.09356067344641025
0007c0 6f a8 46 73 e8 46 be bf 69 73 3d 7e a6 c8 a4 bf
       -0.11826947035174994 -0.040593340788041506
0007d0 f2 ca 54 65 8d 97 b2 3f 85 a7 34 64 c4 28 a2 bf
       0.0726250049963644 -0.03546727870191461
0007e0 36 4d ca 9e 6d d4 91 bf 18 e4 5e 4a 3f eb a2 bf
       -0.017411911789691113 -0.03695104391903942
0007f0 42 57 61 04 04 52 bb 3f c2 4d 71 d5 e1 07 b2 3f
       0.10672021014155766 0.07043277226448821

rnns.0.bias_ih f8 [69]
000000 46 7d 6c ed 25 7c 93 bf d8 44 16 3a 4a 6d b2 bf
       -0.01902827512378493 -0.07198013227595668
000010 ad 75 70 fb 33 c4 b4 bf e3 14 49 08 f1 5e 91 bf
       -0.08111882103590658 -0.016963735705094584
000020 fe d7 14 a8 00 71 a1 3f db 4f 76 d1 65 eb b3 3f
       0.03406526614928394 0.07781063426801842
000030 4d e6 b5 d7 38 3d 98 bf ae fb c0 40 43 59 bc 3f
       -0.02367104355423626 0.11073704081444077
000040 27 4f c6 9b 76 d2 af bf 14 5a 71 1d 2c 4b a6 3f
       -0.06215258266015971 0.0435422693196196
000050 3c a2 82 e3 82 14 b1 bf 89 d7 a7 70 6e 63 9e 3f
       -0.0667192273564376 0.029676175714449058
000060 bb 47 de 54 54 c7 b9 3f cc d6 07 3b f6 5d af 3f
       0.10069777557353536 0.0612637469347824
000070 d0 a6 4e 7d 99 d0 7a 3f 07 64 6e 16 7b fb 9b bf
       0.006546592300688395 -0.027326510662167205
000080 9e 31 5d 11 ba bf bf bf 05 1d 35 88 4b 69 b8 bf
       -0.12401926921774595 -0.09535667491319451
000090 35 95 77 7d 9c 42 bf bf 77 b6 62 43 2e e0 b5 3f
       -0.12211015761530038 0.08545197625309152
0000a0 02 70 87 8b 86 1a a7 bf 11 c4 ee b0 a6 7b a2 bf
       -0.04512424901233204 -0.0360996333105349
0000b0 1f 64 85 46 ad f0 ba bf 34 d6 3a 68 f5 4b 9d bf
       -0.1052349373980097 -0.028610071646389026
0000c0 e8 3d 29 5f 24 70 b8 3f 46 eb 17 a5 69 0e a7 3f
       0.09546115229863228 0.04503183498669343
0000d0 5a 8a a3 ab 6c 9e 96 bf 31 75 a5 53 12 b3 a5 3f
       -0.02208871648407249 0.04238183280060993
0000e0 fe 6e a8 f5 07 56 b9 3f bc d3 58 df e0 66 b4 3f
       0.09896898028858556 0.07969479992682599
0000f0 bb 68 fa 61 ee 6d b4 bf 86 5b d5 8b 40 63 6e 3f
       -0.07980241672558723 0.0037094364803737538
000100 80 eb c7 12 c2 ad b8 bf d8 f1 bd c5 94 a6 b3 bf
       -0.09640133818167662 -0.07676057651219226
000110 a0 e7 0a f8 45 af be 3f 06 11 97 3b 96 14 b7 bf
       0.11986195855834447 -0.09015788035236846
000120 22 16 5b 61 55 78 ae bf 97 5b d4 6f 05 28 b4 3f
       -0.059511821874860496 0.07873567562306359
000130 4f 97 c0 28 d5 2d bf 3f c9 c3 47 d6 ab 26 be bf
       0.12179310078553594 -0.11777757626965903
000140 83 c9 2a 0a 17 fb b1 bf ad 5c 17 1d f1 f4 a7 bf
       -0.07023757932873846 -0.04679063301198858
000150 4d f7 78 cf 2e 60 b8 3f ec 4d 25 7d 73 db a7 3f
       0.09521763386962086 0.04659615423829763
000160 48 92 6d 9b 57 f4 b8 3f 7b 3e 25 26 76 9a b6 3f
       0.09747836632374984 0.08829439574514623
000170 b5 56 4a 4b 37 98 a8 bf d2 8c 6b 2f 14 2f b8 3f
       -0.04803631586143579 0.09446836621968949
000180 22 5a 1d 83 51 69 95 bf 63 b4 43 53 17 fa 9b 3f
       -0.020909570338824797 0.027321209389743816
000190 b0 7b b8 d6 c3 7a a9 bf e5 e4 16 e9 38 f8 b2 3f
       -0.0497647475824502 0.07410007181796947
0001a0 28 bd 2c 57 ad f3 a4 3f 10 ee 34 e6 90 96 41 bf
       0.04092160882134471 -0.0005367476955266421
0001b0 25 38 61 b0 60 cd bd 3f 5a 40 71 89 8b 0b a6 bf
       0.11641506487032467 -0.04305683186305549
0001c0 83 31 df c9 ef 7e 9c 3f a7 67 f2 02 33 cd ba 3f
       0.027827974983482228 0.1046935922808233
0001d0 2c 79 18 0e 76 81 b1 3f 0f 10 97 32 e3 75 a4 bf
       0.06838167041903337 -0.039961910176799724
0001e0 c7 e7 33 9d 06 c3 a8 bf fc eb 34 9b 96 9d 86 3f
       -0.04836292904833744 0.011042763339551336
0001f0 d3 14 0c b8 c1 d9 43 3f d5 56 63 b4 1b 84 a1 3f
       0.0006057926076158633 0.03421103074076163
000200 b8 78 b3 f4 a3 38 b8 3f 14 8f 6c fb 2d be a3 3f
       0.09461426471850387 0.0385603303350576
000210 bf 29 bf c4 cc 29 b1 bf ba c3 f2 1d a6 a7 bb bf
       -0.06704406550776464 -0.10802686911735196
000220 72 c8 a2 f6 a9 59 bd 3f
       0.11464941283591815

rnns.0.bias_hh f8 [69]
000000 92 fa d8 da ab 4d 86 bf 70 89 2c 54 ea 1b a6 bf
       -0.010890333763311309 -0.043181727194922526
000010 ad 75 70 5b 32 08 b7 bf d8 ba ed d5 70 3d bf 3f
       -0.08996882183460882 0.12203126166216849
000020 31 d8 14 e8 04 48 ad 3f 2b b0 89 2e 12 79 b0 bf
       0.057190087633373195 -0.06434739719560471
000030 8c 79 ed fd b2 30 bf bf ae fb c0 a0 54 49 be 3f
       -0.12183684062390493 0.11830643582014375
000040 e0 b0 39 e4 db 20 a3 3f 6a 42 2b ae 3d 59 5e 3f
       0.037360068902531074 0.0018523313853401565
000050 3b a2 82 93 34 ea ba bf d2 f5 29 dc c7 fe b1 3f
       -0.10513619042706861 0.07029389500708952
000060 45 b8 21 eb d6 71 b5 bf 52 eb 83 ad 71 07 b4 3f
       -0.08376830330391367 0.0782385872479783
000070 7c 15 2b cc f9 a8 bd bf 00 99 9b 55 b7 21 b7 bf
       -0.11585961565568498 -0.09035821762117635
000080 c2 98 ae 18 af 03 c2 bf fb e2 ca 97 e7 9d b8 3f
       -0.14073742585350685 0.09615943389770713
000090 cb 6a 88 c2 9e 2e b7 3f 89 49 9d 5c 64 53 ba bf
       0.09055511712396506 -0.10283496152013617
0000a0 06 48 3c 1a 07 21 b9 3f fd 61 77 20 d9 5c b7 bf
       0.09816021337999822 -0.09126050036082485
0000b0 1f 64 85 26 fa f6 bb bf 7e 4a f1 25 e7 19 b0 3f
       -0.1092373222394518 0.0628952472336923
0000c0 c9 7b 52 fe ac 63 af 3f a1 f5 8b e2 bf 54 b7 3f
       0.06130734066504535 0.09113692551541998
0000d0 a3 75 5c 74 2d 07 95 3f a0 ba d2 e9 1e 5d b8 3f
       0.020535192706224625 0.09517090996335265
0000e0 02 91 57 aa 09 f9 b8 bf 5f a7 b1 1e 47 47 a5 3f
       -0.09755001457921611 0.04155943154985552
0000f0 db a2 e9 07 24 92 9d bf 19 b7 aa 97 9e 93 50 3f
       -0.028877795203160566 0.001011757731855528
000100 80 14 38 8d 51 e2 b5 3f d8 f1 bd a5 b0 78 b4 bf
       0.0854845971844771 -0.07996658369479037
000110 a4 e7 0a f8 72 86 b4 3f 33 44 5c 8e 9c ba 92 bf
       0.08017653041579692 -0.01828999155901929
000120 e4 74 52 9f 30 d0 b3 3f 75 6e 51 0b e2 44 92 3f
       0.0773954762430154 0.017840892735291953
000130 5f 97 c0 38 c8 7b b0 3f 37 3c b8 89 6f 5b bd 3f
       0.06438876519731938 0.1146764479856167
000140 31 93 55 54 22 32 a2 bf 72 ae 8b be 52 40 be bf
       -0.035538742823325704 -0.1181689944457334
000150 4d f7 78 2f 84 92 bd 3f f1 58 6d 61 ce ff b6 bf
       0.11551691206929356 -0.08984079245178457
000160 ba 24 db 26 8f 91 a9 3f 7b 3e 25 46 f5 05 b6 3f
       0.04993865346256983 0.0860284134153008
000170 9f 56 4a 5b af bd a2 bf d2 8c 6b 2f c8 8b b9 3f
       -0.03660343160042356 0.09978915364949906
000180 ea 52 71 1a 87 f8 ae 3f 2e 97 78 59 15 d9 80 bf
       0.06048986623560444 -0.008226553719463316
000190 d8 11 1e 25 84 1b 8c 3f b4 c9 2d 22 89 76 a0 3f
       0.013724357969984988 0.032154355451797484
0001a0 8c 5e 96 ab f3 dc ba 3f 57 96 33 be 54 77 b8 3f
       0.10493395747323059 0.09557084697333927
0001b0 db c7 9e 0f f6 da b1 bf 56 30 a0 b8 64 4b 32 bf
       -0.06974733239510959 -0.0002791520024636498
0001c0 ca 98 ef 54 43 e4 af 3f a7 67 f2 c2 05 5f b6 3f
       0.062288383596568034 0.08738742837377221
0001d0 8f f2 30 dc 30 54 a5 3f f1 ef 68 cd d5 2c ac 3f
       0.041657950285729155 0.0550295651669045
0001e0 b1 cf 67 fa 6c 71 90 bf 1a 14 cb f4 ad 9e 83 bf
       -0.016057684691943745 -0.00958000090884963
0001f0 e2 e7 0f 2f f0 f0 b4 bf 87 ab 31 2e d7 f5 bf 3f
       -0.08180142544725258 0.12484497907432344
000200 b8 78 b3 34 06 a3 bc 3f 84 b8 49 22 19 df b1 bf
       0.11186255251547805 -0.06981045806034741
000210 bf 29 bf 64 9a 43 ba bf 46 3c 0d 42 29 8a b5 3f
       -0.10259404143940908 0.08413942205992084
000220 8e 37 5d e9 f4 19 bb bf
       -0.10586481759420804

lins.0.weight f8 [113, 69]
000000 15 1c 09 12 f5 5f ba 3f 64 c0 57 03 90 8b 9c bf
       0.10302669229814428 -0.02787613888170916
000010 a0 e1 4e b4 85 89 aa bf 64 fb 20 31 7e 3f c1 bf
       -0.051830461750287826 -0.13475015066975538
000020 82 3c a8 8a 3c 34 c7 3f 0c 55 8f f2 3b 06 be 3f
       0.18128163118715085 0.1172826258837924
000030 20 5c 98 7e 7e 99 c0 3f cd d1 2c 5b be 1a 64 3f
       0.12968426877407158 0.002454158582077626
000040 8e 16 11 b3 a2 c4 b1 3f c7 19 cd cb 87 d1 ca 3f
       0.06940667030093037 0.20951936198453167
000050 db eb aa fe dd 61 b0 3f 64 fc fa d0 9f e1 b6 3f
       0.06399333445999338 0.08938025333462601
000060 e1 14 d9 01 1b 27 ab bf f1 30 88 4c fe 31 be bf
       -0.0530327262645558 -0.11795033806282952
000070 eb f6 8b da 11 75 bc 3f a8 3c 14 c5 c4 b4 b9 3f
       0.11116134248365099 0.10041456042766816
000080 54 14 0b c3 15 65 ac bf f2 e4 3c f3 95 fb 64 bf
       -0.05545871740245248 -0.0025613716806246406
000090 9e d7 fb c5 cc 2d ad bf 9c 15 db 54 71 7a b3 bf
       -0.05699005047601634 -0.0760870773475148
0000a0 80 dc 8f de 7c ad a0 3f 28 be 9d b4 86 ec 81 3f
       0.03257360665150433 0.0087519191617665
0000b0 30 ad d4 bf 27 5b ae bf 1d c5 6b a2 d3 8f 98 3f
       -0.05928920952495742 0.0239861553081414
0000c0 84 45 44 cd da a4 9d 3f 8a 3a 81 8b 1b 8a d9 bf
       0.028949183252796398 -0.39905441878810477
0000d0 a7 c9 c2 70 67 b9 b5 3f 3f cc 7d 44 8f 82 b2 bf
       0.08486029150916484 -0.07230468198922411
0000e0 dc 91 fe bb 1c bf 5f 3f 37 35 35 c0 04 56 ad bf
       0.0019376545533101785 -0.05729689451491498
0000f0 66 b9 13 60 64 02 95 bf b8 aa b0 80 71 03 b9 3f
       -0.02051693760307085 0.09770879165504709
000100 9e 12 61 93 5e da ae 3f d7 07 5f 4c d2 1d 95 bf
       0.060259776583312816 -0.020621572409943525
000110 51 4b df a3 4b 15 c4 bf 7e 1f 2b b4 e2 f0 a0 3f
       -0.15689988614630093 0.033087810986727625
000120 ad 71 87 34 90 90 78 3f 0b 7b 87 b8 e3 5a 9c bf
       0.005997241307764173 -0.027690466058511592
000130 c7 c7 77 b5 38 b8 8a bf b0 94 01 58 bb 56 c3 3f
       -0.013046687162361693 0.15108434483696476
000140 e1 a3 1b 1f 41 e0 c0 3f ea 87 e5 c4 63 6f bd 3f
       0.13184370058959785 0.11498092228933357
000150 a5 48 68 85 7b 45 91 bf 31 72 a2 94 29 79 8a 3f
       -0.016866617219485253 0.012926411484209673
000160 1e 0f 9c 0b fb f6 b3 bf 76 76 b3 54 d2 44 b4 bf
       -0.07798737557828558 -0.07917513435264731
000170 ea 7f 87 91 a3 7a 72 3f 0d 72 6d 13 ef ce b0 3f
       0.004511488856650184 0.06565756058029866
000180 5a 83 6a cf 4e d1 b2 bf d7 e9 4c 43 f7 c2 bd bf
       -0.07350628436917131 -0.11625619309499001
000190 d2 7c 37 10 5d 56 89 bf fb c2 62 7e 0c c2 c2 bf
       -0.012371756608386884 -0.1465468995206932
0001a0 64 76 a7 84 e6 b1 b8 bf 4a c2 d7 74 17 c2 7d 3f
       -0.09646454561831203 0.0072651783243463195
0001b0 db 27 86 73 4a 0d a8 bf a8 39 c8 60 6a 70 ba 3f
       -0.04697640094953189 0.10327782500119176
0001c0 38 0a 02 9d f1 2e 8f 3f 52 36 0a 77 e0 ec ad bf
       0.015226256946566527 -0.05844785168765711
0001d0 f2 ce fb 85 25 1c a8 3f 5b d2 7d d6 60 af be bf
       0.04708974133055034 -0.11986356007202785
0001e0 f6 e3 e5 e8 2f 8d 95 bf 96 76 ea 8a fe c5 bc 3f
       -0.02104639872547761 0.11239615336895734
0001f0 ff 8f f2 b0 15 cb 92 3f 13 9a 45 3a de 99 ae bf
       0.01835283176900759 -0.05976767026259124
000200 bc 45 dc ca ae 6c 7a bf 55 09 2a aa 14 05 b5 bf
       -0.00645130422869172 -0.08210877565764936
000210 b5 58 ef 91 f3 d1 b7 3f b1 67 03 bf ac 6f b0 3f
       0.09304735482087063 0.06420402205858868
000220 f9 e0 ff f6 56 94 b0 3f ed 85 b9 99 3d f6 a9 3f
       0.06476348428975943 0.05070679189226355
000230 c7 6b 46 b3 29 65 98 3f e0 50 00 fa 29 0e 74 bf
       0.02382340580662026 -0.004896320315328689
000240 84 3a 4e 50 3d 6a a0 3f e5 6d 55 19 c9 00 70 bf
       0.032060543110778134 -0.003906999152003964
000250 da 35 84 58 0d e3 58 3f 5f c0 e1 2a 13 2b ac 3f
       0.001518977196670482 0.05501613520107251
000260 d2 c1 2e 9f df aa 68 bf fb d5 a9 ca ab de ae 3f
       -0.0030111663449689874 0.06029259537619321
000270 79 92 ef d4 bf 03 b1 bf 79 7f e8 64 32 3a a3 3f
       -0.06646346043232566 0.03755338174619189
000280 2e ba ad bd e8 c5 bd 3f a1 57 42 12 94 ed b6 bf
       0.11630110388589607 -0.08956265874652881
000290 c1 20 ae 51 6c 32 a5 3f 6f 60 c2 7d f6 5a a8 bf
       0.04140032288620566 -0.04756899151942739
0002a0 2b 02 6a 3f ff 83 c0 bf 9c 2b 6c 4e 40 9f bf bf
       -0.12902823063269983 -0.12352373041737369
0002b0 e2 25 ea b2 43 7d a2 bf cf 10 dd 2c 4a 96 b2 3f
       -0.036111941900411684 0.07260573954869474
0002c0 83 22 d8 f6 2d 9e b1 bf bf 7f b1 e9 66 73 a5 3f
       -0.0688198783538017 0.041896072413464484
0002d0 d3 ca 7d fc 6e 47 b6 3f c7 bb 93 ac 67 5a b8 bf
       0.08702748932209241 -0.09512947047527041
0002e0 8c 05 80 dc ec c6 91 3f a7 34 5b 14 82 56 9e 3f
       0.017360402067429656 0.029626877300689938
0002f0 0b e0 cd bd 9d 95 b2 bf 6c 7b 68 7c f0 5c 8f 3f
       -0.07259546169177626 0.01531398658431523
000300 c3 5d fc e3 ef 7c b9 bf b0 10 64 c9 48 bd bd 3f
       -0.0995626384359332 0.11616949955720446
000310 9a cb c3 2b 4e 99 b2 3f b0 47 c6 05 2e c8 a0 3f
       0.07265175407864746 0.03277725048532376
000320 90 36 9c e8 f7 90 b6 3f bc 03 3b b8 d8 a7 b3 3f
       0.08814954213104387 0.07677988527122087
000330 99 52 d6 ad 19 d4 bc 3f 4a 99 cc 1f 9c 03 b1 3f
       0.11261139387199605 0.06646133209560393
000340 7a 15 0d 00 3b 35 b4 bf ec 2e 86 9f 23 54 ba 3f
       -0.07893723250625398 0.10284636158592847
000350 18 91 41 0d 19 69 a2 3f e7 ca 19 e4 7e 25 a3 bf
       0.03595808302705644 -0.03739544424469959
000360 03 b0 46 12 43 fe a5 bf 2d e5 fd e0 a9 62 b9 3f
       -0.04295549009415824 0.09916173689807257
000370 a0 1f 9f af d5 62 8e 3f a6 1f 7f 80 03 f6 b7 3f
       0.014836949750943351 0.09359762084124998
000380 18 50 48 87 8d ae 09 bf 80 57 00 f8 32 cc be 3f
       -4.89842358641081e-05 0.12030333094329926
000390 c5 ae f5 9e 49 77 b5 bf e0 15 c2 ab 97 28 97 3f
       -0.08385143404819491 0.02261578546360521
0003a0 4e 1b e4 e6 5e 50 73 bf 1e d6 a0 68 44 c9 7a 3f
       -0.00471531935750742 0.006539599629879626
0003b0 9e d4 34 0e 15 55 b8 3f 0b d1 62 db 01 35 a0 3f
       0.09504825207553089 0.03165441325237069
0003c0 6b 72 a7 0e 16 33 ad 3f 9f 89 5d d2 61 57 b7 3f
       0.05703038147814684 0.09117709527848782
0003d0 e2 b0 7b c4 8a 17 7c 3f a4 17 d0 60 04 52 a4 bf
       0.006858388958544933 -0.03968824083135239
0003e0 e7 89 88 3e 2c c7 b7 bf 32 36 cb f2 4d b7 57 3f
       -0.09288288618748873 0.0014475117888425146
0003f0 f8 82 d4 59 cd 98 a7 bf fe 0d 7b 74 ce 5e b6 3f
       -0.046087662902442206 0.08738413184897095
000400 47 f8 e4 1e af 47 bf 3f 58 2c 29 ef 0a 04 c0 bf
       0.12218756202943935 -0.12512337377333682
000410 08 7f 2b 51 22 c0 b4 bf 18 60 d1 06 a3 1b ba 3f
       -0.08105673295676408 0.10198420444919554
000420 47 a3 ba cc 16 4a a7 bf 08 3d f9 ad a6 79 bd 3f
       -0.04548712968000373 0.11513749835397757
000430 e1 0d e9 d8 18 67 c0 3f a7 ef 14 71 91 d4 a3 bf
       0.12814627257658542 -0.03873114114182324
000440 67 73 0b dd 4d 91 b5 bf fb 94 6f a7 df b1 a6 3f
       -0.08424841543769689 0.04432581824202405
000450 5c 83 32 4a 7d 7e ad 3f cb 62 b1 25 c7 b8 c3 3f
       0.057605662638940486 0.15407647457575133
000460 7b 5c d5 3d c4 d2 85 3f 3f 96 6c b4 28 91 aa 3f
       0.010655911576277646 0.05188872530406429
000470 16 0a e3 ab be 77 b8 bf 26 4a 03 63 d2 87 a9 3f
       -0.09557716080147602 0.04986436327603298
000480 fa d4 21 f0 aa 4b a7 3f 7d 21 af 65 2e c6 b4 3f
       0.04549917393971188 0.08114900572321022
000490 37 05 59 92 88 f9 b3 bf 36 31 b8 57 ca 74 b9 3f
       -0.07802632878248948 0.09943833009328248
0004a0 80 bc 39 6f 01 fd b6 bf cf dc a8 70 5e ea b3 bf
       -0.0897980591341696 -0.07779493570784556
0004b0 57 26 4f 8c fd 62 9a 3f f9 35 e3 38 c8 c2 a3 bf
       0.025768243492882394 -0.038595444626121585
0004c0 43 fc 4d ab 8e ff ae 3f f9 7a 59 16 4d 93 9b bf
       0.06054349747773149 -0.02692909668837282
0004d0 69 f4 d3 95 89 53 86 bf 8e 20 87 2f c6 89 b0 3f
       -0.010901522526632417 0.06460226688716572
0004e0 cf d9 05 00 cd 79 bb 3f cf 26 db 61 b0 6f b6 bf
       0.10732728243406274 -0.08764173878730762
0004f0 fd c1 60 30 54 ef 8a 3f f7 50 b3 91 23 4e b9 3f
       0.013151796079996276 0.09884855563297267
000500 cd 29 3a 3b d9 23 ab 3f ad 08 13 d4 b9 6e 5b 3f
       0.05300787780750547 0.0016743483286494707
000510 f5 f3 b3 59 fa 7f bd 3f ee 25 12 6c f6 4e c1 bf
       0.1152340382577249 -0.13522224690340984
000520 11 71 50 07 38 b0 ae 3f 22 d9 46 b3 91 dc bb 3f
       0.0599381932190416 0.10883436800836369
000530 a1 78 c6 a3 86 cd 6c 3f d0 d5 59 34 85 6a 8c 3f
       0.0035159711535036197 0.01387504640590978
000540 82 7d 7b a7 e5 b7 c0 bf 9f f4 10 ab 9d 42 b1 bf
       -0.1306120937142446 -0.06742272783681579
000550 9f 86 5e ba 37 02 96 bf d2 48 c9 59 49 24 c1 bf
       -0.021492834806514535 -0.13391987690062607
000560 7d 45 c1 ad 0f 81 ab bf 2f 6c 77 10 07 dd bc 3f
       -0.053719034157107416 0.11274761344923044
000570 5b cb 6a 00 02 05 b0 bf 24 27 c7 b9 ed 92 b7 3f
       -0.06257641325173095 0.09208570275873434
000580 84 a6 f3 50 3a ba b8 bf 18 1a 41 28 50 ad bd 3f
       -0.09659161068307226 0.11592579825183014
000590 55 b4 ac 6c 1a 5a bb 3f c9 e5 8e 8f 7b 40 bc 3f
       0.10684361603917243 0.11035892729605402
0005a0 6c 46 db 34 d0 2f 9a bf 2f 64 27 14 e5 c9 c8 bf
       -0.025573018289668445 -0.1936613415153103
0005b0 80 d2 43 0e 11 b1 97 bf 38 1a a0 94 2e ec ba 3f
       -0.02313639306608417 0.10516635063695723
0005c0 86 f0 b0 dc e6 2a a3 3f a2 6d 3a 43 0b 8f c2 3f
       0.03743668979629526 0.14499035627964668
0005d0 3e 7c e8 02 cf a6 b0 bf fa f5 5d 50 12 c6 b6 bf
       -0.06504529782294896 -0.08895983182988934
0005e0 98 ae e4 52 3c cf b7 3f 44 5a d2 c0 b3 f5 97 bf
       0.09300591491472188 -0.023398216861631363
0005f0 65 76 ab 91 0c 78 b3 bf 32 e1 2f 3d c8 a5 b0 3f
       -0.07605055385962485 0.06502963537048315
000600 d2 33 9b e4 d3 fa 8b bf bf 44 70 3e ee af b5 bf
       -0.013662009634026893 -0.08471573852900159
000610 eb fb 44 54 68 dd 9f bf a7 71 36 76 3d 90 ae bf
       -0.03111804022159596 -0.05969421451593187
000620 e1 be 6c 27 6d 7e b5 bf 2d b3 79 fd a6 64 b3 bf
       -0.08396036350745419 -0.07575458229412098
000630 1e 40 dd 80 25 4f ab 3f 00 85 11 12 6b 4b a6 3f
       0.05333821485567135 0.04354414554178199
000640 18 f1 15 09 06 25 b4 3f f4 55 98 93 33 cd b4 bf
       0.07868993493861287 -0.08125612595934922
000650 b1 22 7e 0d 33 76 a1 bf a8 d3 53 35 e6 23 b7 3f
       -0.03410491504388825 0.09039152910174997
000660 99 75 c8 57 e5 a6 b1 bf c6 ce 01 4b 8d a3 a5 bf
       -0.0689528788866113 -0.0422634271680216
000670 9f 74 df 59 3a 2d a5 bf cc 3d 3e 23 90 e8 af bf
       -0.0413606867511842 -0.0623211901685142
000680 52 02 94 af b1 04 be bf 45 b0 2f 4b 5d 1d ba 3f
       -0.11725912605835134 0.10201056562044737
000690 f1 e0 13 ed 7b 3d a6 3f 77 77 f4 4d 34 36 81 3f
       0.043437836351530985 0.008404167775150502
0006a0 c0 b0 f5 df da 45 b0 bf 4a f2 66 7f 4d 40 af 3f
       -0.06356590240256121 0.061037465860384346
0006b0 b8 8b bd a4 13 48 b5 3f ad c1 9d 18 66 26 bc 3f
       0.08313105365736717 0.10996091938955628
0006c0 d6 bf 59 b8 1b b0 9b bf 53 96 d4 f6 e0 f4 b6 3f
       -0.027038987280718484 0.08967405344136496
0006d0 49 98 c9 e3 4f 1d bc 3f 86 c6 d1 ec ba 5b a1 bf
       0.10982226668565533 -0.03390297070371866
0006e0 74 f9 0c ef ee 5e ab 3f 7b 28 15 83 54 22 b8 bf
       0.053458658867827774 -0.09427383613834366
0006f0 39 66 c3 58 92 41 ba bf d7 5a 04 a5 75 6a bd 3f
       -0.10256304423401098 0.11490569380508063
000700 57 1b 3d ff 12 97 bd bf 52 58 09 ae 20 6b b8 bf
       -0.1155864594594339 -0.09538463829935154
000710 44 88 c4 54 f7 08 bb bf aa 34 16 2d 6d eb b9 bf
       -0.10560556239627866 -0.10124857283354297
000720 4a b2 8f 0b 66 5b b1 3f 4b 2f b6 27 16 33 b0 3f
       0.06780088217028282 0.06327951879046372
000730 ff 69 76 b3 4a ea c2 bf 5f 4a be 15 11 34 96 3f
       -0.14777501833744108 0.021682993843180728
000740 09 fa b5 36 81 05 6c 3f f6 80 56 af b6 0e a5 3f
       0.0034205936150890665 0.04112788095813073
000750 d8 35 9b 6a ce af b8 3f d5 36 ea 8f 85 72 a3 bf
       0.09643259146397243 -0.037983106439339366
000760 c1 25 10 9f 88 50 83 bf 95 9e fa 87 ae 29 ac 3f
       -0.00943094954893098 0.05500550660991369
000770 9f 94 db c6 60 18 ba bf fd 39 3d a5 db 91 a9 bf
       -0.10193447928357323 -0.04994093315200485
000780 cb d2 2a 47 69 63 b9 bf 31 88 b5 a7 49 a7 b8 3f
       -0.09917314517481228 0.09630260796032598
000790 e6 c2 73 d5 1c 74 ac 3f 6d ef e3 5f ee 70 b2 bf
       0.05557336907975756 -0.0720356926066736
0007a0 79 a3 cd 55 75 2f b7 3f 83 67 e9 d3 4c a2 be 3f
       0.09056790680700812 0.11966400312067375
0007b0 f3 fc 5e 85 85 cf ad 3f c9 85 14 07 ad d0 b7 bf
       0.058223888903279696 -0.09302789137702584
0007c0 7c 58 16 72 0d a1 a5 bf 7b 63 5c b3 3f bf ba 3f
       -0.0422443582312306 0.1044807255642705
0007d0 eb 5b 80 e1 88 69 b1 3f 9b 90 b0 ef e3 c5 a0 bf
       0.06801658158688866 -0.03275978375339258
0007e0 ce d7 b1 cc c1 30 b3 3f d4 45 1a 0b 77 44 b3 bf
       0.07496272323064021 -0.0752634431940103
0007f0 85 c9 ed e8 5f 6f a1 bf ab 40 3d 6a c2 17 be 3f
       -0.03405284613008334 0.11755004018528108

lins.0.bias f8 [113]
000000 e6 e3 97 36 03 a8 a3 bf 43 2f f6 7f 5b d0 ad bf
       -0.03839120904371622 -0.058230265970534954
000010 28 ca c9 ef ec a4 b8 bf 0c 6d 95 67 8b d2 b5 bf
       -0.09626656393246746 -0.0852439048662072
000020 04 01 a5 a2 09 35 a6 bf f9 f6 de fa 74 61 bb 3f
       -0.04337339506537499 0.1069558250883026
000030 5f 78 49 9f fd 8f bf bf 25 b7 7f 02 55 72 b1 bf
       -0.12329087389795877 -0.06815081892974868
000040 19 e8 da 48 74 12 ba bf ef 3a e1 dd 1f 00 b4 bf
       -0.10184408930481971 -0.07812689940440597
000050 50 2e ac 62 52 ad b9 3f 60 26 ba ca 84 a7 ba bf
       0.10030093106268478 -0.10411863278764022
000060 92 69 f3 94 a3 25 b8 bf ea f3 46 54 cc a5 af bf
       -0.09432432543272842 -0.061811814582575966
000070 84 21 76 87 f1 f5 98 3f 27 8a e4 a1 67 1d 9e bf
       0.024375699894819927 -0.0294090454637034
000080 a2 85 be 7d 50 26 b6 bf fc 32 15 92 d1 ef bb 3f
       -0.08652213163306624 0.10912809196925005
000090 91 32 df c4 0f 86 9a 3f 88 31 bc d6 ec 43 b5 bf
       0.02590202941046244 -0.08306770556027321
0000a0 22 1c fe 6a 0a 16 ab bf 45 df ef 30 b7 e2 b4 3f
       -0.05290253215849129 0.08158440537215224
0000b0 f0 f8 00 65 bf 32 9a 3f 74 89 48 91 39 38 b7 bf
       0.025584211864264128 -0.09070167347866748
0000c0 eb f0 4a 2f 38 ff aa bf 8c 61 7f 33 b7 9c ac bf
       -0.05272842004112185 -0.05588314536697955
0000d0 91 94 0b 64 8f 74 a4 3f d9 91 27 83 1a 36 b8 bf
       0.03995178314452475 -0.09457555486694193
0000e0 09 bd 02 c3 8c 5e bb 3f c9 9a ee 0e fa 0d 94 3f
       0.10691146622660964 0.01958456722391125
0000f0 6d 95 53 70 ec 7d a9 3f 42 90 28 c0 00 29 a5 3f
       0.049788845741015254 0.04132845254596919
000100 7e 4e 99 82 bb 18 b9 3f 22 a8 5b 70 89 fc a8 bf
       0.09803363741348822 -0.04880170342023883
000110 80 37 ae 85 33 48 a3 bf 8d 25 3e 17 63 cc b1 bf
       -0.0376602268871542 -0.06952494924020965
000120 5a f7 de 2f 56 70 bb 3f a0 e2 40 b9 f8 61 92 bf
       0.10718287152027753 -0.017951856905912167
000130 f4 18 b4 03 70 ce 6a 3f a4 d7 87 2f d8 99 b7 3f
       0.0032722652227931085 0.09219123039642213
000140 1e 49 2e c9 c0 92 9a bf 11 71 6d 74 6a 02 a9 bf
       -0.025950443533994443 -0.048846556389181235
000150 cc b9 7f 40 08 f3 a4 bf 41 9e e1 ef fe 10 b4 3f
       -0.040916688798336404 0.07838433605649532
000160 08 f0 c7 48 5a 4d a0 3f 41 9f 5d 0a f0 92 b2 bf
       0.03184015406074542 -0.07255459073132632
000170 d9 45 e4 ae 9e 01 b2 3f b9 f8 cc 72 ba e1 a1 3f
       0.07033721704308195 0.03492529536605233
000180 95 d4 da e7 dd 56 9c bf e4 5a 94 41 ad 33 a2 3f
       -0.027675120617193533 0.0355505125573268
000190 d1 02 d7 31 cb d9 bd bf af 1d c4 1a 5e b5 b9 bf
       -0.11660451857370481 -0.10042369988888454
0001a0 38 9c 34 c5 13 94 a1 bf 3d 61 7f ff 00 2d b1 3f
       -0.03433286459249313 0.06709295499547792
0001b0 11 49 a4 95 a2 b9 92 bf 0d 73 e6 62 52 0f b4 3f
       -0.018286266692549683 0.07835879244380468
0001c0 37 f5 f1 0a 58 be bc bf 5f 95 5e 11 94 71 b4 3f
       -0.11227941767898107 0.07985806869563337
0001d0 58 8d 6b c2 0a bb bf bf ae e8 24 e1 a1 15 a0 bf
       -0.12394778486809821 -0.03141504166929231
0001e0 89 59 2d 1b c8 58 ba 3f 18 3b ff 48 6e 37 a0 bf
       0.10291720069412781 -0.031672903452650114
0001f0 0a b0 3a f2 c2 85 a5 bf ca 5b ad cc 98 a5 b2 3f
       -0.0420361443223954 0.07283930775643835
000200 f6 0d 09 f5 31 bd b2 bf 76 71 a0 63 b9 f3 8e 3f
       -0.07319938881214924 0.015113304474703364
000210 a2 ee 99 47 7b 83 a8 bf ee 84 80 45 40 24 a4 3f
       -0.04787812470473553 0.03933907364285881
000220 d1 67 ac 33 a5 7e b2 bf 90 53 98 02 80 07 ac bf
       -0.07224495421942768 -0.05474472076108505
000230 8a 88 d0 e7 c1 ab b6 bf 42 97 7c 82 5d e2 8a bf
       -0.08855831059966782 -0.013127069992673438
000240 98 f7 c7 55 32 c1 bc 3f 35 cd 4d f0 6e 2d b4 3f
       0.11232294649377506 0.0788182579688524
000250 0c e1 b0 a4 6a c4 b6 bf 5b d6 87 70 0b 21 b2 3f
       -0.08893457909369235 0.07081672189073045
000260 37 67 a7 11 d0 6e be 3f 5c 6d 04 39 4d 17 bc 3f
       0.11887836867336153 0.1097305549814584
000270 1f f3 fd 34 b9 89 94 3f ac b2 9b 4b 8f 92 8b 3f
       0.02005662332475133 0.013463134283904075
000280 19 c7 45 80 82 51 b9 3f 41 71 f8 58 fa 9e bc 3f
       0.09889999038366816 0.11180081054812253
000290 be 6b 2f a6 56 df 88 3f 87 fc 0a 0c 5c e9 89 bf
       0.012144734331675507 -0.012652129285355208
0002a0 2b 7c 03 f9 d6 bc b6 3f 01 63 5f a0 65 a8 a5 bf
       0.08881896571573182 -0.042300391985639514
0002b0 f2 e5 1c d1 75 ab b7 3f b9 77 2a 89 2b da b7 3f
       0.09246002536101353 0.09317276095177264
0002c0 f2 1b 66 c9 27 bf a5 3f da 78 ac c8 4c b8 ba bf
       0.04247402509195543 -0.1043746938634941
0002d0 02 46 3a 4e c6 64 ba 3f 6c 36 d2 c5 53 82 b0 3f
       0.10310019883970514 0.06448863582246539
0002e0 b1 d6 26 43 68 c8 a2 3f e8 69 eb 3f 68 ca a0 3f
       0.03668523616526665 0.03279424457805985
0002f0 d9 73 fa 28 57 1d a6 3f 7f 77 d2 ff 34 11 b0 3f
       0.04319260001395948 0.06276255841882337
000300 2e 28 1d e3 e8 0a b2 bf e5 ab 89 39 68 42 b6 bf
       -0.0704789690472871 -0.0869507923577398
000310 ff 50 cb e5 97 0b b2 3f be 05 0c 88 67 6b a5 bf
       0.07048940048418116 -0.04183505569200062
000320 e2 20 15 21 53 c5 bc bf 3d d4 7e f7 b0 e6 b7 3f
       -0.11238593633345631 0.0933638195263748
000330 e0 3e 95 76 fd 25 ba bf 9f 34 f6 5c 0d c9 a0 bf
       -0.10214218278019471 -0.03278390655314322
000340 d4 3e 6e c2 ab aa b1 bf ce d1 f2 b4 84 2f be 3f
       -0.06901048180429409 0.1179125730294068
000350 fa 38 e6 33 93 af 98 bf 1d 9e 73 cc e5 61 ac bf
       -0.024107265513117128 -0.055434399802660496
000360 a9 bb 68 8e ea 0d b7 3f 66 6a 68 ed 48 25 ba 3f
       0.09005609490189549 0.10213142200556433
000370 e8 92 9b f8 84 59 ac 3f e1 7c bf 44 a6 87 ba 3f
       0.055370478961583036 0.10363234690111113
000380 a2 00 d5 47 10 07 ba bf
       -0.10167028192245423
