logs/overfitting_K=0.1/version_42/model.ckpt (torch, 835209 bytes, 42 tensors)

rnns.0.weight_ih f8 [91, 2]
000000 c0 03 ec 1c 21 0e c2 3f cf 37 68 35 83 36 c0 3f
       0.14105619346812936 0.12666359050530082
000010 0f 3b 75 c2 73 3b bf bf 74 41 f0 85 57 33 c0 3f
       -0.12200091836460224 0.12656683006253966
000020 37 b1 79 71 74 3a 99 bf be 29 d8 72 f7 55 8f 3f
       -0.024637050081240033 0.015300687019608069
000030 e0 53 45 6b 65 de c5 bf 9b cb 3a 26 e9 d9 c0 3f
       -0.1708494924338586 0.13165010801966734
000040 62 36 c0 fa 52 43 cc 3f c7 5f 61 76 73 90 c6 bf
       0.22080456966107237 -0.17628329544345275
000050 84 76 92 63 a8 cd ca 3f b1 b5 ce ea 67 34 94 3f
       0.20940117704315153 0.01973116274500847
000060 f6 c1 59 e0 a8 f8 c6 3f d5 af c8 9d f3 69 a7 3f
       0.17946349100704112 0.0457302217585888
000070 74 00 b8 1b 06 e2 ad 3f b7 2e 16 f3 0b 1a 95 3f
       0.05836505020488483 0.020607172691184696
000080 02 91 01 74 e9 93 d2 3f bc 29 79 fa cf 27 7f 3f
       0.290277827536798 0.007606327453297753
000090 3a 5e 6a 9e 64 79 b9 bf 09 e9 12 fb 64 a2 96 3f
       -0.09950856082502293 0.022103860687573227
0000a0 dd d8 d3 b4 d3 9b c4 bf b3 99 ac 69 eb 25 93 3f
       -0.1610054619738496 0.01869933922275786
0000b0 11 72 9a 41 19 16 c8 bf 95 38 31 27 81 36 c4 3f
       -0.1881743974999073 0.15791334546742478
0000c0 2a 4f 2f 23 4d d1 b7 bf e6 32 c3 16 d0 67 b2 bf
       -0.09303743466381023 -0.07189655833935724
0000d0 f4 1f 93 d0 5d c7 c1 bf 1e 99 1c 19 51 b9 ab bf
       -0.13889668163596947 -0.054148229899782616
0000e0 52 69 6c e7 62 72 ac bf 50 39 5c e2 be 58 c4 bf
       -0.055560198545395637 -0.15895830204721983
0000f0 b3 df 6b 5b af ee c4 3f 4c e9 6f 4d 2f 18 c2 bf
       0.16353408779081988 -0.1413630607710935
000100 88 a0 6a 3f ab 1d cc 3f e5 06 e5 f1 44 bb b1 3f
       0.2196554240847528 0.06926375299101613
000110 7d e8 3f d2 70 1a c9 bf bb 25 55 af 73 c9 c9 3f
       -0.19611940637679828 0.2014603239170308
000120 3f ba 0e d5 94 d6 b3 3f 8d 78 5c 74 22 8d cb 3f
       0.07749300195312346 0.21524458581638264
000130 34 ab 56 25 9c 21 c0 3f 12 51 4e 78 ab e2 b7 bf
       0.1260256941144121 -0.09330245673328744
000140 32 d9 11 72 a3 fa b4 3f 11 8a 23 a0 c8 d8 84 bf
       0.08194943938164981 -0.010179107081460111
000150 0b 5f 06 4a 4f 84 b6 3f 02 97 83 bd c4 e3 a6 3f
       0.08795638615844951 0.04470648587611771
000160 a7 9f 28 78 8a 54 c4 3f d2 b2 aa 5e 43 06 b7 bf
       0.15882998339770646 -0.08993931828690485
000170 05 b1 7f 5f 29 23 cb 3f 0a 09 3a 66 f6 e8 9e 3f
       0.21201054728533833 0.0301855564016558
000180 7a 15 f9 58 ee f3 c9 3f 54 36 b7 79 4a dd c2 bf
       0.20275668472656233 -0.1473782629313286
000190 7c e7 ce 5a 25 23 ca bf 90 82 5a 77 1a 2e 9a 3f
       -0.20419756826396085 0.025566495451701032
0001a0 61 9f 29 1b 7d 92 b5 bf 32 61 80 72 4f ff c0 3f
       -0.08426649010800481 0.13279145327465752
0001b0 fe b2 d0 1a 93 d5 92 3f 8a c1 7f 4f 8a 5b b5 3f
       0.018392847549125506 0.08342804375548077
0001c0 f7 90 bc 80 a8 9a ac 3f 15 39 89 b9 5f 92 a0 3f
       0.05586744853488484 0.032366744421425654
0001d0 1e 3c 53 6f 7a 8b c3 3f d7 6f 0a b6 01 6c ca bf
       0.15269403873250637 -0.2064211024161284
0001e0 f3 9b b9 7c f9 e1 af bf d4 5b d6 25 89 9c b9 bf
       -0.062270924067710974 -0.10004479573977615
0001f0 28 53 1b c3 47 73 b2 3f 84 d0 ef d9 b7 52 bb bf
       0.07207153809879385 -0.1067309290954786
000200 bb b4 fd 25 8b 5c 90 bf 62 fa 9b 5e a9 31 78 3f
       -0.01597802562121296 0.005906735992310704
000210 9a 11 13 e5 d8 cb 93 3f e9 f3 5b f6 af 8d aa bf
       0.01933230302962983 -0.051862238715308547
000220 61 b8 65 1d e5 76 c4 bf 28 cd d7 49 e6 ab b4 bf
       -0.15987838683526248 -0.08074797919089305
000230 1c 8b bf 8b 8c 4c c3 3f 70 92 70 80 e7 cc b2 3f
       0.15077359031337145 0.07343909154639916
000240 ec 3b ee 0b e9 82 ca 3f 99 54 ac 4b 8e b9 c6 bf
       0.20712006647633474 -0.17753771491030504
000250 61 74 9e 72 09 02 d0 bf 28 e6 97 54 48 6b be bf
       -0.2501243228269399 -0.11882450166003677
000260 56 50 ff 7f 19 e8 c7 bf 7c bb 45 50 21 cc a7 3f
       -0.18677061796063538 0.046479264305950146
000270 d2 65 e9 7a 43 6a b0 bf 09 f3 a4 64 77 5b c0 3f
       -0.06412145376943748 0.1277913323810014
000280 6e f2 15 40 0c 93 c2 bf e5 db 29 ec a3 e7 b1 bf
       -0.14511254433809334 -0.0699408008166383
000290 fe f7 29 ba 46 4c 9e bf 29 eb ec eb 12 61 92 bf
       -0.02958784590963858 -0.01794843258833648
0002a0 85 21 fe e3 f0 28 be 3f a9 2a e0 7c 93 e0 b6 bf
       0.11781220976093294 -0.08936425970766017
0002b0 73 3a 1f 31 bd 4f c7 3f b8 05 e2 05 ee cc c1 bf
       0.18212094210180715 -0.13906646048785176
0002c0 80 f0 fd 86 af 06 c7 bf d0 b1 4e bd 6b 1c 90 3f
       -0.17989152995494706 0.01573341696682623
0002d0 18 8c c5 ad 51 ab c3 3f fd 76 7f ab 0b 4d b0 bf
       0.15366574273056766 -0.06367562233887365
0002e0 b9 42 5d b9 8f 62 c0 3f a2 2b e1 68 05 d8 b2 3f
       0.12800785590163402 0.07360872087990214
0002f0 71 4d aa 2c 08 97 b4 bf e5 52 50 7e 0f 6a b0 bf
       -0.08042956438503325 -0.06411835512001181
000300 5e 98 65 0a c5 6c c5 3f 79 9d 30 c7 b9 87 a7 bf
       0.16738188750895494 -0.04595737988011712
000310 d8 8c b0 26 77 11 ae bf ed 5e 5c 1b c8 a5 cb bf
       -0.05872700068746334 -0.21599675498941143
000320 7f ec 2f 3c 43 b9 b5 bf 0d 87 4a 5d e5 12 b2 3f
       -0.08485813350118752 0.07060082938781083
000330 cf 40 f4 ec 99 0f a9 bf 68 bd ce 2b 2c 2e c5 bf
       -0.048947153258383495 -0.16547157420198322
000340 1a 7e 09 bd 0c 94 bd 3f ca 35 a2 65 69 3c c2 bf
       0.11554031005061241 -0.14246861898975133
000350 a8 14 08 76 1d fd cf bf 19 93 d1 7a a4 16 bb bf
       -0.24991195929775256 -0.10581424711706368
000360 da e0 9f 3d 97 9c c9 bf f5 62 df 31 d4 59 b4 bf
       -0.20009127148637768 -0.0794956800231253
000370 8d 04 88 1a 50 e3 cc 3f fa 89 86 03 d9 c1 b0 3f
       0.22568703933214743 0.06545788131783317
000380 ce 34 9e a2 fb 47 c2 3f 02 e3 ae 03 0a d9 c1 bf
       0.14282174530345632 -0.1394360082611215
000390 ed 44 20 cb 82 bc cb bf 3b 10 c7 2c 3b d8 a6 bf
       -0.21669039648308033 -0.04461846276856859
0003a0 62 f9 9c f3 58 7e b2 3f cf 29 fa be a2 da c4 bf
       0.0722404093512288 -0.16292223286684623
0003b0 7f 1a 84 20 9e 54 c2 bf 5c 0e 7d d3 84 64 ae bf
       -0.14320732677170508 -0.05936064798018201
0003c0 80 8e e7 68 da 6d a6 bf 09 50 e9 cc cb f4 b7 bf
       -0.043806863122680006 -0.09357904198378732
0003d0 cd 1a 82 9a 9b 89 99 bf 48 f8 53 09 c8 a9 af bf
       -0.024938994698937834 -0.06184220422618175
0003e0 94 3e 1d 42 df c0 c3 bf 49 c1 85 12 1b 31 be bf
       -0.15432348945841012 -0.1179367943020725
0003f0 28 0e fc 3e 7d 81 ae bf 69 eb 96 2e f2 e5 bf bf
       -0.059581674517201144 -0.1246024478668183
000400 43 d2 59 4e 54 ac c9 3f 52 c1 92 94 c0 2b 85 3f
       0.20057157350278673 0.010337357076736584
000410 60 e0 d4 41 26 c2 c7 3f ab 8e 2f ab 31 3d a8 3f
       0.18561247076445664 0.047341873308849834
000420 a8 82 c4 0e 88 0f ca bf 45 d7 7f b4 ec df bd 3f
       -0.20359898301196222 0.11669806868289097
000430 a8 05 37 5c 7d 27 ca bf bc f7 ab 77 a9 9e 91 3f
       -0.2043301296489919 0.01720680993002309
000440 b5 aa d0 88 5c 5f d0 bf bc cf 31 d1 9f 6f b5 bf
       -0.255820401772023 -0.08373450143136457
000450 c1 79 08 12 73 2a a2 bf 58 08 73 de 88 87 a2 bf
       -0.035480113936717135 -0.03619029727407569
000460 e3 7c 86 4d 33 99 b3 3f 00 92 d8 e3 39 e4 c0 bf
       0.07655640261372158 -0.13196490884105572
000470 fb 0d c6 bf ea df bb 3f 40 cf 84 1c 44 a3 c1 bf
       0.1088854520985975 -0.1377949847461597
000480 c8 c7 a2 bc d1 00 63 3f ef e1 19 3a 84 e7 a1 3f
       0.002319726602842718 0.034969455807132614
000490 05 c0 e9 0a 2b 48 c0 3f e3 e1 9e 9d 8f 56 b9 3f
       0.12720239670625247 0.09897706602249161
0004a0 d4 42 0b a7 66 16 cc 3f 28 24 d6 34 35 bb c4 bf
       0.21943362385220289 -0.16196312980562877
0004b0 95 29 db 98 76 df b4 3f 48 d6 d0 c7 f8 e8 b0 bf
       0.0815347788986059 -0.06605486753763856
0004c0 22 be 1a c0 d0 ac b2 3f 1d 6f f8 3a ae 2b be bf
       0.07294945421266921 -0.11785401286800519
0004d0 7b 04 43 88 6d 3f cd 3f 1f e9 5a e3 7f 77 ba bf
       0.22849816468627523 -0.10338591862356282
0004e0 9d 1d ee ab 1e 45 b6 3f 5a 90 21 90 4b 90 af 3f
       0.08699218461526077 0.0616477597657485
0004f0 ee 1d ae 45 1f 57 c4 3f 12 1c 51 7b 01 a2 b5 bf
       0.15890875723219672 -0.08450326214470774
000500 79 45 94 76 44 d5 c4 3f 6f 92 aa 17 24 46 b0 3f
       0.16275840559005042 0.06357026651182605
000510 fe e3 ab df 74 f7 7e 3f c1 80 57 49 bb ea ca bf
       0.00756021169467491 -0.2102884395708369
000520 31 0d 92 bd 8e 15 b6 3f 28 cc 4b 9f ef 02 8a 3f
       0.08626644256769535 0.012700912522154509
000530 d4 ce 0e 04 f9 33 b2 bf 95 dd 50 a7 c7 1d c1 3f
       -0.07110554074352687 0.13372131032677417
000540 7c 7e c9 4e b1 51 c7 3f 9e 08 11 79 cf de c6 bf
       0.1821805605604715 -0.17867463504268682
000550 2b 40 cf de 19 8a b7 bf 6f b1 d2 9a 2c 1d a1 3f
       -0.09195100488364065 0.033425706767363
000560 8a f5 0c 63 6d 3e bf 3f 4f c4 5d 29 e5 76 c3 bf
       0.1220463148901755 -0.15206589240873078
000570 1a 8b 9d e3 b1 8b c1 bf 77 3a 47 a7 e7 aa b6 bf
       -0.13707564939530742 -0.08854530176106744
000580 86 e5 c9 02 03 2c ca bf dc 03 0c b0 87 21 b6 3f
       -0.20446813236393896 0.08644912765522811
000590 87 b0 24 56 01 f7 c5 3f c3 0b b1 63 c5 10 c8 bf
       0.17160050111977318 -0.18801181190255364
0005a0 ab b7 cd 1f 16 3e c7 3f a5 35 78 1c 52 c9 ac 3f
       0.1815822272578179 0.056223455405511026

rnns.0.weight_hh f8 [91, 91]
000000 cf 6f 0e bd a0 52 9d 3f 0a b1 af 86 bb 0a 83 bf
       0.028635512866102716 -0.009297814414786849
000010 86 4f 14 bc 56 e6 b7 3f 1c 5e 48 d0 2f 78 a4 3f
       0.09335844127445911 0.03997945230019814
000020 68 89 f5 4b 8d e8 8a 3f 59 ee b0 97 40 73 92 bf
       0.013138870125378246 -0.01801777768944954
000030 4d 15 d9 21 b4 0a b8 bf a7 cd d0 c7 b9 2c 82 3f
       -0.09391332460753184 0.008874370012654632
000040 0d 2a 72 3b 6b 70 b1 bf d5 ab 7e f9 51 4d 91 bf
       -0.06812162591283073 -0.016896515706019095
000050 53 b2 82 aa 1f 82 aa 3f cc 89 d5 f9 cf 73 c3 3f
       0.05177401501109515 0.1519718141453964
000060 73 4d 80 7a 33 a3 73 bf 22 3b d4 f5 4d f7 98 bf
       -0.004794312561006253 -0.024380891923153965
000070 74 4d 99 ec 98 1c 93 bf e4 89 ce 10 4e 6c 74 3f
       -0.018663777771803905 0.004986100143386161
000080 fa c5 76 1c a2 10 8f 3f 78 8d 13 5e 81 54 b1 3f
       0.01516844415059192 0.06769569918428953
000090 a0 b4 2a 74 e2 16 ba bf 42 6f e3 cf e5 06 a6 bf
       -0.10191169105628939 -0.04302137530041118
0000a0 9c 0a a4 3b 7c 51 be 3f 2d f7 08 be de 78 a6 3f
       0.11843086677621745 0.04389091558230827
0000b0 e6 0d e9 d7 09 a0 a7 3f 39 9f 9d a7 23 c3 a5 bf
       0.0461428714811765 -0.042504419527914235
0000c0 ae e3 83 25 8f a0 b6 bf af 9f 8a 37 a3 bc c3 bf
       -0.08838743844888938 -0.15419426166522274
0000d0 49 5a cd c7 7f f8 b3 bf 78 94 10 81 95 12 ad 3f
       -0.07801054599745173 0.05678240967271447
0000e0 bf a5 b8 56 7e 15 a1 3f fc 7c 89 0b 7a 35 ab 3f
       0.033367107473462713 0.05314237013657849
0000f0 b8 f5 27 75 81 c4 c0 bf d1 d8 b6 7e 96 45 b3 bf
       -0.1309968778659092 -0.07528057664498823
000100 ce 22 d8 12 f8 2f 94 bf e4 44 8f 0f 38 74 b6 3f
       -0.019714237356341972 0.08771086101411957
000110 46 74 23 2c 27 e8 6a bf e8 9a 34 5a cb dd ae bf
       -0.003284527310013749 -0.06028590656415195
000120 c0 f9 17 f1 de 7a a5 3f 05 52 ac f5 cb a6 bb bf
       0.04195305531537796 -0.10801386592749658
000130 b5 94 90 e0 46 be ae bf 4a 8b 3f 05 a8 59 ae 3f
       -0.0600454472662845 0.0592777735144155
000140 39 c0 34 8a 48 e2 b4 bf a1 3f 5e 52 1a 37 b6 bf
       -0.08157781004115429 -0.086778302297033
000150 13 c2 14 40 64 0d c2 bf 99 23 07 3c d8 49 b7 3f
       -0.14103367928466123 0.09097053018116553
000160 8f 6d 41 ae 8a e2 c0 3f 6d d0 58 83 6b 1a b7 3f
       0.13191350468228477 0.0902468867942063
000170 51 be 13 e4 e3 c3 b2 bf 38 f8 c1 30 69 1b b7 bf
       -0.0733015472248948 -0.09026200714467414
000180 83 db 2c ea ac e0 b8 bf a4 db e0 46 76 51 ae 3f
       -0.09717827527206961 0.05921525588239909
000190 61 28 66 bd 02 69 a3 3f f7 ec 90 4f 26 2d b4 3f
       0.03791054307937781 0.07881392900974392
0001a0 76 ad 7f f9 0f 29 b1 3f c5 33 40 db 7e a8 70 3f
       0.06703281251218648 0.004066939862252765
0001b0 1b 71 13 b0 f4 c5 8f bf ba 56 58 cc 59 a9 c3 bf
       -0.015514289496814151 -0.15360567548548493
0001c0 81 2c 5a 5a b2 37 b7 bf bf 48 ae ad b7 b8 bc bf
       -0.09069361406197808 -0.11219356527570577
0001d0 f6 21 9b ad d5 75 b4 3f fd 41 08 6a c0 f0 b1 bf
       0.07992301453044334 -0.0700798281543555
0001e0 59 98 c1 15 bc fd 85 bf 71 7d 40 4b f3 1e bd bf
       -0.01073786679644344 -0.11375351512150701
0001f0 c1 0d f3 0f ff 82 84 3f 4a 72 53 9b 79 87 b2 bf
       0.010015480684507307 -0.07237968485009919
000200 8b 85 a2 a7 29 f3 b4 bf d0 8d e2 17 bf 07 a7 3f
       -0.08183536856315336 0.04498097578587201
000210 0f 8a ae af 3b ba bb bf 91 e9 c7 04 d7 33 97 3f
       -0.10831044234377195 0.022658691088489006
000220 ed b2 4c 7b b7 68 71 bf 3c 5a ab 2d e6 ec be bf
       -0.004250256276276271 -0.12080229392027148
000230 4e be 65 73 8b 42 a4 bf c9 bc 3c 17 a7 2b b7 bf
       -0.03957019599590393 -0.09050983731571018
000240 c2 33 09 ca 00 ca 8a 3f 79 b3 80 8c d9 6f b9 bf
       0.013080602803848044 -0.09936294250719681
000250 b8 65 64 31 b6 01 c4 3f 71 2d a2 40 13 b1 c3 bf
       0.15630223666884802 -0.15384140640194802
000260 28 66 f9 fb 06 fa a3 3f 7b ad 84 db 3a fb a0 3f
       0.03901693178040616 0.03316673211733253
000270 d2 47 92 e2 e5 46 a7 3f 8a ce fd 82 0e ae bc bf
       0.04546278372539771 -0.11203089426072146
000280 6d 98 d9 9d 0e ea a2 3f 35 69 c9 59 ea 9f a2 bf
       0.03694196392898239 -0.036376307926462216
000290 ac 31 50 08 6e 09 9e 3f 32 37 a1 31 a9 48 be 3f
       0.029332846887017247 0.11829621755279332
0002a0 dc c3 4c cd 0a e1 76 3f e3 8e d9 05 36 63 60 bf
       0.005585710711600602 -0.0020004325040633305
0002b0 c1 ea c4 e3 e6 39 ae bf 4c c9 a8 67 91 b6 bf bf
       -0.05903550653825596 -0.12387951641793399
0002c0 cd 1d 71 16 6c c7 bc 3f 03 b2 08 4e 88 b6 bd bf
       0.11241794155022618 -0.11606647400976304
0002d0 fa 47 89 f7 f2 e7 b9 3f 84 c0 13 e4 d3 99 b7 3f
       0.10119551223149861 0.09219097440996121
0002e0 e2 f4 af d2 9b ac bf 3f e5 e2 b7 7a de c9 91 bf
       0.12372754949315692 -0.017371631851321196
0002f0 cf 94 4f 64 a7 60 bb bf 9f b4 c7 33 07 4e aa 3f
       -0.10694357108112061 0.0513765574176912
000300 48 2a ca cb 2c 94 b0 3f af ac 3f 67 24 ac c0 bf
       0.06476097083410892 -0.13025336305085974
000310 d1 04 b9 0c f1 de 85 3f 85 b0 b0 13 ce 10 bb bf
       0.010679133606688403 -0.10572517376630415
000320 01 dd db 2e 06 14 94 bf 5b 5f ac 52 89 23 ac bf
       -0.01960763607982319 -0.054958621351203184
000330 bb 15 4a 49 6d e2 a1 bf 70 47 ea 9d de 86 a7 bf
       -0.03493062514921116 -0.045950848366500874
000340 9a 1a 0a a8 84 f9 b7 bf f5 82 b3 9f f1 7c b8 3f
       -0.09365109541441044 0.09565649174647801
000350 5f 16 e6 b0 01 2c c1 3f 34 bc 9f 29 d5 62 a0 bf
       0.13415547502170264 -0.03200403340439842
000360 43 5d fe 01 da b1 79 3f ef 75 fd dc 97 f6 b9 bf
       0.006273128121299823 -0.10141896386399883
000370 fc e4 9e aa 31 8c b8 bf fb 5f 99 4a ae 65 b8 bf
       -0.0958891908220671 -0.09530152627246473
000380 d9 b9 53 a1 1b c1 99 3f 27 54 75 2d 76 3c ab bf
       0.025150710794088347 -0.053195660637961155
000390 32 cb 8d 22 e6 00 b4 bf 5c 68 16 b9 a5 54 8f 3f
       -0.07813871711350087 0.015298170767710832
0003a0 a1 04 78 90 0d cf 96 bf fc 24 4c 6b 5a 3a ad bf
       -0.02227421945827202 -0.057085824582893324
0003b0 65 50 a4 9f bd c5 a4 3f 05 da 48 d4 0d e9 97 bf
       0.04057114194634507 -0.023349968034574804
0003c0 9f 63 5b a1 37 3a a6 bf 18 e4 94 b8 b0 2f b0 bf
       -0.04341291279496961 -0.06322769647967197
0003d0 3c 6d 61 8c 82 7b b4 bf 86 90 42 a6 72 45 b5 3f
       -0.08000961234340748 0.08309094008524384
0003e0 e8 37 8c d0 b3 88 b0 bf 9c 05 cc c3 6d b4 8a 3f
       -0.06458591310021655 0.01303945306563286
0003f0 ca 30 6e 8a 8c a3 b0 bf 6d c5 16 5e 8d ce a2 3f
       -0.06499555949830263 0.03673211835428956
000400 99 5e 65 cd 39 28 c5 3f 2e e0 41 e5 d1 e5 a0 3f
       0.16529009369945838 0.03300338672210078
000410 a2 f8 e6 56 88 cf b9 bf a0 0b a5 45 02 9e a6 3f
       -0.10082294580112941 0.044174262048293444
000420 94 30 97 62 16 43 b5 3f 5a 20 bd 6f 8c 86 9c 3f
       0.08305492312428192 0.02785701210021361
000430 e5 11 3e 67 be a5 b0 3f 43 52 d4 00 53 ec c2 3f
       0.06502904911582837 0.14783704319474297
000440 af 2b 66 d1 c6 2e 76 bf 08 b3 a8 59 13 a8 97 3f
       -0.005415703423191794 0.023102094981527294
000450 98 20 ff 0b 8b 24 b3 bf ed 82 a8 06 c0 de 90 bf
       -0.0747763542450478 -0.016474724203478997
000460 8d a0 43 41 84 f7 b4 3f df ac de e2 c5 49 a9 3f
       0.08190180390704623 0.04939096826941535
000470 69 ae 08 2b 7a bc a4 bf 76 05 3f 33 9c 0b b2 bf
       -0.04050046706501293 -0.07048965693595285
000480 62 27 21 29 1e 75 b6 bf be 93 ed 24 e6 0b c0 bf
       -0.08772457603586539 -0.12536312869192828
000490 3e 54 d2 5e 8b 1b c1 bf 72 be 09 fd 80 0b 6e 3f
       -0.13365308885536992 0.0036675948434135514
0004a0 ac 69 1f 37 11 1b b5 3f fd 5e a6 df 33 33 aa 3f
       0.08244426341790384 0.05117189507580908
0004b0 d4 45 60 cf aa 2a ba bf e1 24 46 01 48 92 b7 bf
       -0.10221355021373962 -0.09207582503417512
0004c0 7a a5 3d 64 24 92 ac 3f 26 f9 b5 ef e3 34 a6 bf
       0.055802476154734174 -0.04337227154882077
0004d0 25 f4 4b 8a 7e ce 9f bf 68 0e 47 71 a5 0d a5 3f
       -0.03106115073295625 0.04111973769934424
0004e0 d0 6a f9 d6 0b 1f af bf 49 42 c0 8c a3 8a a3 bf
       -0.06078373908231571 -0.03816710560943599
0004f0 95 7f c9 26 d6 b6 91 bf 2d 59 43 9a 45 35 8b bf
       -0.017299028508545772 -0.01328520180724676
000500 2f cc 86 15 cb 20 b6 bf 48 4d f5 4f 85 f4 b6 bf
       -0.08643788600493062 -0.08966859056572674
000510 9f db 6b b0 b4 7a ba bf 2b 41 cf b6 18 8e 8a bf
       -0.10343484217797404 -0.01296634014025296
000520 2b ca 71 f7 7d 6b b3 3f 33 cf 4d c8 8f ff a5 bf
       0.07585894862294455 -0.04296540565601816
000530 bc d5 0e 1d 53 59 b5 bf b7 d6 7e 0c 29 de 9a 3f
       -0.08339423617765979 0.026238099467909417
000540 b3 5e 3f 87 8e 69 95 3f bd 0a 94 bc e0 8e b1 3f
       0.020910479550223026 0.06858639339410906
000550 5f af 84 c2 73 5a b1 3f c1 f4 3d 6e bc 31 a4 3f
       0.06778644083959538 0.039441956002499896
000560 28 b4 bf bc 3e fe bd bf e8 59 59 4b 38 28 94 3f
       -0.11716072185636561 0.019684676741542534
000570 04 25 50 7f 62 f8 b0 3f 78 7f 50 85 cf f2 88 bf
       0.06629005058507081 -0.012181874519285193
000580 9e 04 95 80 ec 68 af bf f9 f0 8b f1 91 a1 b5 3f
       -0.06134738034826025 0.08449661395201592
000590 e5 cc d6 50 24 a2 b5 bf c8 d5 54 39 0b 1f b0 bf
       -0.0845053384171482 -0.06297369146053378
0005a0 5c 48 5b 3b 63 b4 bb bf ce da 9d 0d 37 a2 a0 3f
       -0.10822124671111183 0.032487602626977016
0005b0 b2 44 49 bb 4b 15 9d 3f 33 ca c4 6d 4f 12 81 3f
       0.028401549631159546 0.008335705315947716
0005c0 08 32 c6 ba e8 bf 9e 3f 42 4d f0 95 b3 81 b9 bf
       0.030028950118820702 -0.0996353379307964
0005d0 f9 f0 76 03 b8 12 ad bf a2 e2 d9 f7 d6 da a9 3f
       -0.05678343813221604 0.050497739558470714
0005e0 0c 4c 9c 65 b0 8c c0 3f 57 58 b0 70 1f 49 b4 3f
       0.12929348908855365 0.07924076558296754
0005f0 a2 b2 2d a7 2e 52 a4 bf 51 23 59 ce 97 67 84 bf
       -0.039689500720532025 -0.00996321295237271
000600 fe 03 3c 01 58 ca bc bf b1 03 be fc 98 eb bb bf
       -0.11246252088677974 -0.10906368418183267
000610 5b d7 84 b9 de 52 8e 3f e2 64 c9 4e 0a a6 90 3f
       0.014806499516094076 0.01625839334369495
000620 c2 55 75 19 1a f3 b2 3f 3c 44 6a 21 5f 7b b2 bf
       0.0740219413904333 -0.07219500127600126
000630 ff c1 a4 d2 70 96 bc 3f 7c 3b d9 3f fb ad c1 bf
       0.11167054312387135 -0.1381219922791067
000640 f3 4b fc dc a4 77 60 bf 94 79 cf 7a 4b 08 c0 3f
       -0.0020101757035120237 0.12525313850978803
000650 b6 68 c6 78 44 97 a8 3f 9d 86 b1 16 97 b6 af 3f
       0.04802907919220571 0.061939927597234525
000660 fa da 52 12 0a 73 b4 bf 1f a3 87 49 3b 6b 88 bf
       -0.07988036105494337 -0.011923278027965943
000670 82 ab f0 bf 70 bf be 3f 16 e2 25 66 11 a5 78 3f
       0.12010864912069333 0.006016796078590866
000680 c3 33 78 b7 6a 6b a2 bf 21 02 1b 0b 6c ee a5 bf
       -0.03597577561968237 -0.04283464084210587
000690 4c fa 07 2f c7 48 ad 3f 2b 30 0b 9f f0 c3 a4 3f
       0.057195877543553125 0.04055740300609075
0006a0 4e 30 bd ec 55 7e aa 3f df 44 c8 46 19 c9 b2 bf
       0.05174511446838946 -0.07338102319797056
0006b0 a1 ff 19 c0 fe 60 b8 bf cf e3 39 bc 81 9a 92 3f
       -0.09523002805690207 0.018167521584903142
0006c0 a6 79 71 03 44 75 a2 3f d1 6a e8 8a 68 00 96 bf
       0.03605091611892712 -0.02148593280626693
0006d0 fd 6b 77 3a f6 51 a0 3f 4b 4f fe b0 1e 79 b5 3f
       0.03187531913473405 0.0838793928253924
0006e0 03 c1 52 27 95 35 7a 3f e8 f1 50 89 57 98 81 3f
       0.0063987566292527135 0.00859135043912658
0006f0 23 88 84 69 3f aa 82 bf 8a 09 77 9a 85 d4 b0 bf
       -0.009113784225125049 -0.06574282666318801
000700 e2 03 ca 9c 88 4f bc bf 4d ae 52 56 bb d1 af bf
       -0.11058858707293909 -0.06214700154063433
000710 b6 34 99 68 26 e9 b4 bf 17 90 e3 b8 a5 f9 9c 3f
       -0.08168258718179086 0.02829607907268902
000720 e7 db 74 43 9e a9 93 bf 09 ce 01 f1 2f 89 b5 bf
       -0.019201729647843193 -0.08412456163369354
000730 d9 83 4e 11 08 85 c1 3f fe 92 fb 12 eb 90 a8 3f
       0.1368722996240013 0.0479806385681396
000740 77 29 b5 70 66 53 b7 3f 83 14 00 7b cf a0 b5 bf
       0.09111633540775253 -0.08448502304971055
000750 6d c9 be f9 f8 0d a3 bf c3 8d 2b 81 13 a4 57 3f
       -0.037215977179033334 0.0014429274057697762
000760 45 ef ba 1b 21 e2 bd bf 80 dc 62 9b 1e ef a0 bf
       -0.11673170973784604 -0.03307433745197219
000770 76 f9 dc 55 35 fb 89 3f 54 4f 03 7b 0c fb 96 bf
       0.01268617313655505 -0.022442049987901072
000780 de 32 c4 49 ff 0e a4 bf 75 09 ca 36 03 d8 b5 3f
       -0.039176919703185695 0.08532734000804061
000790 46 c1 a7 1d 85 b6 b3 3f 19 b1 8d 4b 19 ba a1 3f
       0.07700378393179105 0.034622946236455295
0007a0 ca be 73 66 90 af 64 bf 2d 79 91 dc 30 e0 b9 bf
       -0.002525121719024391 -0.10107713112799806
0007b0 51 48 25 f5 e8 59 93 bf 8e 86 21 06 c6 b2 b2 3f
       -0.018897666895391577 0.07304036760026575
0007c0 b2 9a 37 61 23 cc a4 3f c5 3b 77 04 8c 77 a0 bf
       0.040619950883230685 -0.03216207079423542
0007d0 da 0c f2 a8 24 6f b2 bf 37 33 6a 82 bf 65 b7 3f
       -0.07200841068884092 0.09139630254703666
0007e0 2e e8 d3 f4 50 97 a2 bf 03 0c 59 e8 59 89 ae 3f
       -0.036310701261712416 0.05964165650632227
0007f0 0b 74 d1 21 cb ec b3 bf 3c b4 48 71 b2 ca 98 3f
       -0.0778319318355473 0.024210727848345423

rnns.0.bias_ih f8 [91]
000000 a2 64 72 ad af 15 b1 bf 48 64 58 b9 21 27 b0 3f
       -0.06673715576688946 0.06309710288077597
000010 f9 45 44 db 2b 8c b3 bf 96 f5 55 54 51 f3 98 bf
       -0.07635759452048053 -0.02436568333859198
000020 aa 69 b2 d8 71 76 7d 3f d3 f7 1c ca 62 6b a4 bf
       0.007193035805494944 -0.0398817893715059
000030 eb ab 03 e9 92 d5 97 bf 52 c7 24 6a 36 30 a7 3f
       -0.023275657150332234 0.04528970761965802
000040 1e 22 2e 63 b0 11 a0 bf 84 5c 27 78 ee 93 a2 3f
       -0.03138495646186733 0.03628487793656013
000050 a2 26 c2 00 47 f6 af 3f e8 ad ac 63 70 31 9e bf
       0.06242582210786664 -0.0294854698978905
000060 6f 7a 6f 49 53 bf a2 bf 9b 71 bd 74 fd 58 b6 3f
       -0.036615946497239864 0.08729538059328094
000070 6b 4b 88 07 c3 2f 9d 3f 7d 55 71 69 2c 5f ab 3f
       0.028502509436360606 0.05346049105780091
000080 dd ee 61 a0 bc a7 97 bf f9 17 4b b4 03 57 b8 3f
       -0.023100802697156964 0.09507773544018495
000090 fb a9 45 83 bc 96 a9 3f 59 96 fa f0 99 81 91 bf
       0.04997815229838306 -0.017095952351743857
0000a0 5d b7 11 14 b7 39 b0 bf 49 db 8d 51 bd cd 72 3f
       -0.06338066329928212 0.004590739751498437
0000b0 84 3a 02 1f 41 b5 b8 bf 9d 45 4c 13 de 7b a4 bf
       -0.09651572234199973 -0.04000753388948939
0000c0 a0 fb ae 40 54 2e 9a 3f 16 d6 39 b3 9b 45 9f 3f
       0.02556735653683584 0.03053897172363492
0000d0 88 58 cd 6a 51 c8 b0 3f 53 69 af 11 7d 24 b1 bf
       0.06555661065553597 -0.06696302110450363
0000e0 a7 29 63 33 c4 89 ae 3f 62 bf 68 37 80 dd b4 bf
       0.05964482428824463 -0.08150483467829653
0000f0 ee fa d1 84 4b ce a2 bf 51 a8 03 c7 8a f2 af 3f
       -0.036730155909926995 0.06239732436536428
000100 c6 22 a0 2e d4 05 52 bf f6 3e 73 6d 25 9a 99 3f
       -0.0011000225154040185 0.025002083592709355
000110 e2 1e 9e 43 8d 84 83 3f ec 3a 40 15 d4 7d b2 bf
       0.009530166269328292 -0.07223248976536539
000120 70 0f 87 54 d9 bd 9d bf 47 93 9b 1b dc 8f ae 3f
       -0.029044528755334864 0.05969131314285519
000130 e5 53 17 9c f7 d1 b0 3f 3a 1a e4 eb e4 ae af 3f
       0.06570384560411886 0.06188121203927151
000140 90 01 00 c5 89 8a 41 bf ee ec 92 14 4d 89 b5 3f
       -0.0005353138640203248 0.08412629844945105
000150 cd f8 6a 86 65 a6 8d 3f fb 09 21 eb 41 d4 96 bf
       0.01447753254376174 -0.02229407308210261
000160 7d 57 36 9d ef 2f 64 3f a1 61 26 c9 3a 1a a2 bf
       0.002464263912496044 -0.0353563662094445
000170 f1 2a 42 f3 65 72 14 3f ff 0d 36 04 60 64 81 3f
       7.799861197292278e-05 0.008492231491579181
000180 54 2a 56 ca 53 6d a8 3f fa 95 a8 1d 96 61 79 bf
       0.0477091011517429 -0.006196581258824713
000190 59 ce ad bb cb ca 97 bf 80 67 41 48 d1 93 a7 3f
       -0.02323454220773011 0.04604963309311838
0001a0 51 ee 6e f7 31 03 b1 bf 22 c0 52 51 a3 d0 b1 3f
       -0.06645500460484156 0.06958981261664168
0001b0 41 8b 5f 4d 38 03 be 3f 53 4b 16 6d 81 43 84 3f
       0.11723663224215121 0.009894381658147522
0001c0 3b 44 f2 f1 91 cb 97 bf 33 f1 6a 2f b1 88 93 3f
       -0.023237495796426293 0.01907612659373221
0001d0 b0 27 50 62 40 bf a0 3f f8 06 2c f2 27 4c a4 bf
       0.03270913314925339 -0.039643524467477265
0001e0 f0 ed da 6f 5b 1c 95 bf ad d9 14 8d 44 91 a3 bf
       -0.020615986539935294 -0.03821768018899561
0001f0 c6 28 ad 21 47 19 bb bf d3 a5 a4 3b ca ea a8 bf
       -0.10585445949724023 -0.04866630533281193
000200 2e 96 aa 44 74 00 b7 bf dd 1c 35 de 2c bc b0 3f
       -0.08985068012642536 0.06537132668482877
000210 39 d1 74 5b ab b8 b2 3f b6 68 4f 74 97 13 a0 bf
       0.07313033087558986 -0.03139947218706267
000220 e4 6e 98 46 bd f3 a3 bf 93 e2 fc 99 b9 03 bd 3f
       -0.03896895872841613 0.11333808907955704
000230 2e a0 96 c7 50 db 83 3f d0 8c c3 c7 5e d9 9f 3f
       0.009695654955820112 0.031102639143580302
000240 b3 d0 a3 5d f3 10 89 3f 5d 8a 93 d7 94 41 af bf
       0.01223936204448992 -0.061047221484632465
000250 d7 72 31 a0 4d 81 b4 bf 48 76 c6 a8 2f 08 af 3f
       -0.08009801064458642 0.060609330513426374
000260 c7 bc 65 c4 36 ee b8 bf 36 f4 d4 ff 07 97 ba bf
       -0.09738485617502866 -0.10386705394644555
000270 8f 15 66 90 75 bc 52 bf ed a7 c2 b3 b0 41 a6 bf
       -0.001143564995431976 -0.043469926780133374
000280 eb 24 75 35 f0 b7 8f bf 27 d8 41 79 4a b7 af 3f
       -0.015487553244968718 0.06194527368727192
000290 fd fc 9e e2 09 ca b0 bf c1 5a ad 73 29 43 aa bf
       -0.0655828645967524 -0.05129365479540616
0002a0 d0 8e 5b 7c 44 ee af bf 36 8b 50 0a ad af 9e bf
       -0.062364711933495465 -0.029967025522761058
0002b0 04 ca 1e 0c 54 ef 89 bf 10 7a a8 72 d8 2e bb 3f
       -0.012663513774758613 0.10618355559606862
0002c0 2c a8 48 9c 6a 8e 89 3f cf 8d e9 bc ac 68 95 3f
       0.012478669065860336 0.02090711501149461
0002d0 16 65 05 e1 2a 30 ad bf
       -0.057008113830940996

rnns.0.bias_hh f8 [91]
000000 fd 91 c9 15 1b 62 99 bf e8 9b a7 46 76 7b b4 bf
       -0.024788306431576135 -0.08000888085335556
000010 44 d2 dd 85 60 5d 89 3f 2f 05 d5 25 c7 77 a4 3f
       0.012385133824616486 0.0399763330156112
000020 e1 b2 e9 f4 4e be ae bf ed 83 f1 02 4c fd b5 3f
       -0.06004568805369615 0.08589625427113363
000030 9c a8 f8 b9 cc 9e 80 3f 7a 8e 49 54 02 85 9b 3f
       0.008115386414903995 0.026874576944818852
000040 ca dd d1 3c df a9 ad 3f 59 ae 13 40 4e 5b b1 3f
       0.05793664567402919 0.06779946388604098
000050 42 4d 84 b1 6b 21 98 3f 61 d4 14 67 f1 b4 b3 3f
       0.023564989766851292 0.07697972075114158
000060 b7 42 48 9b 04 ca bb 3f 6d 8e 42 6b ed 57 b0 bf
       0.1085512999636745 -0.06384166592266079
000070 5c d2 de a1 bf 73 7a bf 63 55 71 49 46 6c a2 3f
       -0.006458042682358025 0.03598231932179876
000080 6e f7 30 50 e5 fb a1 bf 07 e8 b4 6b 0d b4 b6 bf
       -0.035124937094663675 -0.08868488196904432
000090 e4 2a 5d 5e 8d cf b2 bf 05 4b 7d 38 11 9d a5 bf
       -0.07347949556166672 -0.04221395315712154
0000a0 2b 91 dc f7 e3 3a a1 3f 6b bb 31 1a c7 ae a9 3f
       0.033652423864881285 0.05016157336000656
0000b0 fa ea 08 9c 8f 7f 95 bf cd 22 a6 09 1c e9 b3 bf
       -0.020994419001207888 -0.07777571902819176
0000c0 89 f7 5d e1 92 18 81 3f bc ea 9c e1 c7 f5 a9 3f
       0.008347651960999307 0.05070328358711637
0000d0 c5 9d ca d4 bc f0 95 bf 46 b5 84 72 47 b0 8a 3f
       -0.021426153648148167 0.013031538183521218
0000e0 11 6b 4e 46 f7 46 b2 bf 6a 05 ba c4 d2 68 87 3f
       -0.07139535395110054 0.01143040335523678
0000f0 89 02 97 8d 7d 8c b7 3f 7d a8 03 a7 5d ce a6 3f
       0.09198746401581039 0.04454319633244184
000100 c1 fb 2b 1a 06 e1 82 3f b3 cf 5c 63 d2 7f b8 3f
       0.009218261407566321 0.09570040632098546
000110 83 0f cf f1 8c 63 93 3f ec 3a 40 75 d8 72 b7 bf
       0.018934442766990422 -0.09159615385599879
000120 32 78 bc 91 37 db a9 3f a0 c9 cd 9d 50 0f bc 3f
       0.05050061849600275 0.10960868694909331
000130 33 a8 2e b8 6b f6 a5 3f 25 0d f2 15 9e e3 b2 3f
       0.04289566634481936 0.07378566776064995
000140 4a 00 ec 60 c5 9a ae 3f c6 d9 25 89 fe 1a aa 3f
       0.05977455909851466 0.05098720001381056
000150 2d be 9a 81 40 59 a7 3f 8d 42 c8 36 c3 50 bb bf
       0.04560281354985949 -0.10670108878572133
000160 92 a1 26 0b c2 21 49 bf e3 30 93 1c 6f f4 b1 bf
       -0.0007669637182532876 -0.07013601729994749
000170 e9 db cb a0 9b c1 50 bf 29 3e 79 b1 ef 2b b4 bf
       -0.001022722225739287 -0.07879541476108244
000180 9c 56 a7 d6 f1 aa 8b bf 2c ed 4a 4c 0a 00 aa 3f
       -0.013509644854745866 0.05078155690486094
000190 c2 37 b7 ee b8 48 70 bf 36 31 7d 6f 07 56 9b bf
       -0.003975603477966718 -0.026695362262487886
0001a0 59 ee 6e 47 44 61 b3 bf 72 80 a5 f2 68 13 a1 3f
       -0.07570292228677412 0.03335121118539143
0001b0 39 e9 40 25 a7 dc ac bf 40 da 74 49 3f 22 9d bf
       -0.05637094812159877 -0.0284509552559149
0001c0 f5 dd 6d b0 00 ac 6d 3f ba 78 b5 db 00 81 ab 3f
       0.003622056337402086 0.053718592472010454
0001d0 00 ec d7 7e c3 3b bb bf fa f8 d3 3d bc 88 af 3f
       -0.1063806709934596 0.06159008269058748
0001e0 fb 76 ed d7 d5 3e a1 bf 8f 98 ac 2b 84 89 8b 3f
       -0.033682520492886746 0.013445885260420702
0001f0 9e 28 ad 61 79 68 b6 bf cf a5 a4 7b 8d ab ac bf
       -0.08753164896657714 -0.0559963429862581
000200 a3 b3 54 45 35 c9 80 bf b5 97 a3 c6 9d 79 6b 3f
       -0.00819627397376072 0.0033538896142201965
000210 4a d1 74 db 04 62 b9 3f ca 25 ec 42 44 b7 c1 3f
       0.09915190084285999 0.13840535419175942
000220 6a c8 b3 dc 37 cf be 3f 40 c5 f9 f3 b9 c2 ae 3f
       0.12034939897765332 0.060079394371209904
000230 fd a7 e5 61 86 eb ab 3f e1 8c c3 47 1b 42 9c 3f
       0.05453128762276547 0.0275959265280904
000240 c4 85 4b 5c cb 0e ba bf f4 75 6c 08 e2 db ab 3f
       -0.10178824427887095 0.054411948707848184
000250 4b 97 8b a1 04 fd 85 bf 12 13 73 ae 89 75 96 bf
       -0.010736499958010312 -0.02193274619345959
000260 e0 f2 96 11 fc 9a 99 bf ca 0b 2b c0 94 25 b1 3f
       -0.025005281995379103 0.066979691425373
000270 22 cf 7c 73 03 a9 a4 3f 3d 4f 85 17 8a 55 9a bf
       0.040351970527267036 -0.025716931996910154
000280 79 a4 ae 7e 3e 21 b3 bf a4 27 be e6 23 c4 a9 bf
       -0.07472601502253608 -0.050324556271405
000290 e8 05 c2 1a e2 34 ac 3f bf 5a ad 73 4c 99 ac bf
       0.055090966955514464 -0.055857075806377214
0002a0 8a c7 2d 7e 27 40 b1 bf a6 b7 08 a5 50 ef 52 bf
       -0.06738516645944351 -0.0011556899591016272
0002b0 be 9a f0 59 7b 77 99 3f 10 7a a8 f2 68 f7 b8 3f
       0.02486984955262516 0.09752517627973867
0002c0 1f 2a 12 0f a9 65 a4 3f 1a 70 4c e7 03 67 64 3f
       0.03983810719462987 0.002490527748149074
0002d0 84 b2 82 90 0f ec b6 bf
       -0.08953950193490284

rnns.1.weight_ih f8 [91, 91]
000000 35 15 00 16 37 ec 93 bf 70 78 22 fa 50 20 c0 bf
       -0.019455776899140537 -0.1259862157211873
000010 5f ad 43 2e ba 74 b7 bf e5 d3 1e c9 47 64 97 3f
       -0.09162486676693991 0.022843476915756517
000020 cb 57 49 03 20 7a bc bf ce e4 a7 55 a5 aa 9f bf
       -0.11123848037945476 -0.030924399712579036
000030 ba fb b4 65 44 0b 97 bf e0 f0 42 91 58 7a a5 3f
       -0.02250391836900765 0.04194905064784549
000040 38 03 6c 3f 66 94 b1 bf d8 13 fa d0 96 4a 93 bf
       -0.0686706452215845 -0.01883922243588984
000050 52 84 7e 85 6c 14 87 3f 86 20 a7 0c 2a 0e b6 bf
       0.011269424270553472 -0.08615362938792445
000060 99 9b 79 cd 24 66 c2 bf 34 0c 95 3f 04 59 b3 bf
       -0.14374218018494103 -0.07557703544903022
000070 2d 29 b8 93 8a d6 b3 bf c7 bd 10 4d d7 9c a7 3f
       -0.07749239069395193 0.046118477017781205
000080 1b 0a df 44 ad 9f 91 bf 3a 27 89 6d d2 6d c2 3f
       -0.017210681274955158 0.14397650097299125
000090 91 c4 3c 47 8b 0f b4 3f 68 e2 ee d6 17 65 95 bf
       0.078362183467805 -0.020893452161291043
0000a0 9f af d2 7f a8 47 92 3f 7a 7f 47 94 27 8c c4 3f
       0.017851479341217332 0.16052717914771703
0000b0 bf 16 5c 87 d6 89 bd bf 76 a3 3a d5 96 26 91 bf
       -0.11538449101143565 -0.016748768581837457
0000c0 d9 02 d7 2a 61 67 9b bf bf 6c 11 88 51 eb c0 3f
       -0.026761549224604806 0.1321813501734592
0000d0 cf 5c 4d a9 81 8a aa bf 42 ad 14 ee 0c 59 a3 3f
       -0.05183797065427031 0.03778877645739921
0000e0 21 88 e4 bf dd 7c b1 3f 06 aa 35 cc a6 27 b8 bf
       0.06831155714874672 -0.09435503469072878
0000f0 93 50 e8 08 73 c7 ac bf b1 2d fd e0 4d 1b b4 bf
       -0.056209177815760424 -0.07854162924666387
000100 dd 72 00 f9 d9 7f b2 3f d4 0f 29 92 65 7c 90 3f
       0.0722633583940921 0.01609953598587295
000110 10 61 46 41 5d 48 a4 3f 49 78 61 68 a9 cc 93 bf
       0.03961459562123271 -0.019335410114188076
000120 25 38 dd a3 3c 4e af 3f 87 a6 21 96 a7 89 71 bf
       0.06114377498907712 -0.004281668314527593
000130 6d 27 2c 2f ab 61 a4 3f 06 f6 41 78 56 be b8 bf
       0.03980765295825859 -0.09665432392099413
000140 6d 81 e0 0e d1 0b c1 3f 9b 1a b4 71 01 e1 97 bf
       0.1331731150285224 -0.023319265904343394
000150 5e 38 e5 7e a0 b0 c8 bf 3a 93 3b ab 1f 84 bc 3f
       -0.1928902263265994 0.11139104776846134
000160 3c 41 10 c9 cb 60 9a 3f 13 d6 a6 46 b2 63 98 bf
       0.025759872576658113 -0.02381781154845981
000170 3e aa 7e 06 ab 32 b4 3f e3 72 64 b9 05 b7 a9 3f
       0.07889813335956661 0.05022447479334404
000180 05 c2 dd 99 aa 7f 97 bf 1a 91 72 08 19 ae be 3f
       -0.022947946206331355 0.11984402137983743
000190 f6 62 93 5e d6 6e bf 3f e6 0e 8c fa 45 f1 a5 bf
       0.12278499421098474 -0.04285639460979755
0001a0 a8 a4 11 7b cc 36 81 3f d9 00 f0 07 78 71 97 bf
       0.008405301576390592 -0.022893786892382948
0001b0 05 d7 c6 1f fe a6 b3 bf 21 a7 78 d3 6c 0c 5e bf
       -0.07676685596274176 -0.0018340170626153856
0001c0 81 d8 3b 25 55 3f b5 bf c1 47 e3 33 3f e0 a2 bf
       -0.08299762877490659 -0.03686711796184695
0001d0 bd de d8 1f 7e 74 c2 3f 9d 64 41 2a 6e 40 c3 bf
       0.14418007426296767 -0.15040375769857386
0001e0 dd a7 aa f5 00 93 8f bf 5a 9e a6 52 c1 5e b7 bf
       -0.015417106148863208 -0.09128959911196813
0001f0 fb df 94 ff a1 3f bf 3f d7 60 d5 f4 bc 37 ab bf
       0.12206470956596142 -0.05315962303819937
000200 da c8 83 40 77 bb 90 bf 41 6e 14 85 c4 8f be 3f
       -0.016340125382108585 0.11938122033137068
000210 51 7b 48 3a 1c b4 82 3f 7c f1 71 82 de 81 b0 3f
       0.009132595566425346 0.06448164639181714
000220 aa ca df 00 0e 38 bc 3f 18 f0 a5 a0 d2 33 c4 bf
       0.11023032685606418 -0.15783150524282585
000230 ad 26 23 89 bd ab a0 3f 13 06 89 30 e7 47 a6 bf
       0.032560275068658974 -0.04351732699843693
000240 da b5 9e f1 cc b5 aa 3f 72 3b c2 13 0e 89 5a bf
       0.052168278212189015 -0.0016195905182347617
000250 88 ca e4 77 38 c2 bb 3f fc e6 39 fc a6 ac c4 bf
       0.10843232085316334 -0.16151892963153347
000260 41 90 33 a7 bc a1 b5 bf 1f df 31 8a bb 0d a0 3f
       -0.08449915964189449 0.031354771251186124
000270 b9 b6 4c 7c 99 1f a0 bf 00 5d cd 2e ab c6 b1 bf
       -0.03149108545617935 -0.06943769352561802
000280 dd 4d cc 62 1b 3d aa 3f e0 e4 d5 75 66 70 a2 3f
       0.05124745923071903 0.03601379574224395
000290 12 5b 9c 16 87 2c 3b bf e4 cd 99 cf 5f 00 b6 bf
       -0.0004146413617588811 -0.08594321077708106
0002a0 2a 2e 0c b3 ea fe c3 bf 69 a1 1d 9c 0c ca 93 bf
       -0.1562169431930312 -0.019325444248722876
0002b0 34 c4 cb 42 b5 ef b9 bf 5d 3e dc f8 d7 7a bc bf
       -0.1013139045787888 -0.11124944520656173
0002c0 c1 ca 0a 87 43 10 c8 bf 6c 1a cb 73 5e d6 a4 bf
       -0.18799633115630424 -0.0406980053281146
0002d0 8d d5 52 f1 6f e1 ad bf 67 f6 ed c7 a4 87 a3 3f
       -0.05836057492107747 0.038144254117452196
0002e0 7a 34 dd b4 a6 d3 ca 3f 23 1a 6c 01 e2 3a b5 bf
       0.20958408194784167 -0.08292973074649317
0002f0 c9 08 cf da b8 a7 af bf b6 c4 1d f5 8f 31 b1 3f
       -0.06182649298672655 0.06716251119884728
000300 9f 12 c8 ff e4 b4 b0 3f 05 2c 34 47 f9 17 b5 3f
       0.06526023144403802 0.08239706028341238
000310 fd e5 d2 0a 49 d2 bc bf ba 77 ba 72 ef 1e 79 bf
       -0.11258369936231101 -0.0061330178683913165
000320 d1 9b 89 2d 06 00 a0 3f b2 66 b8 1e 32 83 c2 3f
       0.03125018411520098 0.1446287775041149
000330 d3 7d d5 ca fd 97 c3 3f 14 0b 1b 7b 8f e0 c3 3f
       0.15307590869905016 0.15529054175393553
000340 b9 4e 53 53 90 a9 80 bf d7 84 65 f3 63 50 5b bf
       -0.008135917227640165 -0.0016671157914845325
000350 93 43 78 70 b0 a7 90 bf b4 d4 fe 0a 2b 21 b9 3f
       -0.016264683594332374 0.0981623555988616
000360 6d 8d 6d 5a 18 fd 96 bf cd 0b 2c 03 79 a4 af 3f
       -0.0224498562996706 0.06180170215340972
000370 a8 1d fa f7 c2 4f b7 3f bd 5b a5 19 27 50 c1 bf
       0.09106081537367194 -0.13525856735460975
000380 74 da a4 d6 18 f2 77 3f bf c4 b2 0c 8a 25 b0 3f
       0.0058461160900181615 0.06307280359284827
000390 34 e1 74 ce 20 9e a6 3f f4 04 b0 fb df fa bc 3f
       0.044175172044960936 0.11320304770199013
0003a0 fc 7d 2c 06 29 bd b0 bf 66 ae 72 73 a1 9d 6d 3f
       -0.0653863563606975 0.0036152032222014794
0003b0 8f 2c b5 af 6e e7 84 3f 9f 6c 66 af 21 55 b4 3f
       0.010207047211812785 0.07942400486210709
0003c0 4a c8 96 68 05 9e b0 bf 63 cc af ed 6d a7 b3 3f
       -0.06491121104662159 0.07677352002046826
0003d0 b7 ce 5e 5e 11 cd b1 3f fb 0b bf 68 51 2f 80 bf
       0.06953533700908109 -0.007902751931288412
0003e0 11 00 a7 d1 3c 22 69 3f 74 74 0e ff e6 8e a1 3f
       0.0030680835600094343 0.03429338325006706
0003f0 45 fd 4b cb 6f 87 ba bf 8c aa cf ce 7c 87 96 3f
       -0.10362909997274013 0.022001218912843387
000400 5e e3 c3 57 f6 56 cd bf 0b 77 66 e8 89 b3 a0 bf
       -0.22921637807282996 -0.03261977159421122
000410 e7 11 cc 8e 22 a0 be 3f 20 87 40 df ee 95 c0 bf
       0.11963096605547428 -0.1295755949113806
000420 c3 3b 9a 7e 5b e3 c1 bf 3a 96 27 46 87 2a 85 bf
       -0.13975089723359532 -0.010335022762727342
000430 db 67 57 a7 b8 5a be bf 37 8f f9 f0 1a 1f 49 bf
       -0.11857179723247617 -0.0007666474866252275
000440 a9 aa 92 ec ef d9 b4 bf 3d 5e dc 8b d9 a6 b2 3f
       -0.08145045781808825 0.07285842575617436
000450 e8 59 0a 4e 1b 1f a9 bf a5 78 d5 30 58 92 80 3f
       -0.0490654499782755 0.00809162997273589
000460 47 a4 7a c4 d3 26 79 3f 16 74 3c 10 1a 6e ac 3f
       0.006140544144423172 0.05552751014895578
000470 a2 1a c2 62 69 62 7a bf 16 18 bc 30 45 fe bf bf
       -0.00644150892561038 -0.12497360648930597
000480 d3 7d 1e 0f 78 26 bd 3f 3a 50 7e d9 d1 33 a5 bf
       0.11386824006193956 -0.04141097812603829
000490 ca 51 63 9f 8a 1d a5 bf c1 8f d2 30 ea fc a4 3f
       -0.0412410087170972 0.04099208684900147
0004a0 87 ac 55 47 22 d2 7d 3f 44 1a 1b 96 58 71 a8 bf
       0.007280477429371441 -0.04773976166102448
0004b0 0c e5 1e b2 8b 87 a2 3f 3b 60 fb de 9f 40 a3 3f
       0.036190381520507214 0.037602420777773614
0004c0 ea 33 8e 87 12 c6 ba 3f 09 ec c7 ef 44 89 91 bf
       0.10458484467945053 -0.017125203261439768
0004d0 e3 ed 49 d6 3b b5 b7 3f b5 68 f5 b7 65 5b c1 bf
       0.09260915738735025 -0.1356017254100316
0004e0 72 bc 3e 6a 6c 56 98 3f 67 86 89 44 10 63 79 3f
       0.023767179474529283 0.006197989984316621
0004f0 fe 85 b1 2b ec a3 bb bf 88 62 14 96 d8 be bb 3f
       -0.10797000948652877 0.10838082946828298
000500 a2 c0 7b ad 85 94 b5 3f d0 b7 79 fd 54 12 9c 3f
       0.0842975185912587 0.027413681002535217
000510 fc c5 41 95 bf 2b c0 bf 48 22 58 74 c1 23 b9 bf
       -0.12633509433685208 -0.09820183840214114
000520 4d c3 43 f0 bc a8 c4 3f af 35 84 d2 7b d6 bd bf
       0.1613994763534045 -0.11655401124536156
000530 a3 de cb 2e 85 5f 95 bf ed f1 13 f1 17 f5 b3 3f
       -0.020872193318580156 0.07795858035746735
000540 e7 6f 6f 4c 74 e5 cb bf 40 d8 fe bb b4 4b 8e 3f
       -0.21793988926117366 0.01479283522335717
000550 80 d7 c2 0b cb f1 b4 3f 17 62 66 39 ed 5f b5 3f
       0.08181447064529657 0.0834949746262129
000560 2a 66 0b df fd c4 a7 bf 23 ad 0b dd e8 b0 bd bf
       -0.046424802281489555 -0.11598067661877969
000570 60 09 06 49 89 67 b7 bf ad 76 45 5f b0 b0 b4 3f
       -0.09142358811189899 0.08082105947456837
000580 dc 79 f9 8f 34 c6 6b bf d1 28 94 38 e4 3b ae bf
       -0.0033904100999244523 -0.05905068579348128
000590 f0 60 95 3c bb 7c b8 3f f0 5b 2a 6d aa d0 a5 3f
       0.09565325001802072 0.04260761816583869
0005a0 1f 07 34 67 92 cf b3 bf 61 de 21 53 cb 30 98 bf
       -0.07738604564295003 -0.02362363524340905
0005b0 7d 33 1e d5 0a 5a 9f 3f db d2 8e 23 4b 31 c0 bf
       0.030616921670616904 -0.12650431858278108
0005c0 8d d3 90 d1 48 b8 b1 bf fd 7b 48 3d f7 5f ac bf
       -0.06921820751524717 -0.0554196607883952
0005d0 1a 22 ef 46 38 a5 c8 3f cb af 81 5c 0e 8c a6 bf
       0.19254210914211073 -0.044037293236072715
0005e0 77 39 8e 72 a4 7b b9 bf e6 d7 c4 dc b0 b3 b4 bf
       -0.09954288288847644 -0.08086686506143756
0005f0 e4 c1 34 7d 5b f0 a2 bf 42 eb 22 bc 56 ee a5 3f
       -0.03699003127474379 0.04283400580012266
000600 d8 ca 51 50 29 a2 9f 3f 26 95 09 22 e7 78 af bf
       0.0308920340798505 -0.06146929064270017
000610 56 69 c5 96 8c 04 ba bf c5 01 d7 ff 46 05 ac bf
       -0.10163191491065979 -0.05472776291890428
000620 c3 72 5b 36 3e 07 a7 3f 0f 02 c3 b8 28 aa c3 3f
       0.04497713483372003 0.15363034268922646
000630 da cb a6 43 b6 af a6 3f 6f 14 d2 74 7d f1 62 3f
       0.044309325941320046 0.002312417060752518
000640 de 35 8f a4 c1 c0 a5 3f e5 5b 69 36 91 9d a8 bf
       0.04248623975545816 -0.048077142612491554
000650 da d1 b2 9d 7c 07 a4 3f a0 4f f6 35 cd 4a a5 3f
       0.03911961960821815 0.041586315953423325
000660 86 67 52 98 c1 e8 99 3f 9e 83 1a 6b 54 f6 a8 3f
       0.02530195705603646 0.04875434691826473
000670 c9 80 53 74 63 ab a2 3f a0 85 41 bf e8 c6 96 bf
       0.03646384043691026 -0.02224315326055193
000680 d0 c8 97 cf 96 1d b6 bf 1f f9 8b b0 17 f8 c0 3f
       -0.08638899391351917 0.13257118339965587
000690 97 90 3f 48 27 b3 b4 bf c6 78 60 33 78 4f c0 3f
       -0.08085866464495194 0.12742521771082788
0006a0 2f 45 2a 14 1e 35 bd bf c4 21 eb 9c 3f 7d 7f 3f
       -0.1140917586547132 0.007687805641304061
0006b0 35 82 72 8b e6 1f a4 bf 10 7a 41 c0 cc b8 7b 3f
       -0.039305881998420146 0.006768035706129286
0006c0 a1 51 c9 77 bd ca 96 bf 17 88 13 93 6c 85 bd bf
       -0.022257767139608146 -0.11531714049081675
0006d0 47 33 e1 26 75 47 c1 3f 72 12 d3 5a ff d3 89 bf
       0.13499321363851832 -0.012611384352916508
0006e0 a6 ef 47 67 85 7d be 3f 35 f5 92 a8 a4 82 b6 bf
       0.11910280009754945 -0.08793095698907367
0006f0 e7 f7 53 8d ac 4d b5 bf 25 17 21 a3 f9 27 83 bf
       -0.08321646166220341 -0.00935359028893463
000700 06 ba a7 da 22 84 b1 3f 36 20 c4 a8 fb 2b c0 3f
       0.06842248762379918 0.1263422559788993
000710 7c 35 89 36 90 64 b7 3f 06 db 0b 18 b7 1c ae 3f
       0.0913782246727432 0.05881282967123096
000720 be 9c 30 fe 41 c9 a4 3f 08 e4 f0 04 16 8c 7b bf
       0.0405979750433345 -0.006725393307584156
000730 5e 72 55 06 43 3c b9 bf f7 3c 94 1a c3 d8 84 bf
       -0.09857577232964718 -0.010179065941456218
000740 9a ac be 62 95 8a a7 bf 33 f5 e5 50 9a 2a 65 3f
       -0.045979183486758404 0.002583791159109916
000750 34 6a 8a 9a 25 72 c0 3f 05 27 ca fc 8b 7c b0 3f
       0.12848348661357678 0.06440043374655254
000760 ce 21 0e 6f 76 b8 c3 bf f4 b4 c9 51 18 73 98 3f
       -0.15406685278527593 0.02387655257409889
000770 23 2e 4a 5c 13 cd c0 3f cf 9d 97 52 be c9 7c 3f
       0.13125841146789793 0.0070283350446298095
000780 f7 d4 6e 1c 82 01 8e 3f 94 0d 81 db 1d 24 ba bf
       0.014651314251617793 -0.1021135960482325
000790 5e 3e 17 c4 ae 0b 91 bf fe 75 a7 99 76 ee a1 3f
       -0.01664612838595613 0.03502245546017589
0007a0 fe e8 bf 37 f8 2f 76 bf 15 25 96 ba 02 f1 a1 bf
       -0.0054168411261292775 -0.03504189040820386
0007b0 1e 3c 43 8e 14 94 b5 3f f6 e1 a1 5f 9e 94 99 bf
       0.08429077599724663 -0.02498099764531677
0007c0 d7 7b fd b7 07 ab c3 bf fe 34 31 81 70 64 48 3f
       -0.1536569260015017 0.0007443951930185264
0007d0 d9 41 17 61 58 a3 bd 3f 7e cc 80 d3 ed 66 76 bf
       0.11577370043165248 -0.00546925450184965
0007e0 3a a0 da 60 f7 62 a0 3f 86 7a 22 a0 be b3 b6 bf
       0.0320050531129827 -0.08868018540895592
0007f0 bf 51 82 5b 38 eb be 3f fe 65 15 aa ba 51 77 bf
       0.12077667459590823 -0.005693177373666368
