best_model_RNN/gridsearch_temp.pth (torch, 620123 bytes, 7 tensors)

weight_ih_l0 f4 [60, 6]
0.17195502 0.23171918 -0.09521764 -0.14138709 -0.26000077 -0.19170372 -0.2558749 -0.18899655
0.1240157 -0.30558398 0.18839003 0.33566472 -0.25938532 -0.31335178 -0.069220796 0.161619
0.28425577 0.23981397 -0.15564768 -0.08859878 0.07889247 -0.00051775016 0.04030812 0.009473137
0.27487016 -0.05937239 -0.10155658 0.14057124 0.07804522 -0.20358138 0.24543783 0.07061658
-0.18978621 0.27362555 -0.2241139 -0.1663346 -0.24721736 -0.046358798 -0.76883984 0.5714838
0.19655398 0.28415155 0.621417 -0.008474841 -0.0576119 -0.057557505 -0.12631302 -0.5870841
-0.09654592 -0.4898302 -0.16374908 0.08759881 0.44733092 0.24859941 0.16715705 0.35124496
0.50515974 -0.44984502 -0.26796737 -0.33691126 0.34505045 0.20340459 -0.033106737 -0.05579109
-0.01801405 -0.23418693 0.20750539 0.4956343 0.29354006 -0.17895603 -0.42577577 -0.29468134
0.13224031 -0.41073444 -0.21612564 0.33294123 0.2909285 -0.10746426 -0.3243681 -0.4296896
-0.48895958 0.45597872 0.2043162 0.33425412 0.51193666 0.38954726 0.28295082 -0.03331972
-0.38747945 -0.40995497 -0.16737883 -0.07967114 -0.48721957 0.4266699 0.119269736 0.116279185
-0.3790282 0.13852797 0.025132472 0.18504426 -0.17384472 0.3844852 -0.22291896 0.1535441
0.2548687 -0.12902504 -0.047432307 0.22046506 -0.37116614 -0.27211452 0.109313294 -0.05564046
0.2346864 0.40782458 -0.112078935 -0.43468273 -0.3040389 0.26557618 0.47944784 0.095709
0.10480737 0.30399078 -0.26065835 0.15846153 -0.30949754 -0.03588626 0.3371328 0.16614203
0.20602004 -0.10121506 -0.2188315 -0.39420974 -0.110140875 -0.22648965 -0.1690867 0.025527097
0.22290161 0.20895287 0.06926095 -0.049657937 -0.19609147 0.20316538 -0.07588432 -0.08029639
0.21749261 0.41258597 0.519363 -0.50729924 -0.21471463 -0.05674515 0.39842808 0.29309788
0.51110125 -0.6021816 -0.115851514 -0.41537902 -0.39086664 -0.30152684 -0.0585025 0.14178757
0.40448713 0.31588662 -0.4314405 -0.45977697 -0.31252813 0.40550217 0.38546363 0.24482383
0.3947943 0.4365633 0.37789237 -0.29452187 -0.30299282 -0.43441743 0.20584293 0.15416807
0.12244884 -0.18536802 -0.21896414 -0.2498394 0.11509571 0.42855078 -0.04653323 0.12076471
-0.30443713 -0.22443286 0.19851942 -0.58384615 -0.21077637 0.28525332 0.53875655 -0.18668975
0.0525358 -0.07418483 -0.16851535 0.08636509 0.0071779415 0.12759845 -0.09571013 -0.45353037
-0.5214183 0.3130771 0.446657 0.3068416 0.39589176 0.1346584 -0.01563551 -0.026695495
-0.037037954 -0.37695962 0.3455623 0.40016225 0.3144247 -0.3646773 -0.38116702 -0.36326182
0.11948957 0.6104975 0.22517198 -0.32509902 -0.46463308 -0.14562632 0.14870255 0.35959637
0.40516606 -0.42699882 -0.32757956 -0.31869534 -0.46862543 -0.2785879 -0.4165648 0.24304327
0.064493865 0.45903265 -0.07724427 -0.33965144 0.3275772 -0.324988 0.36469564 0.17055005
0.47024515 0.3721938 -0.45443282 0.28984115 -0.3716969 -0.6400884 -0.5811701 0.12607467
-0.028482867 0.032261997 -0.13591199 0.6644017 -0.18518144 -0.16075763 -0.23870477 0.028428078
00000000: fa14 303e cb47 6d3e 7701 c3bd c7c7 10be
00000010: d21e 85be fb4d 44be 0902 83be 5088 41be
00000020: f1fb fd3d 8175 9cbe 51e9 403e 3fdc ab3e
00000030: 27ce 84be a56f a0be a2c3 8dbd 737f 253e
00000040: f989 913e cb91 753e 1b62 1fbe 4773 b5bd
00000050: 6092 a13d a0b9 07ba 211a 253d 3735 1b3c
00000060: c8bb 8c3e 7730 73bd e5fc cfbd e8f1 0f3e
00000070: 2cd6 9f3d a377 50be 0e54 7b3e 6d9f 903d
00000080: 5157 42be a618 8c3e 1d7e 65be 9e53 2abe
00000090: 8c26 7dbe b9e2 3dbd b0d2 44bf c34c 123f
000000a0: 7245 493e 507c 913e 2f15 1f3f 0fda 0abc
000000b0: 75fa 6bbd 6bc1 6bbd 3358 01be 254b 16bf
000000c0: deb9 c5bd 06cb fabe d7ad 27be 0167 b33d
000000d0: 8f08 e53e d890 7e3e 382b 2b3e 61d6 b33e
000000e0: 2652 013f 1652 e6be 0533 89be a27f acbe
000000f0: 74aa b03e 4b49 503e ee9a 07bd 3385 64bd
00000100: 3392 93bc b3ce 6fbe 4b7c 543e c7c3 fd3e
00000110: e24a 963e 4040 37be 48ff d9be 79e0 96be
00000120: 016a 073e c94b d2be 0a50 5dbe 4677 aa3e
00000130: 95f4 943e 3916 dcbd 9313 a6be 4600 dcbe
00000140: e958 fabe 0b76 e93e 4438 513e 5b23 ab3e
00000150: 480e 033f bd72 c73e eede 903e 427a 08bd
00000160: b563 c6be 9ee5 d1be 5b65 2bbe 9f2a a3bd
00000170: d874 f9be 7a74 da3e b143 f43d c823 ee3d
00000180: fc0f c2be 47da 0d3e 9de2 cd3c 3e7c 3d3e
00000190: 5a04 32be 3edb c43e de44 64be aa3a 1d3e
000001a0: 267e 823e 241f 04be 6148 42bd 98c1 613e
000001b0: 7d09 bebe 9852 8bbe a6df df3d 40e7 63bd
000001c0: a251 703e 62ce d03e a489 e5bd bc8e debe
000001d0: fdaa 9bbe 9af9 873e 307a f53e 1503 c43d
000001e0: 3fa5 d63d aea4 9b3e 0375 85be bd43 223e
000001f0: 7676 9ebe 79fd 12bd ac9c ac3e 2321 2a3e
00000200: ebf6 523e d749 cfbd 5d15 60be dcd5 c9be
00000210: 8a91 e1bd e7ec 67be 1025 2dbe 341e d13c
00000220: 5240 643e bef7 553e afd8 8d3d 1f66 4bbd
00000230: 34cc 48be 960a 503e 3d69 9bbd 6f72 a4bd
00000240: 62b6 5e3e 783e d33e f9f4 043f 5dde 01bf
00000250: 27de 5bbe 9a6d 68bd c4fe cb3e ed10 963e
00000260: 88d7 023f 9328 1abf 8f43 edbd 8fac d4be
00000270: ac1f c8be ba61 9abe 51a0 6fbd c330 113e
00000280: f018 cf3e e4bb a13e c5e5 dcbe e367 ebbe
00000290: b003 a0be fb9d cf3e 7d5b c53e 19b3 7a3e
000002a0: 7a22 ca3e 3a85 df3e 1c7b c13e 92cb 96be
000002b0: e021 9bbe f66b debe 7dc8 523e 3cde 1d3e
000002c0: 75c6 fa3d 1dd1 3dbe 2338 60be e6d5 7fbe
000002d0: 4db7 eb3d 026b db3e a199 3ebd 7d53 f73d
000002e0: 2fdf 9bbe bad1 65be ad48 4b3e f176 15bf
000002f0: c3d5 57be b90c 923e f3eb 093f 992b 3fbe
00000300: c72f 573d 37ee 97bd 4a8f 2cbe 2ee0 b03d
00000310: f034 eb3b 2ba9 023e ac03 c4bd 2235 e8be
00000320: ab7b 05bf a44b a03e 3ab0 e43e 581a 9d3e
00000330: 53b2 ca3e e4e3 093e 0b16 80bc 83b0 dabc
00000340: 1cb5 17bd da00 c1be 8bed b03e 11e2 cc3e
00000350: 46fc a03e fcb6 babe 5328 c3be 74fd b9be
00000360: f3b6 f43d 9049 1c3f 7c93 663e 6173 a6be
00000370: 63e4 edbe 111f 15be 7b45 183e 041d b83e
00000380: ed71 cf3e 979f dabe 82b8 a7be 092c a3be
00000390: acef efbe 13a3 8ebe fb47 d5be 56e0 783e
000003a0: 5c15 843d 5406 eb3e 3e32 9ebd cbe6 adbe
000003b0: 33b8 a73e d464 a6be 63b9 ba3e aca4 2e3e
000003c0: f9c3 f03e 3090 be3e 6bab e8be 0f66 943e
000003d0: 0e4f bebe d5dc 23bf 90c7 14bf b819 013e
000003e0: e754 e9bc 2825 043d 832c 0bbe 3b16 2a3f
000003f0: 34a0 3dbe a69d 24be 066f 74be 00e2 e83c

weight_hh_l0 f4 [60, 60]
0.074857384 0.008087792 0.16232036 0.011489255 0.0069991173 -0.10156509 0.17350571 -0.2394057
0.1242035 -0.0148811545 0.25600094 -0.19992872 0.1942103 0.0956776 -0.17336681 0.16857767
-0.007870817 0.31433475 0.077539034 0.206365 -0.06618629 0.046375062 0.078179725 -0.16045575
-0.124424316 0.0059722974 0.19827747 -0.0025730783 -0.25686476 -0.009786244 -0.21930756 0.111648366
0.0018530133 -0.010856328 -0.18884723 -0.04948788 -0.09402522 -0.081465684 0.26406997 0.027332788
0.008660771 0.06568894 -0.31573474 -0.18761978 -0.20808506 -0.036823817 0.19826879 -0.047020145
-0.06520882 0.068255916 0.26202458 0.07973486 -0.09160002 -0.10784847 -0.17569947 -0.21960226
-0.20164779 0.08725157 -0.085139364 0.16034772 -0.26211256 -0.3614123 0.22489591 -0.018039731
0.14185451 -0.117957994 -0.007439191 0.03274207 0.26503012 -0.022934752 0.06804561 -0.08647237
0.07656527 0.11825757 -0.10701624 0.0068840426 0.14045118 -0.0789307 0.03641619 -0.0008371264
0.03774194 0.14858735 -0.22058734 -0.23845682 -0.23938067 0.044608954 0.032267846 0.11802078
0.08637528 -0.005843019 0.041231822 0.022450298 -0.2557872 0.26731664 -0.34013358 -0.088224545
-0.2363091 -0.07575331 0.059277542 0.11687187 -0.00890236 0.18601482 0.19407876 -0.062316064
-0.09081109 -0.15551859 0.19428118 0.091532774 0.29501805 0.38353062 0.010492772 -0.06720759
0.20131576 -0.22653708 0.11150469 0.098781876 -0.0062118494 -0.014822419 0.0098996265 0.14603208
-0.37306046 0.26419118 -0.062211286 -0.3388428 -0.15104428 0.13968204 -0.26134357 0.22701475
-0.07986294 0.08239945 -0.27191937 0.18569912 0.052843887 -0.111430824 0.05972589 -0.13730128
0.1692586 0.021256538 -0.21272078 -0.25863537 -0.21022311 -0.37014544 0.24258217 -0.025640225
0.01006873 0.091750376 -0.014677828 0.021011978 -0.021762388 0.15458463 0.21002556 -0.1774919
-0.0074006035 -0.16834755 0.11392539 0.15037481 0.07875768 0.019251473 -0.05284216 -0.07036151
-0.06469042 0.04704802 0.20758015 -0.06795931 0.114368975 0.14945637 -0.010396547 -0.13847789
-0.00096983725 -0.24564919 0.032330915 0.13028474 -0.22724777 0.0060036937 0.063048415 0.18900475
0.031157942 0.29501146 0.14330994 -0.37537923 0.09441304 0.0105883675 0.22688958 0.054962695
0.021000715 0.013011781 0.16222902 -0.3114529 0.088690855 -0.07114656 0.09627253 -0.11279882
0.08684336 0.24156986 -0.22343163 0.19002376 0.046667505 -0.042590477 0.1603924 0.21085477
0.06681095 0.109971926 0.029440815 -0.019687798 -0.09633067 -0.30027187 0.13025 0.2759418
-0.28046963 -0.088452764 -0.15587287 -0.013070622 0.10605367 0.24722406 -0.034598663 -0.12919559
-0.21282701 -0.321253 0.21212755 0.00623396 -0.0528456 0.17537238 -0.24084437 0.09088256
-0.07822075 -0.07676427 0.22696815 -0.027158765 -0.08504392 0.0003494925 0.11576412 -0.100778446
-0.048532538 -0.1610989 -0.31788886 -0.2113369 -0.19841589 -0.24130304 -0.25416106 -0.027064081
-0.18771517 0.044205397 -0.12942763 -0.020122139 -0.26535267 0.112675935 -0.056129254 0.21736419
-0.16577089 0.1383884 -0.33887833 0.2960187 0.011204446 -0.07898147 0.12375278 -0.042060025
00000000: d44e 993d a982 043c 4f37 263e 6e3d 3c3c
00000010: da58 e53b 5c01 d0bd 7bab 313e c526 75be
00000020: 685e fe3d 16d0 73bc 8e12 833e 1dba 4cbe
00000030: 11df 463e 9ef2 c33d 1287 31be a09f 2c3e
00000040: 99f4 00bc 7cf0 a03e c9cc 9e3d 5951 533e
00000050: ad8c 87bd c7f3 3d3d b11c a03d 834e 24be
00000060: 2dd2 febd 43b3 c33b 4009 4b3e 17a1 28bb
00000070: c783 83be 7b56 20bc 2992 60be e6a7 e43d
00000080: cfe0 f23a bdde 31bc 2b61 41be ceb3 4abd
00000090: 4b90 c0bd 7bd7 a6bd 2e34 873e 03e9 df3c
000000a0: e8e5 0d3c ec87 863d fca7 a1be 661f 40be
000000b0: 4014 55be 92d4 16bd f906 4b3e 3298 40bd
000000c0: 348c 85bd c2c9 8b3d 1628 863e 084c a33d
000000d0: cb98 bbbd a9df dcbd 90ea 33be 6adf 60be
000000e0: c27c 4ebe f3b0 b23d 8c5d aebd 3132 243e
000000f0: 9e33 86be 080b b9be 1d4b 663e 0fc8 93bc
00000100: 4f42 113e f693 f1bd 75c4 f3bb 8c1c 063d
00000110: 07b2 873e a9e1 bbbc 7f5b 8b3d 6d18 b1bd
00000120: 41ce 9c3d 0631 f23d 552b dbbd 8993 e13b
00000130: 6fd2 0f3e 6ba6 a1bd 2529 153d 9a72 5bba
00000140: 4b97 1a3d 4827 183e a6e1 61be 062e 74be
00000150: 3520 75be e1b7 363d 4a2b 043d e1b4 f13d
00000160: 86e5 b03d cc76 bfbb b3e2 283d b0e9 b73c
00000170: 8af6 82be badd 883e fd25 aebe 12af b4bd
00000180: 03fb 71be 8d24 9bbd 02cd 723d 855a ef3d
00000190: 34db 11bc ab7a 3e3e 95bc 463e 213f 7fbd
000001a0: 2afb b9bd 4440 1fbe a5f1 463e 8975 bb3d
000001b0: 9b0c 973e 205e c43e e0e9 2b3c 22a4 89bd
000001c0: b825 4e3e 56f9 67be 925c e43d 274e ca3d
000001d0: c58c cbbb bbd9 72bc 0b32 223c 6f89 153e
000001e0: c801 bfbe 1144 873e 43d1 7ebd ce7c adbe
000001f0: 5aab 1abe cf08 0f3e d3ce 85be 8e76 683e
00000200: 2e8f a3bd 0bc1 a83d 0439 8bbe e927 3e3e
00000210: d572 583d d835 e4bd 23a3 743d b598 0cbe
00000220: 2052 2d3e 3122 ae3c 7ad3 59be db6b 84be
00000230: ba44 57be b483 bdbe 7667 783e 730b d2bc
00000240: 51f7 243c 9fe7 bb3d 467b 70bc 5021 ac3c
00000250: 0947 b2bc 6f4b 1e3e f110 573e 70c0 35be
00000260: c380 f2bb 4d63 2cbe b751 e93d dbfb 193e
00000270: b54b a13d 44b5 9d3c 0571 58bd b219 90bd
00000280: 697c 84bd 6db5 403d e48f 543e 402e 8bbd
00000290: 483a ea3d 170b 193e 4756 2abc 26cd 0dbe
000002a0: ad3c 7eba 768b 7bbe 6c6d 043d 5d69 053e
000002b0: a4b3 68be a2ba c43b 871f 813d 768a 413e
000002c0: f13e ff3c be0b 973e d7bf 123e b531 c0be
000002d0: a05b c13d d57a 2d3c be55 683e 9020 613d
000002e0: b109 ac3c 5d2f 553c 5d1f 263e c176 9fbe
000002f0: 8da3 b53d 4ab5 91bd 882a c53d 1103 e7bd
00000300: eeda b13d 175e 773e 43cb 64be 9795 423e
00000310: 6d26 3f3d 5a73 2ebd e83d 243e 50ea 573e
00000320: 2ed4 883d f638 e13d dd2d f13c 4e48 a1bc
00000330: 0449 c5bd 3cbd 99be 4260 053e 3e48 8d3e
00000340: b799 8fbe b926 b5bd 239d 1fbe 2a26 56bc
00000350: ab32 d93d 4e28 7d3e 54b7 0dbd d94b 04be
00000360: 53ef 59be 467b a4be f737 593e 3f46 cc3b
00000370: a174 58bd d194 333e e89f 76be a320 ba3d
00000380: 3332 a0bd 9636 9dbd 576a 683e 0f7c debc
00000390: 822b aebd 173c b739 bd15 ed3d ee64 cebd
000003a0: 0eca 46bd 1cf7 24be 54c2 a2be b368 58be
000003b0: 892d 4bbe 2518 77be 6621 82be 7eb5 ddbc
000003c0: 6838 40be b810 353d ad88 04be 2fd7 a4bc
000003d0: 4edc 87be a4c2 e63d cae7 65bd b894 5e3e
000003e0: d8bf 29be b0b5 0d3e 7681 adbe c38f 973e
000003f0: da92 373c 09c1 a1bd 1972 fd3d 2247 2cbd

bias_ih_l0 f4 [60]
0.23990475 -0.23189381 -0.2299383 -0.21713665 -0.24228267 -0.09715895 -0.19442515 -0.06437207
-0.055063106 -0.17049015 0.11308203 -0.04699126 -0.33938769 -0.095628425 -0.06767179 -0.04468945
0.17787223 0.04309598 0.1585835 0.09133682 -0.03420349 0.10268715 -0.03924964 -0.53075707
0.26414767 -0.027914701 0.23473662 -0.08946192 0.13760495 -0.15275164 -0.37147066 -0.11493171
0.30099177 -0.109222434 -0.1655971 -0.24698919 0.09298611 -0.016567804 0.19244504 0.21484509
-0.04442297 -0.13345824 -0.16034964 0.2362984 -0.33595023 0.08941765 -0.030235741 0.0021880763
-0.21101284 -0.2548585 0.043343898 0.27719998 -0.3681778 0.2712278 0.09040592 -0.29540035
-0.20267475 0.11004209 -0.12078047 0.16842273
00000000: 97a9 753e 9275 6dbe f274 6bbe 1259 5ebe
00000010: f318 78be 46fb c6bd 6317 47be 81d5 83bd
00000020: da89 61bd f894 2ebe 8d97 e73d e879 40bd
00000030: 39c4 adbe d6d8 c3bd 8297 8abd 490c 37bd
00000040: 2324 363e 6985 303d b763 223e cc0e bb3d
00000050: f518 0cbd a44d d23d 3bc4 20bd b2df 07bf
00000060: 5d3e 873e 5fad e4bc cc5e 703e d037 b7bd
00000070: 50e8 0c3e ed6a 1cbe 6731 bebe 5161 ebbd
00000080: 981b 9a3e 03b0 dfbd 4992 29be bcea 7cbe
00000090: 806f be3d 34b9 87bc 5010 453e 5a00 5c3e
000000a0: dcf4 35bd 47a9 08be b232 24be 35f8 713e
000000b0: ab01 acbe 9a20 b73d f2b0 f7bc d465 0f3b
000000c0: c013 58be d07c 82be 5f89 313d 28ed 8d3e
000000d0: cd81 bcbe 5fde 8a3e bd26 b93d b73e 97be
000000e0: f889 4fbe bf5d e13d c05b f7bd 0277 2c3e

bias_hh_l0 f4 [60]
0.47741503 -0.10937675 -0.17389682 -0.22603492 -0.2643629 -0.16327849 -0.19070652 -0.11305164
0.11802034 -0.16358723 0.071477205 -0.09556899 -0.30979797 0.06263977 -0.07180528 0.066786915
0.15677235 0.10160872 0.24700269 0.12574469 -0.03085158 -0.11271942 -0.15472624 -0.49175203
0.26077506 -0.04434267 0.24469429 -0.2252224 0.09087032 -0.07651378 -0.38649085 0.037268847
0.17088796 -0.02969778 -0.13032141 -0.25358516 0.27086607 -0.17827417 0.10312356 0.071899064
-0.19251452 -0.03454479 -0.22411036 0.24375579 -0.25596708 0.21858239 0.068217754 0.035595577
-0.23054141 -0.37475967 0.09799224 0.08223656 -0.4368819 0.20785573 0.09136997 -0.2663127
-0.21448952 0.15176596 -0.21053617 0.09431817
00000000: be6f f43e eb00 e0bd 0212 32be b375 67be
00000010: 935a 87be 7a32 27be 9248 43be 9e87 e7bd
00000020: a6b4 f13d 6983 27be a462 923d adb9 c3bd
00000030: d79d 9ebe 4849 803d a60e 93bd 94c7 883d
00000040: ee88 203e 3c18 d03d 46ee 7c3e 37c3 003e
00000050: 74bc fcbc 70d9 e6bd 8e70 1ebe ecc6 fbbe
00000060: 4f84 853e a9a0 35bd 2491 7a3e b3a0 66be
00000070: 381a ba3d 42b3 9cbd 21e2 c5be 38a7 183d
00000080: 41fd 2e3e c248 f3bc fa72 05be ead5 81be
00000090: f5ae 8a3e 818d 36be 7232 d33d d13f 933d
000000a0: 8722 45be d67e 0dbd 307d 65be 1e9b 793e
000000b0: 1e0e 83be 10d4 5f3e c0b5 8b3d abcc 113d
000000c0: 0c13 6cbe 80e0 bfbe 28b0 c83d a46b a83d
000000d0: fcae dfbe 22d8 543e 2e20 bb3d 235a 88be
000000e0: 24a3 5bbe 8968 1b3e cb96 57be e229 c13d

weight f4 [6, 60]
-0.017748618 -0.17408326 -0.028789924 0.0067364536 0.07625565 -0.11368624 -0.08731204 0.12785502
-0.014116664 0.059115402 0.072448194 -0.09460483 0.20254935 -0.03840881 0.17128304 0.011818979
-0.08166178 0.032008786 -0.061914664 0.096909784 0.018814912 0.07170785 -0.19161156 0.03664498
0.014409066 -0.052982524 -0.09636178 -0.11086832 0.08711467 -0.014900878 -0.06014946 0.19726387
-0.17873104 -0.00092841964 -0.021984663 0.06715888 -0.032694194 0.0151065895 -0.07816893 0.047768306
0.24427953 -0.31894562 -0.16210812 -0.15057062 0.01923282 -0.14347109 -0.069444284 0.054849606
0.23800436 0.0020880813 -0.007627032 -0.023724688 -0.0737691 -0.029040243 -0.046447515 -0.0048440956
0.1041484 0.032423053 0.071378276 -0.08461231 -0.024708755 -0.1341591 -0.039470624 0.07125101
0.091479726 -0.004957517 0.09242514 -0.12985668 -0.018576955 0.078516304 -0.12569985 0.103026174
-0.029974774 -0.09172003 0.012234512 -0.09559982 0.2842149 0.10359003 -0.06763173 -0.13095583
0.07744973 0.04966778 -0.13938417 0.030774446 0.05732809 -0.06983678 -0.076321 -0.1108797
0.043189906 0.04522754 0.040969074 -0.09858171 -0.20835982 -0.20440783 -0.079880625 0.15472718
0.14979278 0.04512171 -0.01701678 -0.015111396 0.16272566 0.0900046 -0.16579144 -0.08693414
-0.09454479 -0.009652855 -0.12387485 0.034980927 0.1606774 0.12796713 -0.08069071 0.12133587
0.014830963 0.09461219 0.11568318 0.01354873 0.053959873 0.0052076783 -0.03419602 0.042750098
-0.21331258 0.07235037 0.109750435 0.13285753 -0.02208536 -0.19710349 -0.12373286 -0.09128841
0.08522445 0.15728775 -0.021021038 -0.14241855 -0.016690684 -0.08311093 -0.08011112 -0.11966288
0.1092545 0.0989643 0.07645014 0.10521914 -0.16439672 -0.03259354 -0.08451615 -0.14586061
0.05421438 0.08395631 0.09477807 -0.08763198 -0.04775283 -0.047574077 -0.057573285 0.04479861
-0.21940464 -0.101261966 -0.11046701 0.024914328 0.04832551 0.06961976 -0.044593386 0.1781995
-0.1661402 -0.014576879 -0.045507256 0.19833751 -0.10209392 -0.08126003 -0.12330598 0.051686246
0.17805804 0.17089178 -0.090556316 0.104606286 0.0076404773 0.08589414 0.1117572 0.05760131
0.1409857 -0.092502825 0.08298901 0.0834018 0.067884445 -0.09549444 -0.010263794 -0.14545707
0.0350044 0.074443944 0.15562978 0.08305588 0.045419816 -0.16607258 0.18589619 -0.0032220373
-0.04520656 0.15017705 -0.015689036 0.11144779 -0.09368323 -0.058770005 -0.06398547 -0.067223385
0.17467685 0.028018631 0.08065616 -0.017966256 -0.08082517 -0.18016602 -0.041519366 -0.044427395
-0.04893989 0.13731065 0.04564233 0.0589997 0.13107973 0.10363633 -0.007476469 -0.097687334
-0.05563867 0.0150854215 0.04709659 -0.20923306 0.18527639 -0.0015772437 0.05771363 -0.19425733
0.012621749 0.03403902 0.04270783 -0.08583423 -0.07735451 -0.07539649 -0.007272548 -0.013992694
-0.02564701 -0.097064205 -0.11971832 -0.068357036 -0.12756574 -0.066599615 -0.018486107 0.033609226
0.037144948 0.21851236 -0.08129623 -0.046086635 0.06821261 0.08174921 0.059832603 0.09959184
0.15721147 -0.118748374 0.12667131 -0.0835003 0.01568818 0.14185151 -0.14370386 -0.048409738
00000000: 8d65 91bc e242 32be d9d8 ebbc 78bd dc3b
00000010: ec2b 9c3d 55d4 e8bd a8d0 b2bd 6dec 023e
00000020: 9549 67bc fe22 723d b85f 943d 2dc0 c1bd
00000030: 1969 4f3e 8e52 1dbd d264 2f3e 64a4 413c
00000040: 4b3e a7bd a51b 033d 3b9a 7dbd a378 c63d
00000050: bb21 9a3c 91db 923d d235 44be 0c19 163d
00000060: 0114 6c3c 3404 59bd 5359 c5bd ee0e e3bd
00000070: 2d69 b23d d022 74bc 485f 76bd 8aff 493e
00000080: 4505 37be 3061 73ba 2e19 b4bc 988a 893d
00000090: 59ea 05bd a181 773c 0817 a0bd b3a8 433d
000000a0: 6a24 7a3e d74c a3be acff 25be 2f2f 1abe
000000b0: 268e 9d3c 16ea 12be ce38 8ebd fba9 603d
000000c0: 6ab7 733e 31d8 083b 2fec f9bb 475a c2bc
000000d0: 4114 97bd cee5 edbc c03f 3ebd 38bb 9ebb
000000e0: c24b d53d 09ce 043d c62e 923d 3849 adbd
000000f0: 046a cabc 0161 09be f3ab 21bd 0dec 913d
00000100: b959 bb3d ab72 a2bb 6449 bd3d 26f9 04be
00000110: b32e 98bc 28cd a03d 76b7 00be 63ff d23d
00000120: a88d f5bc b6d7 bbbd 4373 483c d7c9 c3bd
00000130: 9e84 913e 0227 d43d 8182 8abd 4919 06be
00000140: f79d 9e3d 7170 4b3d b9ba 0ebe b11a fc3c
00000150: dcd0 6a3d 9606 8fbd 2f4e 9cbd e514 e3bd
00000160: e6e7 303d 8340 393d 30cf 273d 35e5 c9bd
00000170: 475c 55be 4950 51be 7498 a3bd cd70 1e3e
00000180: 4763 193e 8bd1 383d c666 8bbc ca95 77bc
00000190: 8ea1 263e 5554 b83d 3bc5 29be 870a b2bd
000001a0: b3a0 c1bd 0227 1ebc 19b2 fdbd 2948 0f3d
000001b0: 9e88 243e d109 033e 2c41 a5bd f17e f83d
000001c0: 91fd 723c 09c4 c13d 4eeb ec3d 7efb 5d3c
000001d0: 0705 5d3d 2ca5 aa3b 2011 0cbd ba1a 2f3d
000001e0: 9d6e 5abe 6e2c 943d d6c4 e03d ce0b 083e
000001f0: 5bec b4bc 7fd5 49be a767 fdbd 6bf5 babd
00000200: 288a ae3d 0a10 213e 5034 acbc 2bd6 11be
00000210: e7ba 88bc 1036 aabd 4d11 a4bd d011 f5bd
00000220: d3c0 df3d cbad ca3d e491 9c3d 227d d73d
00000230: 9d57 28be ce80 05bd ce16 adbd 7c5c 15be
00000240: e60f 5e3d 49f1 ab3d 011b c23d 6578 b3bd
00000250: 7998 43bd 09dd 42bd f7d1 6bbd bf7e 373d
00000260: 9cab 60be 6f62 cfbd 873c e2bd 2219 cc3c
00000270: f8f0 453d ce94 8e3d 8ea7 36bd ee79 363e
00000280: a820 2abe ddd3 6ebc d165 3abd fd18 4b3e
00000290: 9e16 d1bd a96b a6bd d887 fcbd f5b4 533d
000002a0: d954 363e 41fe 2e3e 9775 b9bd d23b d63d
000002b0: f85c fa3b 44e9 af3d f5e0 e43d 5aef 6b3d
000002c0: 8e5e 103e 1f72 bdbd 24f6 a93d 90ce aa3d
000002d0: 0007 8b3d 9792 c3bd 7929 28bc b3f2 14be
000002e0: c660 0f3d 1176 983d 6a5d 1f3e 3419 aa3d
000002f0: 210a 3a3d ee0e 2abe 925b 3e3e d128 53bb
00000300: 842a 39bd 03c8 193e 4b86 80bc bd3e e43d
00000310: fedc bfbd d1b8 70bd d00a 83bd 6aac 89bd
00000320: 7dde 323e 5487 e53c 0f2f a53d f82d 93bc
00000330: ab87 a5bd 717d 38be 3610 2abd 80f9 35bd
00000340: 3275 48bd 2a9b 0c3e 74f3 3a3d aba9 713d
00000350: c439 063e 493f d43d 2bfd f4bb 4c10 c8bd
00000360: 60e5 63bd d828 773c 5be8 403d 3141 56be
00000370: 18b9 3d3e 84bb ceba 2165 6c3d 65eb 46be
00000380: 74cb 4e3c 806c 0b3d 68ee 2e3d dbc9 afbd
00000390: 0b6c 9ebd 7a69 9abd 8e4e eebb 9d41 65bc
000003a0: ae19 d2bc 99c9 c6bd e12e f5bd c6fe 8bbd
000003b0: 98a0 02be 6165 88bd 2d70 97bc d4a9 093d
000003c0: 4d25 183d b4c1 5f3e a37e a6bd 57c5 3cbd
000003d0: 0eb3 8b3d 216c a73d 0813 753d cef6 cb3d
000003e0: 0bfc 203e 5932 f3bd 20b6 013e 3502 abbd
000003f0: 8084 803c 8641 113e 1b27 13be 4a49 46bd

bias f4 [6]
0.07965473 -0.03247146 -0.13244787 0.03565617 0.025041746 -0.086071774
00000000: 0522 a33d cb00 05bd 6aa0 07be 340c 123d
00000010: 5924 cd3c 6646 b0bd

hidden f4 [1, 2495, 60]
0.659132 -0.49639526 -0.6617684 0.9905024 -0.99938047 0.4911962 -0.59470034 -0.4245746
0.3522526 -0.7594807 0.0058634803 -0.98597443 -0.9126078 -0.6146429 -0.7647235 -0.54953206
0.024290968 -0.897189 0.52836066 0.92764807 0.18564256 0.30639857 0.9976454 -0.8973969
0.56762576 -0.7920363 0.98935163 0.74388397 -0.38770625 -0.99756396 -0.9742996 0.10504122
0.9997201 0.4351884 0.33441448 -0.29470864 0.33194044 -0.44998702 0.37339613 0.47115135
0.008097472 -0.073385276 0.93045866 0.07510725 -0.99674964 0.99893 -0.32258764 0.9899789
-0.9988429 -0.9954059 0.22202492 0.32709956 -0.91067165 0.7173036 -0.938785 -0.9840544
-0.7107306 -0.98347265 -0.98284316 0.9199071 0.63737977 -0.5632752 -0.6591474 0.9831851
-0.99909997 0.42513785 -0.6408873 -0.39114752 0.3228477 -0.7167988 -0.038984083 -0.97855234
-0.911546 -0.68029124 -0.7463026 -0.65426457 0.0032171495 -0.85984063 0.48672208 0.8907711
0.11236668 0.30684754 0.9951784 -0.9109953 0.62378967 -0.72014 0.98565495 0.6712537
-0.26351944 -0.9956434 -0.97022 0.03018773 0.9995535 0.4048617 0.2287104 -0.21838453
0.43999586 -0.35968015 0.30534342 0.36635655 0.094755195 0.0065918206 0.89899915 0.01504701
-0.9960751 0.9984342 -0.38412917 0.9864531 -0.99812937 -0.99446636 0.187634 0.37057233
-0.9109745 0.7352865 -0.9026921 -0.97982836 -0.6675479 -0.97664344 -0.97102267 0.8958206
0.6182759 -0.6267284 -0.6571808 0.9683674 -0.99861425 0.34886965 -0.6769747 -0.34770164
0.29410917 -0.6653738 -0.085184395 -0.9663294 -0.91012853 -0.7371772 -0.7258623 -0.74054486
-0.021653129 -0.80571514 0.44084084 0.83550584 0.034928054 0.30747557 0.98942906 -0.92445123
0.6729496 -0.6245806 0.98012257 0.5769609 -0.12306341 -0.9917928 -0.9650037 -0.04403668
0.99924433 0.3723431 0.109421626 -0.14165856 0.5372884 -0.25750124 0.23005366 0.24864729
0.19115762 0.08794914 0.85017407 -0.04697035 -0.99510205 0.9975617 -0.43899632 0.9811647
-0.99677515 -0.9930955 0.1635381 0.41108456 -0.9102693 0.7496783 -0.84313774 -0.9740111
-0.62052697 -0.9659132 -0.94987345 0.8633224 0.60542977 -0.68525285 -0.6552894 0.9371371
-0.99773425 0.25862408 -0.7028432 -0.29454634 0.26846465 -0.60468876 -0.13334443 -0.94616723
-0.9086668 -0.78452575 -0.7036638 -0.8062794 -0.050057795 -0.7275736 0.39393416 0.75705796
-0.043237295 0.3078452 0.9754137 -0.9376559 0.71555614 -0.5026189 0.9720045 0.46040747
0.02497821 -0.98382276 -0.9582815 -0.1117099 0.9986351 0.33937135 -0.018156203 -0.06993754
0.62190866 -0.14825968 0.15273783 0.12374782 0.2919538 0.1664547 0.77598083 -0.107674465
-0.99367 0.9959482 -0.48316017 0.97301 -0.99409235 -0.9909857 0.15712774 0.44972563
-0.90830255 0.75942737 -0.74752486 -0.9659023 -0.5735522 -0.94879454 -0.91252494 0.8207402
0.6037786 -0.7376228 -0.6524696 0.870154 -0.99607503 0.14971696 -0.71860254 -0.23278934
0.24906848 -0.53448385 -0.1836441 -0.9132257 -0.90768355 -0.8223088 -0.6799363 -0.8523769
00000000: e0bc 283f 8527 febe a769 29bf 9191 7d3f
00000010: 66d7 7fbf 117e fb3e 483e 18bf d861 d9be
00000020: 745a b43e 546d 42bf 7022 c03b d268 7cbf
00000030: aaa0 69bf 3d59 1dbf ebc4 43bf 22ae 0cbf
00000040: dafd c63c 2eae 65bf a542 073f 587a 6d3f
00000050: 1519 3e3e 46e0 9c3e b065 7f3f cebb 65bf
00000060: ec4f 113f e4c2 4abf 2646 7d3f 2e6f 3e3f
00000070: 6f81 c6be 5a60 7fbf b36b 79bf da1f d73d
00000080: a8ed 7f3f 04d1 de3e 6038 ab3e 0de4 96be
00000090: 19f4 a93e b364 e6be c72d bf3e c03a f13e
000000a0: 42ab 043c 054b 96bd 8a32 6e3f d4d1 993d
000000b0: fc2a 7fbf e0b9 7f3f 352a a5be 426f 7d3f
000000c0: 2bb4 7fbf ecd2 7ebf 805a 633e 9879 a73e
000000d0: c721 69bf 35a1 373f 3754 70bf fdea 7bbf
000000e0: 71f2 35bf ddc4 7bbf 9c9b 7bbf 087f 6b3f
000000f0: 522b 233f ce32 10bf e2bd 28bf 05b2 7b3f
00000100: 04c5 7fbf abab d93e 3111 24bf 7d44 c8be
00000110: 4b4c a53e 2080 37bf c6ad 1fbd 6882 7abf
00000120: 145b 69bf 9127 2ebf b00d 3fbf e27d 27bf
00000130: d0d6 523b 841e 5cbf a333 f93e 9309 643f
00000140: 8020 e63d 1f1b 9d3e 03c4 7e3f fd36 69bf
00000150: aeb0 1f3f 185b 38bf e253 7c3f 48d7 2b3f
00000160: 05ec 86be 7ce2 7ebf 5760 78bf 424c f73c
00000170: bde2 7f3f 084a cf3e 0f33 6a3e 32a0 5fbe
00000180: 2347 e13e ff27 b8be f955 9c3e 1693 bb3e
00000190: 030f c23d 3300 d83b cf24 663f bc87 763c
000001a0: c7fe 7ebf 6299 7f3f 94ac c4be 3188 7c3f
000001b0: 6885 7fbf 5995 7ebf 2123 403e a8bb bd3e
000001c0: a035 69bf bc3b 3c3f d416 67bf 08d6 7abf
000001d0: 6be4 2abf 4e05 7abf f194 78bf 8054 653f
000001e0: 5447 1e3f 4671 20bf 003d 28bf ede6 773f
000001f0: 2fa5 7fbf 0b9f b23e 374e 2dbf f305 b2be
00000200: 7a95 963e f055 2abf 2875 aebd 5d61 77bf
00000210: 2ffe 68bf a5b7 3cbf 1dd2 39bf 5994 3dbf
00000220: e761 b1bc 5943 4ebf e4b5 e13e b6e3 553f
00000230: b810 0f3d 706d 9d3e 394b 7d3f d6a8 6cbf
00000240: 6d46 2c3f 84e4 1fbf 50e9 7a3f b6b3 133f
00000250: ab08 fcbd 22e6 7dbf 7c0a 77bf ce5f 34bd
00000260: 7ace 7f3f c1a3 be3e 7218 e03d f10e 11be
00000270: bc8b 093f 34d7 83be 3093 6b3e 659d 7e3e
00000280: d3be 433e ae1e b43d 02a5 593f fb63 40bd
00000290: 02bf 7ebf 3460 7f3f 20c4 e0be 9c2d 7b3f
000002a0: a82c 7fbf 823b 7ebf 8876 273e ad79 d23e
000002b0: 6907 69bf ebea 3f3f e0d7 57bf cb58 79bf
000002c0: dbda 1ebf 1646 77bf e82a 73bf b202 5d3f
000002d0: 72fd 1a3f bb6c 2fbf 0cc1 27bf 38e8 6f3f
000002e0: 836b 7fbf 606a 843e 88ed 33bf c7ce 96be
000002f0: 3374 893e e2cc 1abf 718b 08be 0438 72bf
00000300: 639e 68bf aed6 48bf 5023 34bf 5468 4ebf
00000310: 6709 4dbd 4342 3abf bdb1 c93e 8dce 413f
00000320: 9719 31bd e39d 9d3e b6b4 793f 380a 70bf
00000330: b02e 373f a2ab 00bf 49d5 783f 87ba eb3e
00000340: 1a9f cc3c cfdb 7bbf f051 75bf 29c8 e4bd
00000350: 8da6 7f3f 15c2 ad3e 51bc 94bc 6a3b 8fbd
00000360: 6835 1f3f 63d1 17be 4e67 1c3e 7f6f fd3d
00000370: f87a 953e 1a73 2a3e aea6 463f 6e84 dcbd
00000380: 2861 7ebf 76f6 7e3f c560 f7be 2f17 793f
00000390: d67c 7ebf 3db1 7dbf 18e6 203e 7042 e63e
000003a0: 8486 68bf d569 423f ca5d 3fbf 6045 77bf
000003b0: 51d4 12bf 33e4 72bf 3c9b 69bf 081c 523f
000003c0: 3c91 1a3f d9d4 3cbf 3f08 27bf 6ac2 5e3f
000003d0: c6fe 7ebf 674f 193e 56f6 37bf 5460 6ebe
000003e0: cf0b 7f3e efd3 08bf 330d 3cbe 29c9 69bf
000003f0: f35d 68bf d482 52bf 4e10 2ebf 5f35 5abf
