best_model_RNN/gridsearch_1.pth (torch, 58560 bytes, 7 tensors)

weight_ih_l0 f4 [110, 6]
0.06329313 -0.026327142 -0.20534937 0.23573422 0.10621048 0.0670531 0.16276722 0.20018458
-0.020033745 -0.02511062 -0.18292388 -0.12071524 -0.017835192 0.10929534 0.08404491 -0.029621951
-0.111471534 -0.028826332 -0.45807606 -0.29934227 0.12194848 -0.07001428 0.3754511 0.4634735
-0.72407925 -0.2064996 -0.1761909 0.23722951 0.23322994 0.8410448 0.24168028 0.07565896
0.1465013 -0.27083978 -0.020636445 -0.2443222 -0.14135954 -0.114229724 -0.09415612 0.17295061
0.14425038 0.12873736 0.071900815 0.10433694 0.037309833 0.013110602 -0.07956851 0.093068406
-0.1456286 -0.11526479 -0.22729176 0.18885773 0.21497963 0.06690883 0.09514532 0.2105668
0.20766106 -0.178117 -0.22616698 -0.20881756 0.015291851 0.09579653 -0.037352234 -0.0658421
0.07393059 0.03543372 -0.2613635 -0.32420826 -0.2277879 0.22903456 0.22844279 0.2855102
-0.021455247 0.12441646 0.047619406 -0.0007342417 0.0111604715 -0.041002914 0.03789311 0.06435241
-0.13173985 0.1445222 0.056001563 -0.14593701 -0.07165457 0.012331233 0.055376206 0.043858804
-0.073848754 0.09300929 -0.176074 -0.09162784 0.004046976 -0.031846285 -0.06450484 0.038391642
-0.17713374 -0.033393558 0.10446275 -0.015645096 0.10423398 0.1366412 0.6945505 -0.6065632
-0.6271793 0.7786296 0.6670157 -0.6958419 -0.05889006 -0.0023461743 -0.037070833 -0.014909254
-0.046881128 0.0038528945 0.23006105 0.28956446 0.07080745 -0.14629462 -0.16308865 -0.17911628
0.19867241 0.028935209 -0.047066998 0.08087747 -0.16351992 -0.12207306 -0.1283064 -0.11317522
-0.040425666 -0.08081127 -0.0075929556 0.10440959 -0.46772298 -0.23001803 -0.33522582 0.2932158
0.24874212 0.45868272 -0.10638343 -0.015436148 -0.093930885 0.089827225 0.008286325 0.035576746
-0.026959516 0.01825572 0.048019312 0.053604074 -0.06804865 0.026110135 0.17666727 0.089378335
0.18643579 -0.28835458 -0.02527252 -0.046668362 0.034512807 -0.081498615 -0.14238317 0.13653794
0.17733487 0.04917221 -0.43170276 -0.3964791 -0.07585301 0.075430416 0.41602585 0.35782048
-0.15902646 -0.06057268 -0.08645593 -0.02192269 -0.046322186 0.045727078 0.1462918 0.14775963
0.072091125 -0.019703096 -0.16235618 -0.03826237 -0.07829463 0.007316308 -0.2653621 0.2601442
0.062714234 0.17894143 -0.1040833 -0.025655586 -0.16472992 0.14945829 -0.018579494 0.06671369
-0.047773734 0.017699892 0.11574805 -0.19984843 -0.078470856 -0.07998775 -0.0067136274 -0.14500917
-0.19443163 0.12891158 0.14219643 0.1391939 0.1760361 0.07191357 0.12452886 -0.036111847
-0.13725531 -0.118203685 -0.27935493 -0.1041635 0.053730547 0.010802084 0.22400492 0.2218806
0.05625203 0.037948992 0.022616906 -0.18408747 -0.032712262 -0.055421885 -0.17410238 0.05862458
-0.004326894 0.014564043 -0.016622601 0.23127972 -0.5884399 -0.40397543 -0.047351256 0.035265297
0.3995881 0.68250626 -0.41527447 0.00046615207 0.13667 -0.10402226 -0.087583415 0.27396446
0.49159795 0.37733138 -0.51659393 0.5624489 -0.40937448 -0.36017287 0.51500905 -0.09710994
-0.58375645 0.5138261 0.10940963 -0.47679552 0.6088989 -0.6940722 0.33984727 -0.36109906
00000000: d49f 813d 05ac d7bc 1b47 52be 5064 713e
00000010: e184 d93d 2353 893d 73ac 263e 30fd 4c3e
00000020: cf1d a4bc c9b4 cdbc 6650 3bbe 8d39 f7bd
00000030: 1c1b 92bc 3cd6 df3d bd1f ac3d bca9 f2bc
00000040: 304b e4bd 3325 ecbc f288 eabe 6443 99be
00000050: 20c0 f93d a663 8fbd 203b c03e 664c ed3e
00000060: 425d 39bf a274 53be 636b 34be 4bec 723e
00000070: d4d3 6e3e b64e 573f 097b 773e 16f3 9a3d
00000080: 7004 163e 83ab 8abe c30d a9bc 992f 7abe
00000090: 8ec0 10be 46f1 e9bd edd4 c0bd f719 313e
000000a0: 5fb6 133e bad3 033e bc40 933d 9bae d53d
000000b0: 32d2 183d dacd 563c d1f4 a2bd a69a be3d
000000c0: aa1f 15be f20f ecbd 2cbf 68be ec63 413e
000000d0: 9f23 5c3e 7f07 893d 8ddb c23d d39e 573e
000000e0: 1aa5 543e 4e64 36be 5198 67be 45d4 55be
000000f0: ac8a 7a3c f930 c43d a8fe 18bd 39d8 86bd
00000100: ec68 973d f322 113d 70d1 85be a0fe a5be
00000110: 3b41 69be 0988 6a3e e8ec 693e 652e 923e
00000120: eac2 afbc 0fce fe3d 910c 433d 207a 40ba
00000130: 69da 363c acf2 27bd ce35 1b3d 32cb 833d
00000140: d0e6 06be a1fd 133e e561 653d 8370 15be
00000150: a2bf 92bd f108 4a3c 29d2 623d 4aa5 333d
00000160: 043e 97bd a87b be3d be4c 34be 61a7 bbbd
00000170: 7f9c 843b 4071 02bd 1d1b 84bd 8e40 1d3d
00000180: 8c62 35be afc7 08bd 91f0 d53d 252a 80bc
00000190: a078 d53d aceb 0b3e 10ce 313f ba47 1bbf
000001a0: d38e 20bf 4554 473f 8ac1 2a3f b222 32bf
000001b0: b436 71bd 46c2 19bb 96d7 17bd f245 74bc
000001c0: 6d06 40bd d880 7c3b 2095 6b3e cb41 943e
000001d0: 7f03 913d 42ce 15be b600 27be 426a 37be
000001e0: c870 4b3e 8809 ed3c 53c9 40bd 16a3 a53d
000001f0: c471 27be 7101 fabd c162 03be 69c8 e7bd
00000200: 6295 25bd 6180 a5bd 54ce f8bb b2d4 d53d
00000210: 6379 efbe d989 6bbe b8a2 abbe 6220 963e
00000220: 41b6 7e3e 76d8 ea3e 8edf d9bd e6e7 7cbc
00000230: d65e c0bd 56f7 b73d 5ec3 073c ecb8 113d
00000240: 34da dcbc 058d 953c e6af 443d f28f 5b3d
00000250: 175d 8bbd ece4 d53c 44e8 343e fd0b b73d
00000260: 06e9 3e3e 36a3 93be 5108 cfbc 5327 3fbd
00000270: 4d5d 0d3d bfe8 a6bd e5cc 11be 9ad0 0b3e
00000280: 4697 353e cd68 493d 2508 ddbe 4fff cabe
00000290: d358 9bbd 437b 9a3d 5701 d53e 3f34 b73e
000002a0: d5d7 22be 0f1b 78bd ce0f b1bd 3797 b3bc
000002b0: 55bc 3dbd 514c 3b3d 85cd 153e 4d4e 173e
000002c0: 83a4 933d 6368 a1bc b340 26be 01b9 1cbd
000002d0: ef58 a0bd a4bd ef3b 8bdd 87be 9f31 853e
000002e0: 5270 803d 6c3c 373e a029 d5bd aa2b d2bc
000002f0: f6ae 28be 980b 193e 0634 98bc 30a1 883d
00000300: 64ae 43bd 5dff 903c 500d ed3d 11a5 4cbe
00000310: 54b5 a0bd 9ed0 a3bd fdfd dbbb 497d 14be
00000320: 1619 47be 6601 043e f19b 113e d988 0e3e
00000330: cf42 343e 6c47 933d fd08 ff3d 04ea 13bd
00000340: a88c 0cbe c614 f2bd 9c07 8fbe ac53 d5bd
00000350: 9014 5c3d 39fb 303c 8c61 653e ab34 633e
00000360: 8768 663d 6770 1b3d 1747 b93c 6d81 3cbe
00000370: 4bfd 05bd 0f02 63bd e547 32be 5420 703d
00000380: 9ec8 8dbb 069e 6e3c 1f2c 88bc 97d4 6c3e
00000390: ffa3 16bf ded5 cebe 64f3 41bd 5872 103d
000003a0: d096 cc3e bbb8 2e3f db9e d4be df65 f439
000003b0: 38f3 0b3e 9f09 d5bd ef5e b3bd 1245 8c3e
000003c0: bab2 fb3e 9431 c13e 803f 04bf a7fc 0f3f
000003d0: 8899 d1be 9468 b8be a2d7 033f 94e1 c6bd
000003e0: 1071 15bf 1b8a 033f 2812 e03d 8b1e f4be
000003f0: cce0 1b3f b7ae 31bf 7600 ae3e fae1 b8be

weight_hh_l0 f4 [110, 110]
0.062697 -0.0060986704 -0.0680468 0.09963178 0.10289543 -0.12850378 0.053934768 -0.03561412
0.0090853395 -0.04100984 0.044704966 0.10005751 0.19125406 0.07881123 0.1848071 -0.047541715
-0.10043833 -0.016935328 -0.08433695 -0.08253771 -0.00638175 -0.108941756 -0.033696774 -0.0011212949
-0.15545133 -0.019125799 0.073484346 -0.0356165 -0.2233251 0.024924768 0.03707819 0.031792384
0.16976272 0.022882005 -0.119690664 0.04440766 -0.053952698 -0.011135972 0.04460478 -0.058673162
0.00267303 0.02120396 -0.013935948 -0.013252478 0.19033404 -0.13205606 -0.068140045 0.06900352
-0.09410073 -0.097929664 0.049488463 -0.07333307 -0.05731705 -0.1327467 0.03804565 -0.014740705
0.05911735 0.068789095 0.12246875 -0.13047418 0.08619109 0.015770383 0.028349211 0.066271655
0.044235796 0.04520801 -0.013507601 -0.15009241 0.20679532 0.02469811 0.053987633 -0.047709264
0.066862285 -0.048957825 -0.0197344 -0.13660324 -0.065112375 0.07834016 -0.08481112 0.023945417
0.06345808 -0.0229698 -0.13746248 -0.10641132 -0.03123863 0.04987487 0.057283502 0.035747197
-0.17820352 -0.051048998 -0.023267515 0.056341402 -0.056458186 -0.042244617 0.07101912 -0.06355561
0.00072592264 0.051926967 -0.025958814 0.114273846 0.07639219 0.12799276 0.10885987 0.15570198
0.02180845 0.06792623 -0.0426509 -0.016411807 -0.019909332 -0.18521065 0.06478534 0.0956973
0.14557624 -0.07873785 -0.05510742 0.08053866 0.06771858 0.18857445 -0.13693345 0.10145069
-0.019035783 -0.1686379 -0.15400082 -0.060685206 -0.18121779 0.048900083 0.078059174 0.05500518
0.001622694 -0.058909796 0.0046824287 -0.025812073 0.030813908 0.09300463 0.1629301 -0.08825828
0.022748597 0.05328898 0.09563914 -0.014967641 -0.0720377 0.028492192 -0.049554408 -0.06769494
0.107317984 -0.015941408 0.041242193 -0.0073351148 0.00097161834 0.09241397 -0.029171402 0.033421222
0.04147118 0.015513334 -0.13923924 0.21172696 0.042000763 0.063191004 -0.011016543 -0.0011880808
-0.13904004 0.022683717 0.16984028 0.14511415 -0.085491754 0.058440782 0.020303566 -0.16951078
-0.05804996 -0.0047089546 0.014335169 -0.009887558 -0.020304604 0.07101196 -0.103746 -0.036669794
-0.01131975 0.16272068 -0.13779856 0.14995132 -0.049015936 0.06982312 -0.14386612 0.073145814
-0.012327412 0.15099852 0.09364952 0.022128085 0.053357262 -0.088592626 -0.09436744 -0.032424968
-0.066944495 0.053762555 0.023866905 0.040198874 -0.069266066 -0.11265015 0.13685478 0.006963492
0.092048824 0.011261892 0.041935127 0.035733778 0.10553089 0.12165625 -0.048556488 0.076224744
0.07112517 0.042212706 0.062484194 -0.17531514 0.062805906 0.006158678 -0.010470626 -0.116555914
-0.030649595 0.08049302 -0.030187573 0.005672236 0.14491151 -0.17463951 -0.108552195 -0.010925194
-6.946533e-05 0.034683093 -0.02395612 0.0017855208 0.06401076 -0.18401773 0.020541161 -0.0036556404
-0.09638112 -0.06650226 0.028128248 0.21353072 0.1257454 -0.009503346 -0.07604383 -0.008414494
-0.10007044 0.03210035 0.13857979 -0.114372134 -0.009982316 -0.06454725 0.21122694 0.0045140274
0.09836137 -0.13472177 -0.013600061 -0.11473183 -0.10962842 0.1981011 -0.104148865 0.08698344
00000000: 4967 803d 5bd7 c7bb 1f5c 8bbd bf0b cc3d
00000010: d7ba d23d 7f96 03be b4ea 5c3d 1de0 11bd
00000020: adda 143c eff9 27bd 8e1c 373d f4ea cc3d
00000030: 1bd8 433e c867 a13d 133e 3d3e 1abb 42bd
00000040: 9cb2 cdbd f5bb 8abc dab8 acbd 8809 a9bd
00000050: 001e d1bb db1c dfbd a105 0abd 6af8 92ba
00000060: a22e 1fbe b5ad 9cbc f67e 963d 9be2 11bd
00000070: 56af 64be 072f cc3c 4ddf 173d bb38 023d
00000080: 47d6 2d3e 0b73 bb3c 6120 f5bd cee4 353d
00000090: 81fd 5cbd a773 36bc 80b3 363d 4553 70bd
000000a0: 002e 2f3b edb3 ad3c 9a53 64bc ec20 59bc
000000b0: ede6 423e b439 07be 028d 8bbd b851 8d3d
000000c0: e2b7 c0bd 598f c8bd 6ab4 4a3d a62f 96bd
000000d0: 48c5 6abd c0ee 07be c1d5 1b3d ff82 71bc
000000e0: 0925 723d 4ce1 8c3d e5d0 fa3d 069b 05be
000000f0: f484 b03d e430 813c 9b3c e83c 6fb9 873d
00000100: 9830 353d 092c 393d fc4e 5dbc d3b1 19be
00000110: 27c2 533e b153 ca3c 2322 5d3d ca6a 43bd
00000120: 18ef 883d 0088 48bd 09aa a1bc b8e1 0bbe
00000130: a359 85bd ce70 a03d 74b1 adbd 2e29 c43c
00000140: 4ff6 813d 292b bcbc f7c2 0cbe 2eee d9bd
00000150: 28e8 ffbc 9749 4c3d 1ba2 6a3d a76b 123d
00000160: fc7a 36be c118 51bd 849b bebc 3ec6 663d
00000170: b340 67bd b108 2dbd 7972 913d 7229 82bd
00000180: d84b 3e3a 5fb1 543d 94a7 d4bc 6808 ea3d
00000190: 8273 9c3d 8910 033e ecf1 de3d 5770 1f3e
000001a0: a2a7 b23c e81c 8b3d b6b2 2ebd 0e72 86bc
000001b0: e518 a3bc dca7 3dbe 2dae 843d f2fc c33d
000001c0: f011 153e 4f41 a1bd 51b8 61bd 74f1 a43d
000001d0: 0ab0 8a3d a919 413e 4838 0cbe 61c5 cf3d
000001e0: eef0 9bbc 6aaf 2cbe 64b2 1dbe 0d91 78bd
000001f0: 2891 39be 744b 483d 7ddd 9f3d 1d4d 613d
00000200: 93b0 d43a 664b 71bd 0f6f 993b d773 d3bc
00000210: 736d fc3c 3679 be3d 26d7 263e c2c0 b4bd
00000220: 445b ba3c 8c45 5a3d 74de c33d d63a 75bc
00000230: 8088 93bd 7568 e93c 90f9 4abd a5a3 8abd
00000240: 88c9 db3d 8e97 82bc 93ed 283d 675b f0bb
00000250: 34b4 7e3a 8943 bd3d ddf8 eebc b1e4 083d
00000260: afdd 293d a42b 7e3c bb94 0ebe f4ce 583e
00000270: fe08 2c3d 496a 813d bb7e 34bc 60b9 9bba
00000280: 8360 0ebe 34d3 b93c 9cea 2d3e ce98 143e
00000290: 4d16 afbd 9a5f 6f3d aa53 a63c 3c94 2dbe
000002a0: cbc5 6dbd 934d 9abb 0fde 6a3c 6dff 21bc
000002b0: d755 a6bc b86e 913d c878 d4bd 1133 16bd
000002c0: 7976 39bc 40a0 263e 111b 0dbe d78c 193e
000002d0: efc4 48bd 6dff 8e3d a451 13be 79cd 953d
000002e0: eaf8 49bc 5b9f 1a3e 52cb bf3d f545 b53c
000002f0: 258d 5a3d 0d70 b5bd b743 c1bd 0bd0 04bd
00000300: 321a 89bd 2036 5c3d 8784 c33c 93a7 243d
00000310: 5edb 8dbd 1fb5 e6bd a923 0c3e 012e e43b
00000320: 1884 bc3d cc83 383c 2bc4 2b3d 955d 123d
00000330: 9420 d83d e926 f93d 2be3 46bd b81b 9c3d
00000340: 13aa 913d 3be7 2c3d 6def 7f3d d085 33be
00000350: 62a0 803d bcce c93b fd8c 2bbc deb4 eebd
00000360: dc14 fbbc 86d9 a43d ee4b f7bc 2ade b93b
00000370: af63 143e b3d4 32be 9d50 debd 96ff 32bc
00000380: eaad 91b8 dc0f 0e3d a03f c4bc 2308 ea3a
00000390: 1318 833d 256f 3cbe f045 a83c 7893 6fbb
000003a0: 7763 c5bd 5632 88bd 366d e63c cca7 5a3e
000003b0: 67c3 003e ecb3 1bbc debc 9bbd f2dc 09bc
000003c0: bbf1 ccbd a87b 033d dce7 0d3e f03b eabd
000003d0: de8c 23bc 5931 84bd e04b 583e 68ea 933b
000003e0: b071 c93d 81f4 09be cad2 5ebc 86f8 eabd
000003f0: dd84 e0bd 04db 4a3e 004c d5bd 6024 b23d

bias_ih_l0 f4 [110]
0.11300387 -0.016340077 0.11532342 0.19654745 -0.29813668 0.02860117 -0.15489 0.10738518
-0.067675166 0.03680301 -0.013789708 -0.04245945 0.028085085 0.1697867 -0.0052777594 0.00054422097
-0.11662753 -0.18989025 0.062859304 -0.56203103 -0.034252804 0.1586151 0.144027 0.08317574
-0.025765432 0.04495192 0.025883723 0.26401433 0.048708078 -0.05977688 -0.07873174 -0.06849761
-0.23457275 -0.031912588 -0.10996654 -0.028507305 0.054760043 -0.047462665 0.287508 0.28673217
0.23037788 -0.35811922 0.050125923 -0.11926922 0.05466159 0.024417626 0.15745498 -0.29108787
0.4272133 0.13491228 -0.063816115 0.3312833 0.11251495 0.26033524 -0.105344005 -0.13889498
0.15241414 -0.04166324 0.04573668 0.23879851 0.17815773 -0.008705397 -0.15926223 0.11394057
0.15594372 -0.0013852004 0.09854637 0.10507782 -0.110963084 -0.21162824 0.19172189 -0.02075774
-0.086663686 0.059105664 0.045300942 0.105728835 -0.048769087 -0.12418897 -0.2963124 0.019034022
-0.41128007 -0.24376827 0.15147625 0.16213393 0.055719398 -0.110317476 0.03667153 -0.12892942
0.1056638 0.03163149 0.06660131 0.07637658 -0.47235456 0.21441384 -0.107768945 -0.04761178
0.34500104 -0.33267352 0.09025781 -0.022791505 0.18527889 -0.47921506 -0.122685306 -0.03926629
0.18747774 -0.042965468 -0.11840604 0.013550324 -0.23394813 0.10957229
00000000: 936e e73d a0db 85bc af2e ec3d bc43 493e
00000010: 5fa5 98be 004d ea3c 7c9b 1ebe c3ec db3d
00000020: 4799 8abd c1be 163d 3aee 61bc f6e9 2dbd
00000030: b112 e63c 91dc 2d3e 0ef1 acbb 0daa 0e3a
00000040: 6ada eebd 9772 42be 61bc 803d 44e1 0fbf
00000050: ab4c 0cbd ff6b 223e d07b 133e 0b58 aa3d
00000060: 0712 d3bc 811f 383d 1a0a d43c e32c 873e
00000070: 1f82 473d 9ad8 74bd 1b3e a1bd 7a48 8cbd
00000080: d733 70be c6b6 02bd 2336 e1bd 2788 e9bc
00000090: 114c 603d 3668 42bd 4034 933e 8fce 923e
000000a0: 2ee8 6b3e 675b b7be d750 4d3d 6c43 f4bd
000000b0: d5e4 5f3d 7907 c83c e13b 213e 7809 95be
000000c0: b4bb da3e 7226 0a3e 06b2 82bd f79d a93e
000000d0: 3d6e e63d a94a 853e 99be d7bd 7c3a 0ebe
000000e0: 7412 1c3e 13a7 2abd 6356 3b3d 9987 743e
000000f0: fb6e 363e 15a1 0ebc a315 23be ac59 e93d
00000100: b6af 1f3e 9d8f b5ba aed2 c93d 0a33 d73d
00000110: 9d40 e3bd 13b5 58be be52 443e 230c aabc
00000120: bb7c b1bd c818 723d 7b8d 393d 5c88 d83d
00000130: 18c2 47bd c956 febd 42b6 97be 3ded 9b3c
00000140: 4d93 d2be 649e 79be 971c 1b3e 7006 263e
00000150: 063a 643d 21ee e1bd e334 163d 1306 04be
00000160: 4366 d83d 0590 013d 4566 883d 536b 9c3d
00000170: 75d8 f1be 4d8f 5b3e f7b5 dcbd 9204 43bd
00000180: faa3 b03e 2f54 aabe 16d9 b83d 40b5 babc
00000190: c0b9 3d3e ad5b f5be 6f42 fbbd b0d5 20bd
000001a0: 2afa 3f3e 8ffc 2fbd de7e f2bd 2e02 5e3c
000001b0: 1990 6fbe 7067 e03d

bias_hh_l0 f4 [110]
0.018107936 0.06376387 0.0046555153 0.122258075 -0.24779694 0.1321514 -0.14723879 0.09116269
-0.20924395 -0.05673193 0.08627736 -0.05100809 -0.09679771 0.09197476 0.009358009 -0.02935872
0.008191521 -0.10296721 -0.112695575 -0.4396773 0.06550129 0.18585993 0.1642049 0.03371206
0.11851326 -0.0037136623 0.01132331 0.24481033 0.15027292 0.07884113 -0.022215584 -0.19162206
-0.25942075 -0.15708764 -0.03400777 -0.10161442 0.027984487 0.058103826 0.31449512 0.29252657
0.29345363 -0.39555207 0.030400889 -0.094909325 -0.1049293 0.013173164 0.087782264 -0.27511233
0.41429895 -0.01389495 -0.014194911 0.2238874 0.021743927 0.2875243 -0.09168924 -0.11345911
0.1886316 -0.087625474 0.020983072 0.2186841 0.095923536 -0.14104629 -0.12721826 0.17143127
0.16883601 -0.11150534 0.07230442 -0.008556346 -0.12549959 -0.2225055 0.17995295 0.119216755
-0.14058599 0.19383144 0.12202069 0.0340544 -0.055695996 -0.027429827 -0.394319 -0.052202642
-0.4887772 -0.281168 0.07897533 0.17473404 -0.008585212 0.037689433 0.049169973 -0.17706251
0.14610754 -0.067311935 0.0047826036 0.037552997 -0.6223898 0.2137117 -0.15890867 -0.0754516
0.4536588 -0.26357445 0.039511632 0.069493525 0.11763294 -0.5722717 0.014314479 -0.06437229
0.16063638 -0.023045862 -0.06664077 0.09020347 -0.27720502 0.22065242
00000000: 1857 943c a296 823d 4b8d 983b 7162 fa3d
00000010: 7bbe 7dbe b252 073e c4c5 16be 81b3 ba3d
00000020: 0c44 56be bd5f 68bd 2fb2 b03d dced 50bd
00000030: e13d c6bd 435d bc3d 5652 193c b381 f0bc
00000040: bb35 063c 79e0 d2bd f0cc e6bd 621d e1be
00000050: 8a25 863d 1152 3e3e 5425 283e a815 0a3d
00000060: 14b7 f23d ea60 73bb 6885 393c 8faf 7a3e
00000070: 25e1 193e 7577 a13d 75fd b5bc 9338 44be
00000080: ccd2 84be 95db 20be bb4b 0bbd 391b d0bd
00000090: b93f e53c 47fe 6d3d 8105 a13e 0bc6 953e
000000a0: 8e3f 963e cd85 cabe 490b f93c d25f c2bd
000000b0: 2ce5 d6bd 41d4 573c 30c7 b33d 86db 8cbe
000000c0: fe1e d43e a5a7 63bc c691 68bc bd42 653e
000000d0: 5220 b23c 6336 933e 91c7 bbbd 405d e8bd
000000e0: a428 413e fc74 b3bd b1e4 ab3c baee 5f3e
000000f0: 8f73 c43d 706e 10be 8145 02be ae8b 2f3e
00000100: 59e3 2c3e e95c e4bd 5714 943d eb2f 0cbc
00000110: f782 00be 7bd8 63be 9645 383e ea27 f43d
00000120: c6f5 0fbe c07b 463e fce5 f93d a07c 0b3d
00000130: 7c21 64bd 84b4 e0bc 2ee4 c9be 70d2 55bd
00000140: 0141 fabe 41f5 8fbe d1bd a13d 7bed 323e
00000150: fda8 0cbc 3c60 1a3d 7466 493d e04f 35be
00000160: 379d 153e d7da 89bd 63b7 9c3b 2cd1 193d
00000170: f054 1fbf 3dd7 5a3e f4b8 22be 5e86 9abd
00000180: f745 e83e 3bf3 86be f3d6 213d 9f52 8e3d
00000190: 8ae9 f03d 6680 12bf 4787 6a3c 9fd5 83bd
000001a0: dd7d 243e adca bcbc f57a 88bd 99bc b83d
000001b0: d1ed 8dbe b5f2 613e

weight f4 [6, 110]
0.06574112 0.037536524 0.017741127 -0.04861195 -0.13851453 0.033622462 -0.021968184 -0.0514113
-0.011101886 -0.045753263 0.034255046 -0.040356107 -0.078254275 0.010280885 -0.01988003 -0.05204959
-0.1363424 0.12987022 -0.08793814 0.09894687 0.0061333925 0.01739435 -0.08323834 -0.018223507
-0.0025378466 0.13122264 0.03986754 -0.09857358 -0.041481804 0.06067014 -0.0665655 -0.004682519
-0.09164176 -0.046287145 0.042939797 -0.0068391464 0.014217356 -0.081158504 -0.13912979 -0.04910601
0.05590532 0.12905456 0.13275272 -0.015345504 0.047017984 -0.06886404 0.025609434 0.08099762
-0.121611394 0.03449139 0.012352183 0.07180374 -0.023086729 -0.06936856 -0.014777419 0.017956933
0.0035641277 -0.10570607 0.07068568 -0.05028151 0.034279164 -0.1126166 -0.10068764 -0.01622884
0.06071699 0.05330065 -0.071826495 0.10315918 -0.01837775 0.07877129 -0.0035678272 0.05110488
-0.0897422 0.042802516 -0.02982657 -0.15347669 0.014355525 -0.1049883 0.10941619 -0.036364306
-0.014250631 -0.051373247 -0.015841236 -0.078459956 -0.030535456 0.017674731 -0.16238879 -0.02243209
0.051478714 0.092640355 0.08225371 0.03291066 0.0032448147 0.07518822 0.006666148 -0.11414821
0.07110668 -0.12235013 0.020051165 0.040477477 0.027685562 -0.039611667 -0.011418582 0.011736377
-0.014873493 0.029777888 0.046475723 -0.004023758 -0.01235229 0.02615327 -0.09565855 0.092425555
0.06748235 -0.08070595 -0.031710323 0.050185688 -0.067092314 -0.04424953 0.01574657 0.029660448
-0.050764512 -0.03317869 0.0145485625 -0.08729762 -0.035554145 0.020273017 -0.06660221 -0.21740954
-0.007918777 0.08518346 0.038200863 -0.033514034 0.005051824 -0.06633357 0.046708755 0.1050319
-0.01984935 -0.026762685 0.014465724 -0.03840339 -0.049167644 -0.032557342 0.035917256 -0.01294907
-0.10388213 0.0012059626 -0.02011085 0.06539609 -0.059757974 0.01325047 0.07646956 -0.025510542
-0.21476057 -0.09221778 0.057679236 -0.01318059 0.11515107 0.033477347 -0.08552818 0.12145686
0.06979761 -0.12700276 -0.0039312234 0.01382906 -0.053405095 -0.074648276 0.000838452 -0.06759134
-0.038000315 -0.16457495 0.0016138963 -0.039983526 -0.09112471 -0.08695319 0.062471457 0.06285376
-0.048236042 -0.013321216 0.022808215 -0.008154525 0.06831944 -0.03218465 -0.15951362 0.10450838
-0.008127301 -0.10486543 0.03804382 -0.046086885 0.10121866 -0.11123875 0.055226777 0.02786799
0.051266763 -0.09936673 0.005255255 0.048282422 -0.08218503 0.031431798 0.034184366 0.052258525
0.079274856 -0.010686976 -0.14553712 -0.0042281416 -0.017689886 -0.0069822436 0.05694199 -0.04101941
0.112701364 0.04065095 0.060541235 0.07556754 0.008746101 -0.02599414 0.08154866 -0.0031327934
-0.017978145 -0.12955739 0.006796666 0.05450856 -0.04571935 0.016689843 0.046958342 0.0077258814
-0.042265013 0.018040178 -0.04336134 -0.04343706 0.046538733 0.049337633 -0.033170864 -0.08616344
0.008323327 -0.06502574 -0.009898056 0.024638098 0.02145251 -0.16870101 -0.03082513 -0.046897035
-0.032419644 0.053669423 -0.038645677 -0.0138279265 -0.020415945 0.028113136 -0.0013958521 -0.039638758
0.015096572 -0.024360426 -0.050888654 0.030484866 0.044270147 0.03064353 -0.044541605 0.03550005
00000000: 48a3 863d e6bf 193d d755 913c 531d 47bd
00000010: c1d6 0dbe b5b7 093d 9ff6 b3bc a894 52bd
00000020: afe4 35bc c667 3bbd 054f 0c3d 724c 25bd
00000030: c743 a0bd 2871 283c 72db a2bc f331 55bd
00000040: 589d 0bbe b3fc 043e e918 b4bd a8a4 ca3d
00000050: a0fa c83b 997e 8e3c dd78 aabd 7749 95bc
00000060: 0052 26bb 3a5f 063e 254c 233d f2e0 c9bd
00000070: d3e8 29bd 4181 783d 7e53 88bd d16f 99bb
00000080: adae bbbd 9797 3dbd a4e1 2f3d eb1a e0bb
00000090: eaef 683c 6e36 a6bd 0a78 0ebe 6223 49bd
000000a0: fafc 643d e126 043e 54f0 073e b56b 7bbc
000000b0: ee95 403d 9708 8dbd e0ca d13c 15e2 a53d
000000c0: 650f f9bd d846 0d3d d060 4a3c d70d 933d
000000d0: 6120 bdbc 1b11 8ebd fd1c 72bc 6b1a 933c
000000e0: 2494 693b 6d7c d8bd a7c3 903d fcf3 4dbd
000000f0: 4f68 0c3d 88a3 e6bd 5235 cebd 58f2 84bc
00000100: 61b2 783d c851 5a3d c519 93bd 1f45 d33d
00000110: ef8c 96bc d852 a13d 35d2 69bb 5a53 513d
00000120: c2ca b7bd b151 2f3d da56 f4bc fe28 1dbe
00000130: 7033 6b3c 1b04 d7bd 9815 e03d bdf2 14bd
00000140: 7b7b 69bc c16c 52bd 7bc5 81bc 9daf a0bd
00000150: 7e25 fabc 99ca 903c 3f49 26be 81c3 b7bc
00000160: 58db 523d 3aba bd3d a274 a83d 54cd 063d
00000170: f5a6 543b 48fc 993d b46f da3b 89c6 e9bd
00000180: 61a0 913d b492 fabd 5742 a43c b6cb 253d
00000190: d5cc e23c d83f 22bd 0115 3bbc ef49 403c
000001a0: f4af 73bc c2f0 f33c 545d 3e3d bbd9 83bb
000001b0: 4261 4abc 623f d63c a1e8 c3bd 9c49 bd3d
000001c0: 3034 8a3d 2949 a5bd afe2 01bd 828f 4d3d
000001d0: b267 89bd ff3e 35bd f3fe 803c 78fa f23c
000001e0: 73ee 4fbd 61e6 07bd 185d 6e3c 18c9 b2bd
000001f0: 39a1 11bd 9913 a63c bd66 88bd 9ba0 5ebe
00000200: c2bd 01bc aa74 ae3d 8278 1c3d 0346 09bd
00000210: c589 a53b e5d9 87bd ae51 3f3d f71a d73d
00000220: 1b9b a2bc 6b3d dbbc a501 6d3c e04c 1dbd
00000230: 0364 49bd d95a 05bd f91d 133d 5628 54bc
00000240: 27c0 d4bd 6411 9e3a 82bf a4bc 63ee 853d
00000250: c7c4 74bd 8018 593c 139c 9c3d 7cfb d0bc
00000260: 32ea 5bbe addc bcbd 1041 6c3d 67f3 57bc
00000270: 53d4 eb3d 8b1f 093d 6629 afbd 60be f83d
00000280: 0df2 8e3d 030d 02be 7ed1 80bb 4893 623c
00000290: 4dbf 5abd 32e1 98bd 90cb 5b3a 546d 8abd
000002a0: 38a6 1bbd 5686 28be 6089 d33a c4c5 23bd
000002b0: 989f babd 8414 b2bd 12e2 7f3d 79b9 803d
000002c0: 2893 45bd 3b41 5abc 4bd8 ba3c 8f9a 05bc
000002d0: 10eb 8b3d 0dd4 03bd 8a57 23be 7d08 d63d
000002e0: 5f28 05bc b0c3 d6bd d6d3 1b3d 9ac5 3cbd
000002f0: bb4b cf3d 24d1 e3bd 7935 623d 694b e43c
00000300: 19fd 513d c980 cbbd 4634 ac3b cac3 453d
00000310: a050 a8bd a1be 003d e804 0c3d 090d 563d
00000320: db5a a23d 6d18 2fbc af07 15be 398c 8abb
00000330: 61ea 90bc 4ecb e4bb 013c 693d f803 28bd
00000340: f9cf e63d 9c81 263d 16fa 773d 28c3 9a3d
00000350: ce4b 0f3c aaf1 d4bc fc02 a73d 8d4f 4dbb
00000360: e746 93bc b1aa 04be 91b6 de3b 5e44 5f3d
00000370: 3744 3bbd 23b9 883c 6457 403d 6429 fd3b
00000380: 141e 2dbd ffc8 933c a99b 31bd 0feb 31bd
00000390: 669f 3e3d 4216 4a3d 2cde 07bd 7576 b0bd
000003a0: 905e 083c 372c 85bd 752b 22bc d6d5 c93c
000003b0: 2dbd af3c f5bf 2cbe fc84 fcbc 1b17 40bd
000003c0: 76ca 04bd 78d4 5b3d ee4a 1ebd 878e 62bc
000003d0: 573f a7bc 854d e63c 06f5 b6ba 405c 22bd
000003e0: 9d57 773c 848f c7bc 9f70 50bd 66bb f93c
000003f0: 9d54 353d 2408 fb3c 4271 36bd 8068 113d

bias f4 [6]
0.04321768 0.08229199 -0.008803105 -0.00017239642 -0.1047899 -0.040126514
00000000: 0605 313d b488 a83d e63a 10bc 50c5 34b9
00000010: 169c d6bd b35b 24bd

hidden f4 [1, 1, 110]
-0.9787995 0.9291347 0.9999265 0.263834 -0.3710787 0.999082 -0.99835086 0.99985963
-0.99832433 0.5711548 -0.9999351 -0.93862826 -0.99997777 0.99999523 -0.9999859 -0.99992436
0.99731654 -0.73326385 0.9999465 -0.8508529 0.9890127 0.9999876 0.75256467 0.9999883
0.99996316 -0.9999544 -0.9990911 0.9728489 0.9998988 0.9767768 0.9999997 -0.8694065
-0.99987775 -0.99897265 0.94657075 -0.9424845 -0.99997 0.999683 0.9996729 0.9999934
-0.9977419 -0.98267484 0.61865187 0.9970321 -0.9996818 0.82220423 -0.9997236 -0.99952775
0.9982764 0.9974143 -0.99983287 0.9991842 0.9999612 0.9999847 -0.99810547 0.8623712
0.050604474 -0.99998134 -0.9998916 0.99981076 -0.99998885 0.99999857 0.9999702 0.9986858
-1.0 -0.999561 0.9999775 0.999803 -0.9999678 0.9391859 0.8098452 0.9999488
-0.9999629 -0.9999872 0.9998321 0.9999755 0.9955835 0.57496244 -0.9999503 -0.9946083
-0.9995598 -0.59868294 0.18658592 0.9702045 0.38139814 0.9999862 -0.99454844 -0.999891
0.9999809 -0.9999995 0.9999744 0.9964815 0.99792296 0.9977139 -0.99954927 0.999211
-0.9964188 0.6436314 0.2111815 -0.99939984 0.99690187 -0.9953418 -0.9674172 -0.9997117
0.99996257 -0.9999649 -0.9990198 0.99998087 -0.14321128 0.99999535
00000000: 9b92 7abf c6db 6d3f 2ffb 7f3f 4015 873e
00000010: 07fe bdbe d7c3 7f3f ec93 7fbf cdf6 7f3f
00000020: 2f92 7fbf 3337 123f bffb 7fbf f149 70bf
00000030: 8bfe 7fbf b0ff 7f3f 13ff 7fbf 0bfb 7fbf
00000040: 2350 7f3f 2eb7 3bbf 7efc 7f3f 7fd1 59bf
00000050: f02f 7d3f 30ff 7f3f 14a8 403f 3cff 7f3f
00000060: 96fd 7f3f 03fd 7fbf 6fc4 7fbf a00c 793f
00000070: 5ef9 7f3f 0b0e 7a3f fbff 7f3f 6d91 5ebf
00000080: fdf7 7fbf acbc 7fbf 7652 723f aa46 71bf
00000090: 09fe 7fbf 3aeb 7f3f 90ea 7f3f 91ff 7f3f
000000a0: 036c 7fbf 9490 7bbf f85f 1e3f 7f3d 7f3f
000000b0: 25eb 7fbf fa7b 523f e3ed 7fbf 0de1 7fbf
000000c0: 0b8f 7f3f 8b56 7f3f 0cf5 7fbf 89ca 7f3f
000000d0: 75fd 7f3f fffe 7f3f d783 7fbf 5cc4 5c3f
000000e0: a346 4f3d c7fe 7fbf e5f8 7fbf 99f3 7f3f
000000f0: 45ff 7fbf e8ff 7f3f 0cfe 7f3f dfa9 7f3f
00000100: 0000 80bf 3be3 7fbf 87fe 7f3f 17f3 7f3f
00000110: e4fd 7fbf 7d6e 703f 0452 4f3f a5fc 7f3f
00000120: 92fd 7fbf 29ff 7fbf fff4 7f3f 65fe 7f3f
00000130: 8fde 7e3f bd30 133f befc 7fbf a69e 7ebf
00000140: 27e3 7fbf 4943 19bf 6110 3f3e 525f 783f
00000150: 9e46 c33e 18ff 7f3f ba9a 7ebf dbf8 7fbf
00000160: c0fe 7f3f f8ff 7fbf 53fe 7f3f 6919 7f3f
00000170: e177 7f3f 2e6a 7f3f 76e2 7fbf 4bcc 7f3f
00000180: 4d15 7fbf 07c5 243f f73f 583e abd8 7fbf
00000190: f634 7f3f b8ce 7ebf a7a8 77bf 1bed 7fbf
000001a0: 8cfd 7f3f b3fd 7fbf c3bf 7fbf bffe 7f3f
000001b0: faa5 12be b2ff 7f3f
